environmental_predictor/models/lstm_Kyiv_co.pth (torch, 631835 bytes, 27 tensors)

lstm.weight_ih_l0 f4 [256, 3]
0	0x3dc33745	0.09532026
1	0x3df0a4d8	0.117501915
2	0xbde8f5ce	-0.113750085
3	0xbc622329	-0.013802328
4	0xbd83feed	-0.064451076
5	0xbc79cec2	-0.015247049
6	0xbe0ca554	-0.13734943
7	0xbdd25d95	-0.102717556
8	0xbe2ff4fc	-0.17183298
9	0x3d623d53	0.055234265
10	0xbddd3577	-0.10801213
11	0xbd82814e	-0.06372319
12	0x3dbb311b	0.091402255
13	0x3e0c5d96	0.13707575
14	0xbe4b7690	-0.19869447
15	0x3e42e758	0.19033563
16	0x3e14afe0	0.14520216
17	0xbdadf1db	-0.08493396
18	0x3cb1a024	0.021682806
19	0xbd989762	-0.07450749
20	0x3dd61a17	0.10454195
21	0xbe05981f	-0.13046311
22	0x3db94350	0.09046042
23	0xbd86e976	-0.06587498
24	0xbd92eed3	-0.07174458
25	0x3bdd16ce	0.0067471033
26	0x3da60104	0.081056625
27	0x3d2e663c	0.042577967
28	0xbd7fbaa1	-0.062433843
29	0xbe012fac	-0.12615842
30	0x3db27f10	0.087156415
31	0xbc9b388d	-0.018947864
32	0xbdc647d9	-0.096816726
33	0xbcbd2d76	-0.023092967
34	0xbbc757e7	-0.006083477
35	0xbd90b3e6	-0.07065563
36	0x3afd34a2	0.0019318054
37	0xbd88a520	-0.0667212
38	0x3cad5796	0.021159928
39	0xbd9f4378	-0.077765405
40	0xbbc787a4	-0.0060891677
41	0x3d0cd4c4	0.034382597
42	0xbd8d04ee	-0.06885706
43	0x3db80d36	0.08986895
44	0x3dd9272a	0.10603173
45	0xbcb2ab11	-0.021810086
46	0xbda8d384	-0.082434684
47	0xbdc17660	-0.09446406
48	0x3be162b0	0.0068782195
49	0x3df501ab	0.11963209
50	0x3db1b190	0.086764455
51	0xbb531dad	-0.0032213733
52	0x3db1e6e4	0.08686617
53	0x3dbd651f	0.09247803
54	0x3c1e285c	0.009653177
55	0x3d2c7657	0.042105045
56	0x3b0bac01	0.002131224
57	0xbe001a76	-0.12510094
58	0x3cb36bb4	0.021901943
59	0x3d6a47ab	0.057197254
60	0xbca1129e	-0.019662198
61	0x3dba6ed3	0.09103169
62	0xbcb5bde5	-0.022185275
63	0xbdbb572f	-0.09147488
64	0xbdc83f9f	-0.0977776
65	0xbda3393d	-0.07969902
66	0x3e3ba78c	0.18325633
67	0x3dd18ba9	0.10231716
68	0x3e04791a	0.12936822
69	0x3cca327d	0.024682278
70	0xbc6fbdfc	-0.014632698
71	0x3c4c31e4	0.012463067
72	0xbdabdb30	-0.08391416
73	0x3da521cd	0.080630876
74	0x3bc148f7	0.0058985907
75	0x3e0f361b	0.13985483
76	0xbcf28317	-0.029603524
77	0xbdba7aac	-0.09105429
78	0xbc75e002	-0.015007021
79	0xbcbc8997	-0.023014827
80	0x3cd7d488	0.02634646
81	0x3e1335b5	0.14375956
82	0xbd7ffa99	-0.062494848
83	0xbd0c41a7	-0.0342423
84	0xbde48228	-0.11157638
85	0x3c178639	0.00924831
86	0xbd22f8bf	-0.039788004
87	0xbdfaa444	-0.122383624
88	0x3d56ec12	0.052471228
89	0xbdb9d055	-0.09072939
90	0x3e71d922	0.23617986
91	0x3e9745d6	0.29545468
92	0x3dc3a961	0.09553791
93	0x3dbd5afa	0.09245868
94	0x3d29aa7d	0.041422356
95	0xba695d6a	-0.00089021644
96	0x3d9ff9f5	0.078113474
97	0x3cd95f5c	0.026534729
98	0xbda0a892	-0.07844652
99	0xbd14bd54	-0.03631337
100	0x3d3c2564	0.045934096
101	0x3d4b4cd5	0.04963382
102	0xbd1d6c02	-0.038433082
103	0x3ce59a45	0.028027663
104	0x3d9135cd	0.0709034
105	0xbdc96a71	-0.09834755
106	0xbb3f163c	-0.002915754
107	0xbcc4535d	-0.023965532
108	0x3dde7ddb	0.10863849
109	0x3d70721f	0.058702584
110	0x3e191ccf	0.14952396
111	0xbe3a5c4d	-0.18199272
112	0xbddad69c	-0.10685465
113	0xbd859f16	-0.06524484
114	0x3e4a6b7f	0.19767569
115	0x3e2368db	0.15957968
116	0x3e066f6a	0.13128439
117	0x3dc25213	0.09488311
118	0x3e758376	0.2397593
119	0x3d9bef5b	0.07614013
120	0xbdc903da	-0.09815188
121	0xbc821955	-0.01588122
122	0xbc80319d	-0.015648657
123	0xbca293f6	-0.019845944
124	0xbdc51e30	-0.096248984
125	0xbe02bcc6	-0.12767324
126	0x3d994190	0.07483208
127	0x3dc33cea	0.09533103
128	0x3ddf9f1c	0.109190196
129	0xbd0e96b6	-0.034811698
130	0xbe1a7e04	-0.15087134
131	0x3e207456	0.15669379
132	0xbd3e3489	-0.04643682
133	0x3d39d318	0.04536733
134	0x3e511058	0.20416391
135	0x3d4014fc	0.046895012
136	0xbdc98d41	-0.09841395
137	0x3e2f98ea	0.17148176
138	0x3ca7f5c9	0.020502942
139	0x3db38372	0.087653056
140	0x3c154a2e	0.009111924
141	0x3d9e1330	0.077185035
142	0x3da339a1	0.07969976
143	0x3d9b3426	0.07578306
144	0xbd80dd2f	-0.062921874
145	0x3d703c44	0.058651224
146	0x3d8e1996	0.06938474
147	0xbbced043	-0.006311448
148	0xbd34610a	-0.044037856
149	0xbdb8fdfe	-0.0903282
150	0xbdea280f	-0.11433422
151	0xbb87b540	-0.0041414797
152	0x3b633aa0	0.0034672394
153	0x3db67d0d	0.0891057
154	0xbcaf2b28	-0.021382883
155	0xbd553980	-0.05205679
156	0xbc9fe09d	-0.019516284
157	0x3c35952d	0.01108293
158	0xbd30c9ca	-0.04316119
159	0xbd0a4f8e	-0.033767276
160	0x3de82950	0.11336005
161	0x3de66c9c	0.11251184
162	0xbdb3adb7	-0.08773368
163	0xbda454b7	-0.080239706
164	0xbd3faad0	-0.04679376
165	0x3d4a2724	0.049353734
166	0xbd8efc7a	-0.0698175
167	0xbd71ec8f	-0.05906349
168	0xbdaf6fc2	-0.08566238
169	0x3dcef82c	0.10105929
170	0x3dff20aa	0.12457402
171	0x3d9aac29	0.07552368
172	0x3add5785	0.0016887045
173	0xbcf96405	-0.0304432
174	0xbdbf57ec	-0.09342942
175	0x3d334a46	0.043772005
176	0xbdb47d4a	-0.088129595
177	0x3dd8eccf	0.10592043
178	0x3d796011	0.06088263
179	0x3c81dac5	0.015851388
180	0x3c893a1c	0.016751342
181	0x3deba4f8	0.11506075
182	0xbc90c101	-0.017670156
183	0xbd654f0e	-0.055983596
184	0xbde6de60	-0.112728834
185	0x3df4ecf3	0.11959257
186	0x3cf2f66a	0.029658515
187	0xbd4ed036	-0.050491534
188	0x3dea84d8	0.11451119
189	0x3db727f1	0.08943165
190	0x3d11b3a1	0.035571698
191	0xbd9957a5	-0.0748742
192	0xbdbf293b	-0.09334036
193	0x3c671608	0.014104374
194	0xbda07ffc	-0.07836911
195	0x3c320bd0	0.010867074
196	0x3d7897a8	0.060691506
197	0x3dc39ddd	0.095515944
198	0xbd08ca9a	-0.03339634
199	0xbd2eb9f4	-0.042657807
200	0xbcc66e96	-0.024222653
201	0xbd05d805	-0.032676715
202	0xbe0a9ba8	-0.1353594
203	0x3bf4bfe3	0.0074691637
204	0x3e21676a	0.15762106
205	0x3c5890b4	0.013218094
206	0xbd747503	-0.059681904
207	0xbbd09803	-0.0063657775
208	0x3ddc35ca	0.10752447
209	0x3c690ca8	0.014224209
210	0xbd61c5c9	-0.055120263
211	0x3ddf6e94	0.10909763
212	0xbd917519	-0.07102413
213	0xbdc16f5f	-0.094450705
214	0xb4c13edc	-3.5994788e-07
215	0x3e055f33	0.13024597
216	0x3cebfe46	0.02880777
217	0x3d9a424a	0.07532175
218	0x3dde0f7b	0.108427964
219	0xbdbc8d16	-0.092065975
220	0x3d335150	0.043778718
221	0xbdff69af	-0.124713294
222	0x3e08dec6	0.13366231
223	0x3d9a424f	0.075321786
224	0x3cbed38a	0.023294229
225	0xbd5b43c6	-0.05353143
226	0xbd8cfafd	-0.0688381
227	0x3d03eef8	0.03221032
228	0x3da8fbfb	0.082511865
229	0xbcd91442	-0.026498917
230	0x3d909892	0.070603505
231	0xbd3808cb	-0.04493026
232	0xbd4e395a	-0.050347663
233	0x3dee3ed0	0.11633074
234	0x3e04c51b	0.12965815
235	0xbd4b2745	-0.049597997
236	0xbdb2daa3	-0.08733108
237	0x3c768515	0.015046378
238	0xbdfb1451	-0.122597344
239	0xbcc5aa02	-0.024128918
240	0xbd42c998	-0.047555536
241	0xbd151b0e	-0.036402754
242	0xbd1a7dc1	-0.037717585
243	0x3e0a78ea	0.13522688
244	0x3d0e8fae	0.034804992
245	0xbe18121a	-0.14850655
246	0xbe19b66d	-0.15010996
247	0x3d8cc966	0.06874351
248	0xbdb0f710	-0.086408734
249	0xbc0ba7bb	-0.008523877
250	0xbe011edc	-0.12609428
251	0xbc3f3938	-0.011671357
252	0x3e06144e	0.13093683
253	0x3d592fa5	0.053023953
254	0xbcbc7414	-0.02300457
255	0x3c6d21f0	0.014473423

lstm.weight_hh_l0 f4 [256, 64]
0	0xbe0328e1	-0.12808563
1	0xbb93d470	-0.0045114085
2	0xbe025ec7	-0.12731467
3	0xbaaf59e9	-0.0013378236
4	0xbd529094	-0.05140741
5	0x3e0ffab6	0.14060482
6	0xbd51e701	-0.051245693
7	0x3ce4652c	0.027880274
8	0x3c0a0a6d	0.008425337
9	0x3ce60d25	0.02808244
10	0xbdd26593	-0.1027328
11	0x3b8fc8d8	0.004387956
12	0x3df5562d	0.11979327
13	0xbd8f9d86	-0.07012467
14	0xbd9cb87c	-0.07652375
15	0xbdb9252d	-0.09040294
16	0xbd969f22	-0.07354571
17	0x3dc115bc	0.09427974
18	0x3dfbc23b	0.12292906
19	0x3d9d77b9	0.07688851
20	0x3d89dbc4	0.0673137
21	0x3dccea55	0.10005633
22	0x3bffe2b0	0.0078090057
23	0x3c8901f9	0.016724573
24	0x3d998c91	0.07497514
25	0x3da70fb4	0.08157292
26	0x3d9f7c6b	0.07787403
27	0x3e01938a	0.12653938
28	0x3e07bf7b	0.13256638
29	0x3db7c547	0.089731745
30	0x3e18d531	0.14925076
31	0x3cb885d2	0.022524748
32	0xbc2801b5	-0.010254313
33	0xbd3b8b0a	-0.045786895
34	0x3dfc1095	0.1230785
35	0xbd3d7bf6	-0.046260796
36	0xbc15f6fb	-0.009153123
37	0xbda51e9c	-0.08062479
38	0xbdc55205	-0.096347846
39	0x3d8ab5aa	0.06772931
40	0x3cbc8886	0.023014318
41	0x3ddca400	0.10773468
42	0x3d9e349f	0.077248804
43	0xbe02763c	-0.12740415
44	0x3dce1bee	0.10063921
45	0x3bcc8a6e	0.006242088
46	0x3d8c3295	0.06845585
47	0xbdbbeca7	-0.09175997
48	0xbe374c57	-0.17900215
49	0xbe018c2d	-0.12651129
50	0x3dc1b6f6	0.09458725
51	0xbd1ca871	-0.038246576
52	0x3d029923	0.031884324
53	0xbdd2849e	-0.10279201
54	0xbda3a5c8	-0.07990605
55	0xbdfbecfa	-0.12301059
56	0x3dce0129	0.10058815
57	0xbdad1eda	-0.0845315
58	0xbcb43a9c	-0.022000603
59	0xbcc9523a	-0.024575341
60	0x3d9ae2b9	0.07562775
61	0x3de24160	0.110476255
62	0xbdcc2bda	-0.099693015
63	0xbcd4cb92	-0.025975976
64	0xbd9cccab	-0.07656225
65	0xbc8d5f21	-0.017257275
66	0x3c8a04a2	0.016847912
67	0x3cbfb8b7	0.023403509
68	0x3ded5e7a	0.115902856
69	0xbc6f72b6	-0.014614752
70	0x3db22284	0.086979896
71	0x3ccb8b3e	0.02484667
72	0xbd0dcba0	-0.03461802
73	0x3ddfb2dc	0.109227866
74	0x3d26d337	0.040728774
75	0xbc6f3a99	-0.014601373
76	0x3db7b206	0.08969502
77	0x3c747423	0.014920267
78	0xbd9d095a	-0.07667799
79	0xbdabdfc5	-0.0839229
80	0x3dc8a07c	0.09796235
81	0x3d2fae4b	0.042890828
82	0x3d1d4700	0.03839779
83	0xbdf8fd9c	-0.12157747
84	0xbdde759d	-0.10862277
85	0x3dd410de	0.1035478
86	0xbdb0c704	-0.08631709
87	0xbd729528	-0.059224278
88	0x3c9e72fa	0.019341934
89	0x3c6a5de8	0.014304616
90	0xbd5b459b	-0.053533178
91	0x3cd938ad	0.026516283
92	0xbddf9d81	-0.10918713
93	0xbde44cec	-0.11147484
94	0xbdd3477d	-0.1031637
95	0xbbe8e29c	-0.007107092
96	0x3d0d070c	0.03443055
97	0xbdcd30d3	-0.10019078
98	0xbd26916e	-0.040666036
99	0x3d9bf546	0.076151416
100	0xbccaf77f	-0.024776218
101	0xbdd6eedb	-0.10494777
102	0xbdd35948	-0.103197634
103	0xbcc00aab	-0.023442587
104	0x3dca09ef	0.09865176
105	0xbdfc3e40	-0.12316561
106	0x3dde2eee	0.10848795
107	0x3db2fda5	0.08739785
108	0xbda28cb2	-0.07936992
109	0xbdd2ebfb	-0.10298916
110	0x3d938614	0.07203308
111	0x3bd83435	0.0065980204
112	0x3e4f99e8	0.20273554
113	0x3da12eaa	0.078702286
114	0xbd56c96c	-0.052438185
115	0x3dc9e2ee	0.098577365
116	0xbc86b8bd	-0.016445512
117	0xbd7cf611	-0.061758105
118	0xbd8f78bc	-0.0700545
119	0x3d6e4d41	0.058179144
120	0xbd29daa1	-0.041468266
121	0xbcb40a5f	-0.021977602
122	0xbb837244	-0.0040114243
123	0xbd946bd2	-0.072471276
124	0xbd532d68	-0.051556975
125	0xbcc9115a	-0.024544407
126	0x3cb45fff	0.02201843
127	0xbc9b676b	-0.018970212
128	0xbd4a68d4	-0.04941638
129	0x3dd4e201	0.10394669
130	0x3dce87a1	0.10084463
131	0x3d45825e	0.04822003
132	0x3bd402b3	0.0064700483
133	0x3d9051d8	0.070468605
134	0xbd709624	-0.058736935
135	0xbd12c255	-0.03582986
136	0x3e06d829	0.13168396
137	0x3df757e9	0.120773144
138	0x3d2c6e7e	0.04209756
139	0xbd2e7519	-0.04259214
140	0x3dd023c1	0.101630695
141	0x3dc15e47	0.0944181
142	0x3cc1bb5c	0.02364891
143	0xbd723567	-0.05913296
144	0xbe00c2d0	-0.12574315
145	0x3dd8e4a8	0.10590488
146	0xbdbab050	-0.0911566
147	0x3d8c3d4d	0.0684763
148	0x3c2f0462	0.010682197
149	0xbd897130	-0.06711042
150	0x3d4ba915	0.049721796
151	0x3dd9f1b0	0.10641801
152	0xbdebbcc3	-0.11510613
153	0x3b6b35bf	0.003589019
154	0x3d12f7ba	0.03588078
155	0x3d9ea67d	0.07746599
156	0x3dc7781e	0.097397074
157	0xbd8277c1	-0.063704975
158	0xbdf98061	-0.121826895
159	0xbd4d82dc	-0.050173625
160	0xbd1d589d	-0.038414586
161	0xbd697f21	-0.057006005
162	0x3c97f2ec	0.018548451
163	0xbde1b0d1	-0.11020053
164	0xbd4cba07	-0.049982097
165	0x3cafd933	0.021465873
166	0x3cf10149	0.029419558
167	0xbd98016d	-0.07422147
168	0xbdef8f3f	-0.11697244
169	0xbd441638	-0.047872752
170	0xbc06cee4	-0.0082280375
171	0xbdad0b9c	-0.0844948
172	0x3e37d362	0.1795173
173	0x3d77eb83	0.060527336
174	0xbdea83e8	-0.1145094
175	0xbde4a13d	-0.11163566
176	0xbd8e9cde	-0.06963514
177	0x3c06c72d	0.008226198
178	0xbcceb34f	-0.025231985
179	0x3c87c9ae	0.01657566
180	0xbd332ec5	-0.043745775
181	0x3d9e58a3	0.0773175
182	0xbdca0870	-0.098648906
183	0x3d873973	0.066027544
184	0x3c8e17ab	0.01734527
185	0xbdd34891	-0.10316575
186	0xbca803b0	-0.02050957
187	0xbc0b95f5	-0.008519639
188	0x3d320f4c	0.04347162
189	0xbd62c314	-0.055361822
190	0xbcfc6a98	-0.030812547
191	0x3b07b486	0.0020706966
192	0xba870647	-0.0010301553
193	0x3dd9a925	0.10627965
194	0x3dfc6997	0.12324827
195	0xbd61c930	-0.055123508
196	0x3df30a9a	0.118672565
197	0x3becb171	0.007223301
198	0xbded7a93	-0.11595645
199	0x3ddc2f7b	0.10751244
200	0xbd95afb4	-0.07308903
201	0xbc75aaef	-0.014994367
202	0x3c9ec040	0.019378781
203	0xbe204451	-0.1565106
204	0xbd854d1a	-0.065088466
205	0xbd89b062	-0.067230955
206	0x3c8ebdf3	0.01742456
207	0xbd818376	-0.06323902
208	0xbde6c187	-0.11267381
209	0xbd8678ea	-0.06566031
210	0xbde83f08	-0.11340147
211	0xbc586994	-0.013208766
212	0xbbec2726	-0.0072068153
213	0xbce90efb	-0.028449526
214	0xbc0983b7	-0.00839322
215	0x3d1f5c67	0.03890648
216	0xbce4fe70	-0.027953357
217	0xbd69b603	-0.057058346
218	0xbd5551ec	-0.05208008
219	0xbd966884	-0.073441535
220	0xbd2a8a8d	-0.04163604
221	0xbd5f3cbc	-0.05450128
222	0xbd4d92bb	-0.05018876
223	0xbc8de770	-0.017322272
224	0xbc5f4679	-0.013627642
225	0x3cc03670	0.023463458
226	0xbdfe0343	-0.12402966
227	0xbe053cb5	-0.13011439
228	0xbcb9db2f	-0.022687523
229	0x3d8fc3ba	0.07019754
230	0x3bf5f708	0.007506255
231	0xbe11ce7b	-0.14238922
232	0x38fdc062	0.00012099814
233	0x3cfeef92	0.031120095
234	0xbdc00a91	-0.093770154
235	0x3bdebc29	0.006797333
236	0xbd3f924f	-0.04677039
237	0x3d717e78	0.0589585
238	0xbcae5449	-0.021280425
239	0xbd64a19c	-0.055818185
240	0x3dd8c284	0.10583976
241	0x3cf2387b	0.029567948
242	0x3d366ee7	0.04453936
243	0x3d953c49	0.07286889
244	0xbddf1e05	-0.10894398
245	0x3de1c6a7	0.11024218
246	0xbb4b9ef8	-0.0031070095
247	0x3d0cc9db	0.034372192
248	0xbda6a859	-0.081375785
249	0xbd693a27	-0.056940224
250	0x3c705858	0.0146695
251	0xbd3ed5b3	-0.04659052
252	0x3c329141	0.010898889
253	0xbd5a5e6c	-0.053312704
254	0xbde557a7	-0.11198359
255	0xbcae0639	-0.021243202

lstm.bias_ih_l0 f4 [256]
0	0x3daea2b1	0.08527125
1	0x3afccb8e	0.0019286738
2	0xbd5be431	-0.053684417
3	0x3d237bcb	0.03991298
4	0x3d73abce	0.059490018
5	0xbd574dc7	-0.05256441
6	0xbdda2ef1	-0.106534846
7	0xba54319c	-0.00080945506
8	0xbd28aa00	-0.04117775
9	0x3d1937d8	0.037406772
10	0xbd9756b0	-0.07389581
11	0x3b057a91	0.0020367245
12	0xbd1c41de	-0.038148753
13	0x3df52fed	0.11972032
14	0x3db1f49b	0.08689233
15	0xbc1f11f2	-0.009708868
16	0x3dcd94bd	0.10038135
17	0x3db2e20d	0.08734522
18	0x3d2b9281	0.041887764
19	0x3dd2a39f	0.102851145
20	0x3da75b48	0.081717074
21	0x3d8691d7	0.065707855
22	0xbc4e31ec	-0.0125851445
23	0xbdb4d7df	-0.08830237
24	0xbd423324	-0.047412053
25	0xbdb84e86	-0.08999352
26	0xbda88b22	-0.082296625
27	0xbd9bf674	-0.076153666
28	0x3dad9c95	0.08477131
29	0x3ccbef42	0.02489436
30	0x3df3dae8	0.119069874
31	0x3db2b86a	0.087265804
32	0x3d0fe8ad	0.035134006
33	0xbcf3167a	-0.029673804
34	0xbd45cccd	-0.048291016
35	0x3e11a519	0.14223136
36	0x3d307d33	0.04308815
37	0x3a90ca1b	0.001104656
38	0x3d253246	0.040331148
39	0x3c836211	0.016037973
40	0x3dbf56c4	0.09342721
41	0x3dace657	0.08442371
42	0x3da5d7c3	0.08097794
43	0x3ba8d266	0.0051520346
44	0x3c15366c	0.0091072135
45	0x3d2ed598	0.042684168
46	0x3d19a4b4	0.03751059
47	0xbd3baa38	-0.04581663
48	0x3e491d51	0.1964009
49	0x3dc642c9	0.09680707
50	0xbcb86f6d	-0.02251407
51	0xba70fa56	-0.00091925764
52	0xbd7326a5	-0.059363026
53	0xbd90f19f	-0.070773356
54	0x3dbc97ef	0.092086665
55	0x3d045a25	0.03231253
56	0x3d9e52aa	0.07730611
57	0xbdb15fb5	-0.08660833
58	0x3db195dc	0.086711615
59	0xbc7ad810	-0.015310302
60	0x3e1cc689	0.1531011
61	0xbdcfc044	-0.10144094
62	0xbb23057d	-0.0024875097
63	0x3d9dcbfa	0.07704921
64	0xbcf1fd3a	-0.029539693
65	0xbc4f6881	-0.012659193
66	0xbc813d6b	-0.015776357
67	0x3da0f339	0.07858891
68	0xbd7b83a4	-0.06140484
69	0xbcbb5adf	-0.02287048
70	0xbcde5977	-0.02714227
71	0xbdd832c2	-0.10556556
72	0x3c833fa1	0.016021552
73	0x3d2057fe	0.039146416
74	0x3e115527	0.1419264
75	0x3d11d781	0.03560591
76	0x3d8fdfba	0.07025094
77	0x3cca6659	0.024707006
78	0xbdda9faf	-0.106749885
79	0x3c15dfe6	0.00914762
80	0xbddee240	-0.108829975
81	0x3d8afc16	0.06786363
82	0x3de920c3	0.11383202
83	0x3dc0974a	0.09403856
84	0xbc81c024	-0.01583869
85	0x3dc415d3	0.09574475
86	0xbcabd48c	-0.020975374
87	0x3d3fc1ea	0.04681579
88	0xbd992889	-0.074784346
89	0xbce53c53	-0.027982866
90	0x3c850c83	0.016241318
91	0x3d563c84	0.052303806
92	0xbddeb657	-0.10874622
93	0x3deb7375	0.11496631
94	0x3daf7da9	0.0856889
95	0xbdb3d966	-0.087817
96	0x3d3fca3c	0.046823725
97	0xbdd8c040	-0.10583544
98	0x3cbb5488	0.022867456
99	0xbda80a97	-0.08205145
100	0xbded31c3	-0.11581757
101	0x3c860966	0.016361903
102	0x3d44d8a2	0.04805816
103	0x3dcd7e33	0.10033836
104	0x3d74dfcb	0.059783738
105	0x3ca1d867	0.019756509
106	0xbdeb49b3	-0.114886664
107	0x3d8814b3	0.06644573
108	0xbb54616b	-0.0032406698
109	0x3d7d6bbb	0.061870318
110	0x3da8640b	0.08222207
111	0x3da974a4	0.082742006
112	0x3e054080	0.13012886
113	0x3c2e0b92	0.010622876
114	0x3d1b99dd	0.037988532
115	0x3c255008	0.010089882
116	0xbdf2c379	-0.1185369
117	0xbd8f6785	-0.07002167
118	0x3dff1f80	0.1245718
119	0x3da8dc1d	0.08245108
120	0xbdb6cc25	-0.08925656
121	0x3d3f05b5	0.046636302
122	0x3dd6b379	0.104834504
123	0x3db2d554	0.08732095
124	0xbdc2920b	-0.09500512
125	0x3db2fe3e	0.08739899
126	0x3c29ead8	0.0103709325
127	0x3db4c0d4	0.088258415
128	0x3d943389	0.07236392
129	0x3db85f03	0.09002497
130	0x3d168bf7	0.036754575
131	0xbdef7b1b	-0.116934024
132	0xbde44a78	-0.11147016
133	0xbd836b65	-0.06416968
134	0x3de9c4ae	0.11414467
135	0xbddd507c	-0.10806367
136	0xbd699441	-0.05702615
137	0x3c4c053a	0.012452418
138	0xbd27d636	-0.04097577
139	0x3dd440c3	0.10363915
140	0xbdc51f36	-0.09625094
141	0x3d71e60b	0.059057277
142	0xbaaba040	-0.0013094023
143	0x3b6ed071	0.0036440159
144	0xbcd05c01	-0.025434496
145	0xbcf5e4c1	-0.030016305
146	0xbda84634	-0.08216515
147	0xbd4e0aee	-0.050303392
148	0x3d82a6de	0.06379484
149	0xbdaf7b56	-0.08568446
150	0xbc7f27d7	-0.015573463
151	0xbdf13af9	-0.11778826
152	0x3d3489a4	0.044076577
153	0xbd0ea637	-0.034826484
154	0xbd0076af	-0.031363185
155	0xbd8c27cb	-0.068435274
156	0x3a8c6dad	0.0010713838
157	0xbd3ba2ce	-0.04580956
158	0x3cdf3fba	0.027252067
159	0xbdd3deea	-0.10345252
160	0x3dd20d72	0.10256471
161	0x3d152148	0.036408693
162	0xbd959368	-0.07303506
163	0x3a2c8386	0.0006580878
164	0xbdb61c43	-0.08892109
165	0xbd906fce	-0.07052575
166	0xbd18c37a	-0.037295796
167	0xbc77ab43	-0.015116516
168	0x3dd33757	0.103132896
169	0xba0ba2c8	-0.00053266855
170	0xbcb56e3f	-0.022147296
171	0x3dc7f8c8	0.09764248
172	0x3d0e2e15	0.034711916
173	0xbd5a5d15	-0.053311426
174	0x3d73815f	0.05944955
175	0xbaf6dbb6	-0.001883379
176	0xbced44e7	-0.02896352
177	0x3dd84d20	0.105615854
178	0x3daa9aed	0.08330331
179	0x3de87502	0.113504425
180	0x3db9344f	0.0904318
181	0xbde2815d	-0.1105983
182	0x3d8240d4	0.06360021
183	0x3ce15677	0.02750705
184	0x3d7fc763	0.06244601
185	0x3d6ee9e3	0.05832852
186	0x3d67a358	0.05655226
187	0x3d6bb9a1	0.057550076
188	0xbd9b9c82	-0.07598211
189	0xbc86f8aa	-0.016475994
190	0x3da748a1	0.0816815
191	0x3cb46886	0.022022497
192	0x3c742960	0.014902443
193	0xbd8b6ace	-0.06807481
194	0x3c96be6a	0.018401343
195	0xbdbd5061	-0.09243847
196	0xbcae0ff1	-0.021247836
197	0x3db9d977	0.09074681
198	0xbdb6df43	-0.089293025
199	0xbcc55a4e	-0.024090912
200	0x3cb9c3d6	0.02267639
201	0xbd69c209	-0.057069812
202	0xbc898f8f	-0.016792087
203	0x3dcecff5	0.100982584
204	0x3d8ac585	0.06775955
205	0xbdbf69a1	-0.09346319
206	0xbd0beb69	-0.03416005
207	0x3c877704	0.016536243
208	0x3d46a8c4	0.04850079
209	0xbdc1b380	-0.09458065
210	0xbda58d6d	-0.080836155
211	0x3de4c830	0.11170995
212	0x3e2125c0	0.15737057
213	0x3d4db0b4	0.050217345
214	0x3d08cea5	0.033400197
215	0x3dcf2a1e	0.10115455
216	0xbc0065f8	-0.007836811
217	0x3c515665	0.012776946
218	0x3c92bcdd	0.017912323
219	0x3dae5b1e	0.08513473
220	0x3c9f9fcd	0.019485379
221	0xbd457fa1	-0.04821742
222	0x3da21ae0	0.07915282
223	0xbd9d8877	-0.07692044
224	0xbca3574a	-0.019939084
225	0x3d4d5d2d	0.050137687
226	0xbd4056b8	-0.0469577
227	0xbd6b9549	-0.057515416
228	0xbdb77c14	-0.08959213
229	0xbca80eb5	-0.020514825
230	0xbd881d5f	-0.06646227
231	0x3c9c8d8d	0.019110465
232	0xbdbc3bc7	-0.09191089
233	0x3d5dcd46	0.054150842
234	0xbc879ed1	-0.016555222
235	0xbc4a23a4	-0.012337599
236	0x3dca0fcd	0.09866295
237	0xbd1eced1	-0.038771454
238	0x3b604e98	0.0034226533
239	0xbd7366be	-0.059424154
240	0x3b095807	0.002095701
241	0xbd315516	-0.043294035
242	0x3d9f308a	0.0777293
243	0x3dfdb444	0.123878986
244	0x3b3d978e	0.0028929445
245	0xbd8e2b6e	-0.06941877
246	0x3de8a2ae	0.11359154
247	0xbda6867d	-0.0813112
248	0x3dbb2e20	0.09139657
249	0x3d19b1c8	0.03752306
250	0x3de7e1db	0.113223754
251	0x3d92e4e8	0.07172567
252	0x3bd6223a	0.006534842
253	0x3dd494ec	0.10379967
254	0xbd025c90	-0.031826556
255	0xbddd23e2	-0.1079786

lstm.bias_hh_l0 f4 [256]
0	0xbba7c4be	-0.005119889
1	0xbdc56502	-0.09638406
2	0x3dad1e02	0.08452989
3	0x3d8cc14e	0.068728074
4	0xbc552ec0	-0.013011634
5	0x3d4346ca	0.04767493
6	0x3d16fa78	0.03685996
7	0xbd114fec	-0.03547661
8	0xbddd36b7	-0.10801452
9	0xbd80ab46	-0.06282668
10	0xbdb62e9d	-0.088956095
11	0x3d1518b1	0.0364005
12	0x3d86e3c6	0.06586413
13	0x3d32dfd8	0.043670505
14	0xbd602db4	-0.054731086
15	0x3d9c2920	0.076250315
16	0x3de5207b	0.11187836
17	0x3df152ff	0.117834084
18	0xbb12f6b2	-0.0022424874
19	0x3e11f9ee	0.14255497
20	0x3e0fe9d9	0.1405405
21	0xbd2e00ec	-0.042481348
22	0x3dcf262b	0.10114702
23	0xbc0df3ee	-0.008664114
24	0xbdb66d09	-0.089075156
25	0xbc983741	-0.018581035
26	0xbd66e2b2	-0.056368537
27	0xbcc08ce0	-0.023504674
28	0xbde96023	-0.1139529
29	0xbd1ac288	-0.037783176
30	0xbb6db75f	-0.0036272628
31	0xbc7bc331	-0.0153663615
32	0x3c00ec2f	0.007868811
33	0x3ccf3fdf	0.02529901
34	0xbba37fb5	-0.004989589
35	0x3de9334b	0.113867365
36	0xbd1f30aa	-0.03886477
37	0xbd21ecba	-0.0395324
38	0x3df80d00	0.121118546
39	0xbd6214bf	-0.055195566
40	0x3dcceac2	0.10005714
41	0xbd2fe2ea	-0.04294101
42	0x3d9111b2	0.07083453
43	0x3e15d857	0.14633308
44	0x3e371da4	0.17882401
45	0x3e10f547	0.14156066
46	0xbdadfe72	-0.08495797
47	0xbb9e82c7	-0.004837367
48	0x3dee7c17	0.11644762
49	0xbb79109b	-0.0038004282
50	0x3cd4db1f	0.025983391
51	0x3d243ad0	0.04009515
52	0x3d99b867	0.07505875
53	0x3da5a516	0.08088128
54	0xbd069d60	-0.03286493
55	0xbbb9de9b	-0.0056722886
56	0x3cde4ee5	0.02713723
57	0xbd059044	-0.032608286
58	0xbc4e257b	-0.012582178
59	0x3c7de122	0.01549557
60	0xbd47bce4	-0.048764125
61	0x3c2196b9	0.009862595
62	0x3de4612e	0.11151348
63	0xbcedc624	-0.029025145
64	0xbd3eef8d	-0.046615172
65	0x3cfc5acc	0.030805014
66	0xbcf6de54	-0.030135311
67	0x3dbd4e60	0.092434645
68	0x3dc4558e	0.09586631
69	0xbdc5cf9a	-0.096587375
70	0xbcfd1609	-0.030894296
71	0x3c8ce0f4	0.01719711
72	0xbe0714db	-0.1319155
73	0xbe0405cf	-0.12892841
74	0xbdaa8995	-0.08327023
75	0xbddc1107	-0.10745435
76	0x3d803677	0.06260388
77	0x3dd59ffe	0.10430907
78	0xbbf04313	-0.0073322146
79	0xbdeee916	-0.11665551
80	0xbd9307db	-0.07179233
81	0xbd1a602e	-0.03768938
82	0x3cc4556f	0.02396652
83	0x3d1c3e95	0.03814562
84	0x3daf4301	0.08557702
85	0xbce75107	-0.028236879
86	0xbd375917	-0.044762697
87	0x3d389784	0.04506637
88	0xbdfbcead	-0.1229528
89	0x3ca19573	0.019724583
90	0x3de98c62	0.11403729
91	0x3db76ce5	0.08956317
92	0xbd44662a	-0.047948994
93	0xbd0df804	-0.034660354
94	0x3cfacdb4	0.030615665
95	0x3d00f681	0.031485084
96	0xbdea1b58	-0.11430997
97	0xbd6249b9	-0.05524609
98	0xbd0797f3	-0.033103894
99	0x3dc701c2	0.09717132
100	0xbda638fd	-0.081163384
101	0xbc5d31fa	-0.013500685
102	0x3cd951a0	0.02652818
103	0xbcf12ff0	-0.029441804
104	0xbd439938	-0.047753543
105	0x3d1f5cff	0.038907047
106	0xbdb44517	-0.0880224
107	0xbccf24af	-0.025286047
108	0x3e2a3c3f	0.16624545
109	0xbd748a83	-0.059702408
110	0x3bbdcce2	0.005792246
111	0xbcfc239e	-0.030778702
112	0x3e395682	0.18099406
113	0xbdb579a4	-0.08861092
114	0xbcd6c7cf	-0.026218323
115	0xbc0b7564	-0.008511875
116	0xbcc94a5c	-0.02457159
117	0xbd329428	-0.043598324
118	0x3b78f679	0.0037988706
119	0xbc532915	-0.012888213
120	0x3bad4121	0.005287305
121	0xbd9ef2ca	-0.07761152
122	0x3da274f0	0.0793246
123	0xbc326d04	-0.010890249
124	0xbd14c498	-0.0363203
125	0x3ded9834	0.11601296
126	0xbddd704c	-0.108124346
127	0xbd35bab1	-0.044367496
128	0x3daede68	0.085385144
129	0x3d2a0f81	0.041518692
130	0x3dc32d84	0.09530166
131	0xbdda1736	-0.106489584
132	0x3d919c1f	0.07109856
133	0x3d33f3e6	0.04393377
134	0xbd6d06f8	-0.057867974
135	0xbe047f16	-0.12939104
136	0xbc882ca9	-0.016622858
137	0x3d3b001f	0.045654412
138	0x3d64c8c5	0.05585553
139	0xbdf2ae4f	-0.11849653
140	0x3ca2f3a3	0.019891566
141	0x3da92145	0.08258299
142	0xbdacf60d	-0.08445368
143	0x3d8a9554	0.06766763
144	0x3d67cf4e	0.056594186
145	0x3cd9e3a4	0.026597805
146	0xbd886079	-0.06659026
147	0xbd87799b	-0.06614991
148	0xbd956621	-0.0729487
149	0x3d06bc0f	0.03289419
150	0x3d85a6c4	0.06525949
151	0x3b886938	0.0041629337
152	0x3d580cb2	0.052746482
153	0xbcfa8354	-0.0305802
154	0x3c605124	0.01369122
155	0xbd09e63f	-0.033666845
156	0xbdc99d5c	-0.09844467
157	0xbd768a99	-0.06019077
158	0xbc0fdae3	-0.008780214
159	0x3d7e4336	0.062075816
160	0xbcec44f1	-0.028841468
161	0x3dc7a7ea	0.09748824
162	0x3d8ce24e	0.06879102
163	0xbdd0ad5a	-0.10189314
164	0xbcd233c7	-0.025659455
165	0xbd1d31b2	-0.03837747
166	0x3ddc0d76	0.10744755
167	0x3c0d3248	0.008617945
168	0x3dbc4ce5	0.09194354
169	0xbd91c217	-0.07117098
170	0xbdc30bb3	-0.09523716
171	0x3cf64477	0.030061943
172	0xbc9eb43c	-0.019373052
173	0x3cc7ab95	0.024373809
174	0x3dbf060b	0.093273245
175	0xbdb5ba68	-0.08873445
176	0x3d8b594f	0.06804144
177	0xbc551941	-0.013006509
178	0x3dcba009	0.09942634
179	0xbcb620af	-0.022232382
180	0x3d59574a	0.05306176
181	0x3cb5206f	0.022110192
182	0xbca7162f	-0.02039632
183	0x3d293c78	0.041317433
184	0xbd90ebd6	-0.07076232
185	0xbcb1a274	-0.021683909
186	0x3bd29c3c	0.006427316
187	0x3da4b839	0.0804295
188	0x3d8c769f	0.06858563
189	0xbbb7fac9	-0.0056146127
190	0x3d7e2468	0.06204644
191	0xbd83ed2e	-0.06441723
192	0xbd7211ce	-0.05909901
193	0xbc88ef51	-0.016715677
194	0x3cea3065	0.02858753
195	0x3d6a4429	0.05719391
196	0xbc3dbcc0	-0.011580646
197	0x3dfa8d67	0.122340016
198	0x3ddff685	0.10935692
199	0x3d7fe81e	0.062477224
200	0xbdca8478	-0.09888548
201	0x3dc19218	0.09451693
202	0x3c08b7f3	0.008344638
203	0x3c8ed302	0.0174346
204	0x3e0f7fe1	0.14013626
205	0xbda73347	-0.08164077
206	0xbdda905f	-0.10672068
207	0xbc80ea01	-0.015736582
208	0x3dbd0f50	0.09231436
209	0x3d5d7d17	0.054074373
210	0xbd6e8e7b	-0.05824135
211	0x3d19b1ab	0.037522953
212	0x3d9f50bd	0.077790715
213	0x3d153191	0.036424223
214	0x3cc4223b	0.023942104
215	0xbd5afa6c	-0.053461477
216	0xbd0d22c5	-0.034456987
217	0x3de1f11f	0.11032318
218	0xbc465e5b	-0.012107457
219	0x3df7f539	0.121073194
220	0xbde9da89	-0.114186354
221	0x3d74a0a6	0.05972352
222	0x3e13b59a	0.14424744
223	0x3dc40ce9	0.09572775
224	0xbdf53ce3	-0.11974504
225	0xbdf965d1	-0.12177623
226	0xbdc8f22d	-0.09811816
227	0x3daeca8e	0.08534728
228	0x3d56d8af	0.05245274
229	0x3e2501a9	0.16113915
230	0x3d7bc0a1	0.061463002
231	0x3df60f1b	0.120146
232	0x3ddd8c10	0.108177304
233	0x3d73f8eb	0.05956356
234	0xbd702e5d	-0.058637965
235	0x3e0e4b73	0.13895969
236	0x3c4998d3	0.012304503
237	0x3d015c17	0.031581964
238	0x3dc3269e	0.0952885
239	0xbdad40ad	-0.084596016
240	0x3e6930ea	0.22772565
241	0x3ce1ebc6	0.027578246
242	0xbdbe1397	-0.0928108
243	0x3dc8a561	0.097971685
244	0xbe05ff68	-0.13085711
245	0x3d6656e7	0.05623522
246	0x3daca374	0.08429614
247	0xbc601019	-0.013675713
248	0x3e0d032b	0.1377074
249	0x3d0f757f	0.035024162
250	0x3d9efce6	0.0776308
251	0xbdaf71bc	-0.08566615
252	0x3db4d6e2	0.08830048
253	0x3ccb4da2	0.024817292
254	0x3d8c9de6	0.06866054
255	0xbdf71f89	-0.12066562

lstm.weight_ih_l0_reverse f4 [256, 3]
0	0x3d98e0d7	0.0746476
1	0x3dd8b5fa	0.10581584
2	0x3da9cf5f	0.08291506
3	0xbe0d7712	-0.13814953
4	0xbd8bdbf3	-0.06829061
5	0x3da975df	0.08274435
6	0xbd5a5e2b	-0.05331246
7	0xbe17a3a5	-0.14808519
8	0x3db314cd	0.08744202
9	0xbd86a5b8	-0.06574577
10	0xbdcb356b	-0.09922298
11	0x3e53004c	0.20605582
12	0x3c9931e3	0.018700546
13	0x3dbe0744	0.092787296
14	0xbdad45a3	-0.08460548
15	0x3c7cbda5	0.015426074
16	0x3cef89d6	0.02924053
17	0xbdbc17c7	-0.09184223
18	0x3e181cab	0.14854686
19	0x3c9cd147	0.01914276
20	0x3dd498de	0.103807196
21	0xbd9ff4b7	-0.078103475
22	0xbd9cc581	-0.076548584
23	0x3e02e3de	0.12782237
24	0xbd9f7851	-0.077866204
25	0xbdc70a39	-0.09718747
26	0xbd5bbfd3	-0.053649735
27	0x3d7e0706	0.062018417
28	0x3d9b6b2f	0.07588803
29	0x3e0d83ba	0.13819781
30	0xbd89e674	-0.067334086
31	0xbcd7ff7c	-0.026366942
32	0x3c6acac4	0.01433057
33	0x3c0a815a	0.008453691
34	0x3d5f1e5e	0.05447232
35	0x3e1d6100	0.15369034
36	0x3d997a3d	0.07494018
37	0xbd74c6d7	-0.05975994
38	0x3dd12e2e	0.10213886
39	0xbd427b44	-0.047480837
40	0x3c534d1a	0.0128968
41	0xbdbf151f	-0.093302004
42	0xbdf0e787	-0.1176291
43	0x3d819490	0.06327164
44	0x3da92db3	0.082606696
45	0x3ac784c4	0.0015222062
46	0x3d6e7fe6	0.058227442
47	0x3e224965	0.1584831
48	0x3d49ab9c	0.049235925
49	0x3df0d19e	0.11758731
50	0xbdb551b9	-0.08853478
51	0x3e33a30e	0.17542669
52	0x3cc2cc88	0.023779169
53	0xbc38ed59	-0.011287057
54	0xbcc891ea	-0.02448364
55	0x3e14c070	0.14526534
56	0x3e90876f	0.28228328
57	0xbdf60086	-0.120118186
58	0x3de738d9	0.1129014
59	0x3d5d567a	0.05403755
60	0x3d37e29a	0.04489384
61	0x3db12afe	0.08650778
62	0x3de4b259	0.111668296
63	0x3d309197	0.043107595
64	0xbc3696d1	-0.011144356
65	0x3d254b13	0.0403548
66	0xbd4a3a8e	-0.04937225
67	0xbd52113c	-0.051285967
68	0x3db2ddc3	0.08733704
69	0xbe124e52	-0.1428769
70	0xbcf6c44e	-0.030122902
71	0x3c9133cd	0.017724896
72	0x3d8668e3	0.06562974
73	0x3de7a89d	0.11311457
74	0x3cdc4fc5	0.026893506
75	0x3d4b877d	0.04968976
76	0xbc08a2eb	-0.008339624
77	0x3e1d7499	0.1537651
78	0x3c57edda	0.013179267
79	0x3db040f8	0.08606142
80	0xbd1fb785	-0.038993377
81	0x3c37ab64	0.011210296
82	0xba707a13	-0.0009173464
83	0x3d24883f	0.040168997
84	0x3d5f5057	0.054519977
85	0x3d86468a	0.06556423
86	0x3dd055be	0.10172604
87	0x3d1e3347	0.03862312
88	0x3dea10c5	0.1142898
89	0x3c23004d	0.009948802
90	0x3e008728	0.12551558
91	0x3de166d4	0.11005941
92	0xbdad6353	-0.0846621
93	0x3c0c3b9c	0.008559134
94	0xbdfcb883	-0.1233988
95	0x3cca59d7	0.024701042
96	0xbe1a84be	-0.150897
97	0x3d5a4ece	0.05329781
98	0xbd9b0280	-0.07568836
99	0x3cacd4bd	0.021097535
100	0xbced5580	-0.028971434
101	0xbc02081d	-0.007936505
102	0x3d8e74e3	0.06955888
103	0x3d0a22a1	0.03372443
104	0x3d821911	0.06352437
105	0x3d99d8b2	0.075120345
106	0xbd934ae3	-0.07192018
107	0xbd4825b8	-0.048864096
108	0x3c021314	0.007939119
109	0x3d0792b9	0.03309891
110	0x3d8d3459	0.0689475
111	0x3b112ffd	0.0022153847
112	0x3e13127b	0.14362518
113	0x3d6b89d4	0.05750449
114	0xbb5c33c8	-0.00336002
115	0xb9e40c80	-0.00043496862
116	0xbdd765c9	-0.10517461
117	0x3d3ab2a3	0.045580518
118	0xbd1dd712	-0.038535185
119	0xbdf04557	-0.117319755
120	0xbc568a77	-0.013094536
121	0x3da24572	0.07923402
122	0x3dc014c6	0.09378962
123	0x3db54310	0.08850682
124	0xbd5e87d5	-0.05432876
125	0x3d13db80	0.036098003
126	0x3da593a9	0.080848046
127	0xbca319e1	-0.019909801
128	0x3ce643e0	0.028108537
129	0x3c97dcf4	0.018537976
130	0xbd351148	-0.044205934
131	0xbd61712e	-0.055039577
132	0xbd906cb1	-0.07051981
133	0xbd329b2b	-0.04360501
134	0xbd9a7bab	-0.07543119
135	0xbdf5bc05	-0.119987525
136	0xbd66ce88	-0.056349307
137	0x3b8c608a	0.0042839693
138	0x3e124d60	0.14287329
139	0x3bd99adc	0.006640775
140	0x3d47a897	0.048744764
141	0xbdb3bcde	-0.08776258
142	0x3dc92993	0.09822383
143	0x3e61ef7f	0.22064017
144	0xbd875ec4	-0.06609872
145	0x3be71958	0.0070525818
146	0x3d009078	0.031387776
147	0x3d449c8a	0.04800085
148	0xbd45f91f	-0.048333284
149	0x3dc9bb89	0.098502226
150	0xbce772fc	-0.028253071
151	0x3dc916f0	0.09818828
152	0x3c508de7	0.012729145
153	0x3ca8bd0f	0.020597963
154	0xbc64cf23	-0.013965401
155	0x3df91251	0.12161697
156	0x3e788c0c	0.24272174
157	0x3dcf8c8c	0.10134229
158	0x3e827d82	0.2548638
159	0x3d87634d	0.06610737
160	0xbdd56b96	-0.10420911
161	0x3df1808c	0.117920965
162	0x3dc2355c	0.09482834
163	0x3e25c28f	0.161875
164	0x3e42de79	0.19030179
165	0x3daedaee	0.08537851
166	0xbd954910	-0.07289326
167	0xbd066543	-0.032811414
168	0xbc8edf4e	-0.017440464
169	0x3dd97801	0.10618592
170	0x3d048229	0.032350693
171	0xbdd848d8	-0.10560769
172	0xbdb456a2	-0.088055864
173	0xbcb17425	-0.021661827
174	0x3dca2f52	0.09872307
175	0x3db6dd6a	0.0892895
176	0xbdf2cec1	-0.118558414
177	0x3d5bb3f1	0.053638402
178	0x3da38ffb	0.079864465
179	0x3e31f98e	0.17380354
180	0xbe1e2daa	-0.15447107
181	0x3d899853	0.06718507
182	0x3d8cdf68	0.06878549
183	0xbd4bf115	-0.04979046
184	0x3ca020ec	0.019546948
185	0xbde18a12	-0.11012663
186	0x3d2f0b38	0.04273531
187	0xbda980c7	-0.082765155
188	0x3d789d3c	0.060696825
189	0xbdafd5d9	-0.0858571
190	0xbdbc25c2	-0.09186889
191	0x3e489b78	0.19590557
192	0x3c8dc1e5	0.01730437
193	0xbde724ed	-0.1128634
194	0xbb0be193	-0.002134417
195	0x3d357b2d	0.044306923
196	0xbddd29f9	-0.10799021
197	0x3dfa52be	0.12222813
198	0xbe195c31	-0.14976574
199	0xbe12e692	-0.14345768
200	0x3d996d69	0.074915715
201	0xbdbd3203	-0.092380546
202	0xbdbd1281	-0.09232045
203	0x3e1480ef	0.1450231
204	0x3e1f3f06	0.15551385
205	0xbd5ab859	-0.053398464
206	0x3deb84f5	0.11499969
207	0xbcc7b98d	-0.02438047
208	0x3caaa89f	0.020832358
209	0x3d090e62	0.033460982
210	0x3dac4ce7	0.084131055
211	0xbcc84db6	-0.024451118
212	0x3e1738db	0.14767782
213	0xbc6a55b2	-0.014302658
214	0xbd5ded83	-0.054181587
215	0x3d855be6	0.06511669
216	0x3bf0dff0	0.007350914
217	0x3d4754bc	0.048664793
218	0x3d5b6300	0.05356121
219	0xbba2ef3e	-0.0049723675
220	0xbd67fc2a	-0.056636967
221	0xbdcddb7a	-0.100516275
222	0x3d4b28e3	0.04959954
223	0x3c5c2b93	0.013438123
224	0xbc615db4	-0.013755251
225	0x3d49116b	0.049088877
226	0xbd9252d8	-0.071447074
227	0x3e20f34e	0.15717813
228	0x3d8e44b2	0.06946696
229	0x3cf013b8	0.029306278
230	0x3dc2bee8	0.09509069
231	0xbd648f0f	-0.055800494
232	0xbdf29dd7	-0.11846512
233	0x3d4b29ba	0.04960034
234	0xbdbaacd5	-0.09114996
235	0xbdca0424	-0.09864071
236	0xbc9323cb	-0.017961403
237	0xbcd5c73f	-0.026095985
238	0x3c9b920a	0.018990535
239	0x3e184798	0.14871061
240	0x3d351f11	0.04421908
241	0x3d8128dc	0.063066214
242	0x3d9b4f36	0.07583468
243	0x3d20048e	0.039066844
244	0x3d56a441	0.05240274
245	0xbd424700	-0.047430992
246	0x3d8d1356	0.06888454
247	0x3dd0f65f	0.102032416
248	0x3e86857f	0.26273724
249	0xbc8e632d	-0.017381275
250	0x3ccedefc	0.025252812
251	0x3d3d6524	0.046239033
252	0xbd2da2dc	-0.042391643
253	0x3dad37e2	0.084579244
254	0xbb1a0d41	-0.0023506435
255	0x3dfb018f	0.12256157

lstm.weight_hh_l0_reverse f4 [256, 64]
0	0xbdb73794	-0.089461476
1	0xbd5cc255	-0.053896267
2	0x3cc496c9	0.023997681
3	0x3a47725e	0.00076082896
4	0x3db558b3	0.08854809
5	0x3da9ef7f	0.082976334
6	0x3c828c75	0.015936116
7	0x3ded7aa5	0.11595658
8	0xbd2d48df	-0.042305823
9	0x3e057348	0.13032258
10	0xbdf6212f	-0.12018048
11	0xbad0d518	-0.0015932648
12	0xbdc13168	-0.094332516
13	0xbd1264f1	-0.035740796
14	0x3d2cafd5	0.042159874
15	0x3d9982f9	0.07495684
16	0x3c94a081	0.01814294
17	0x3dc83e2d	0.09777484
18	0x3e17fc0c	0.14842242
19	0xbcc9c871	-0.02463171
20	0xbd5b059a	-0.05347214
21	0x3d4ee53b	0.05051158
22	0xbdb5f703	-0.08885004
23	0x3db32a9e	0.08748363
24	0xbd0cbec8	-0.03436163
25	0x3d3a6e7d	0.045515526
26	0x3aabc1e0	0.0013104044
27	0xbd685f28	-0.056731373
28	0x3de7fede	0.11327909
29	0xbc415f6f	-0.011802538
30	0xbd3dbadd	-0.046320785
31	0xbb76505d	-0.0037584521
32	0x3cb811b0	0.022469372
33	0x3dd2c353	0.102911614
34	0x3d0d43c4	0.034488454
35	0x3e0c0b3a	0.13676158
36	0x3d580ed6	0.052748524
37	0xbd050f8a	-0.032485522
38	0xbd98d791	-0.07462991
39	0x3dae249c	0.085030764
40	0xbe00d30c	-0.12580508
41	0xbac242dd	-0.0014820952
42	0xbbf33b7e	-0.0074228635
43	0x3c03a558	0.0080350265
44	0x3d9779ee	0.07396303
45	0xbd05a141	-0.032624487
46	0xbbfc55b7	-0.0077006477
47	0xbe0a3859	-0.13498057
48	0x3df91e69	0.121640034
49	0x3da98e4f	0.08279096
50	0xbdc0aeb0	-0.09408319
51	0xbdaa3f5c	-0.08312866
52	0x3d1636e2	0.036673434
53	0xbcf8ab99	-0.030355262
54	0xbd8ff100	-0.07028389
55	0xbbe00c88	-0.0068374313
56	0x3c9489e3	0.018132156
57	0xbc6cba02	-0.014448645
58	0xbd991cda	-0.07476206
59	0x3c71eacf	0.014765455
60	0x3da35717	0.079755954
61	0xbd2ed41b	-0.04268275
62	0xbd9c1b69	-0.076224156
63	0xbde00dda	-0.10940142
64	0x3dffe226	0.12494306
65	0xbc9eb875	-0.019375065
66	0x3d34fb5f	0.04418504
67	0xbe009254	-0.1255582
68	0xbd0064df	-0.0313462
69	0xbddafe70	-0.10693061
70	0xbc1e9c47	-0.009680814
71	0xbc04cab3	-0.008104968
72	0x3d8f6a74	0.07002726
73	0xbdd03491	-0.10166276
74	0xbd84102c	-0.06448397
75	0x3ca01610	0.01954177
76	0xbdcafda6	-0.09911661
77	0x3d970c03	0.07375338
78	0xbdbe1d83	-0.09282973
79	0xbd4f5c92	-0.05062539
80	0xbdf11f56	-0.11773555
81	0xbda0ff3e	-0.078611836
82	0xbe0ac71c	-0.13552517
83	0x3dcbd1d0	0.09952128
84	0x3dc30bf7	0.095237665
85	0x3d7c76c9	0.06163672
86	0xbd0b2724	-0.033972874
87	0xbd0e0600	-0.03467369
88	0x3d3cdb00	0.046107292
89	0xbde05e07	-0.10955434
90	0x3c934dfa	0.017981518
91	0xbdfac170	-0.122439265
92	0xbd1c55dc	-0.03816782
93	0xbe013bcd	-0.12620468
94	0xbb8710fb	-0.0041218973
95	0xbdd059d2	-0.10173382
96	0x3d01153c	0.03151439
97	0x3da8e98a	0.08247669
98	0x3b29a9a5	0.002588847
99	0x3d1a82cd	0.037722398
100	0x3d946ef4	0.07247725
101	0x3cd62474	0.02614043
102	0x3df231c8	0.11825901
103	0xbddec972	-0.108782664
104	0xbbf9743a	-0.0076127322
105	0xbc490f74	-0.012271751
106	0x3d92b0c5	0.07162622
107	0x3d8cd791	0.068770535
108	0xbdf9c26c	-0.12195286
109	0x3dff624d	0.12469921
110	0x3db89727	0.09013205
111	0x3dca1a56	0.098683044
112	0xbdf7a77f	-0.12092494
113	0x3c10c089	0.008834966
114	0xbc8f941f	-0.017526684
115	0xbd3d22fa	-0.046175934
116	0xbe2002eb	-0.15626113
117	0xbd1ef39a	-0.038806535
118	0x3e02592c	0.12729329
119	0xbd87b80e	-0.066269025
120	0xbd10ba36	-0.035333835
121	0x3aa26dcc	0.0012392341
122	0xbd951018	-0.0727846
123	0xbd9fe61e	-0.07807563
124	0xbd727eaa	-0.059202828
125	0xbd115f98	-0.035491556
126	0xbdb4a796	-0.08821027
127	0x3d880c57	0.06642979
128	0x3d486829	0.04892746
129	0x3db7cced	0.08974633
130	0x3db99364	0.09061316
131	0xbd2156b7	-0.03938934
132	0xbe01640e	-0.12635824
133	0xbca800a7	-0.020508124
134	0xbcc67969	-0.024227815
135	0x3d9ca398	0.076483905
136	0xbc135c1d	-0.0089941295
137	0xbdd384c9	-0.10328061
138	0xbd867b34	-0.06566468
139	0xbdc6eee6	-0.09713535
140	0xbbe61c21	-0.007022396
141	0xbdeac032	-0.114624396
142	0xbd4e85d6	-0.050420605
143	0xbd6300f3	-0.055420827
144	0xbc610d58	-0.013736092
145	0x3d258feb	0.040420454
146	0xbdd50d38	-0.10402912
147	0xbdcf8198	-0.1013214
148	0x3d596428	0.053074032
149	0x3d70dd53	0.05880482
150	0xbe100aa6	-0.14066562
151	0xbc8ae834	-0.016956426
152	0x3d91c6f8	0.071180284
153	0x3d88480c	0.06654367
154	0x366cbc68	3.5276407e-06
155	0xbe009438	-0.12556541
156	0x3ba96aed	0.0051702172
157	0x3dc47704	0.09593013
158	0x3ddbeaa3	0.10738113
159	0x3e036854	0.12832767
160	0x3dc87875	0.097886
161	0xbdb930f9	-0.09042544
162	0x3d0cf197	0.034410086
163	0xbddd52aa	-0.108067825
164	0xbd970f2d	-0.073759414
165	0xbdc50a15	-0.096210636
166	0x3dc2c01c	0.09509298
167	0x3dc92cb9	0.09822983
168	0xbd9bb8d4	-0.076036125
169	0xbdf2282c	-0.118240684
170	0x3dbc9059	0.0920722
171	0xbd8d03cb	-0.06885489
172	0xbc04ab7f	-0.0080975285
173	0x3dcb15b8	0.09916252
174	0xbd5877fa	-0.052848794
175	0xbd03783d	-0.03209709
176	0xbd88471e	-0.066541895
177	0xbdf68ed7	-0.12038963
178	0x3d910df3	0.07082739
179	0xbdf63e25	-0.12023572
180	0xbe044463	-0.12916712
181	0xbd8099c5	-0.06279329
182	0xbe0898ec	-0.13339585
183	0x3da63753	0.08116021
184	0xbd8a1266	-0.067417905
185	0xbd38dfd6	-0.04513534
186	0x3d763952	0.06011326
187	0x3d974792	0.07386698
188	0x3dae102d	0.08499179
189	0x3d9e6c35	0.077354826
190	0xbd98c3cd	-0.07459221
191	0x3d322861	0.04349554
192	0x3d0d478a	0.034492053
193	0xbbd89d20	-0.0066105276
194	0xbd6e0149	-0.058106694
195	0x3abea604	0.0014545326
196	0xbd933f56	-0.07189815
197	0xbcd2582c	-0.02567681
198	0x3d533662	0.051565535
199	0x3e0049f4	0.12528211
200	0xbc3949ad	-0.01130907
201	0xbe02768d	-0.12740536
202	0x3d850fe6	0.06497173
203	0xbaf737c5	-0.0018861225
204	0xbdf7e6b2	-0.121045485
205	0xbd119955	-0.03554662
206	0x3c3b085d	0.011415568
207	0x3d990632	0.07471885
208	0x3c530a42	0.012880864
209	0xbd52465c	-0.05133663
210	0x3d8c14be	0.06839894
211	0xbc925789	-0.017864006
212	0x3de3063e	0.11085175
213	0x3d244f06	0.040114425
214	0x3deaaf1c	0.11459181
215	0xbda44026	-0.08020048
216	0xbd8f9e1c	-0.07012579
217	0xbe7a56e4	-0.24447209
218	0x3c911147	0.017708434
219	0xbcd25acc	-0.025678061
220	0xbcda7e8a	-0.026671667
221	0xbdb5da24	-0.08879498
222	0x3c82c1a2	0.015961472
223	0x3d2f2971	0.04276413
224	0x3e041ed6	0.12902388
225	0xbda3cad2	-0.07997669
226	0x3bdf11b8	0.006807532
227	0x3dc59f6b	0.09649547
228	0xbcc5ba3d	-0.024136657
229	0x3bc05d8c	0.0058705267
230	0x3cac49f4	0.021031357
231	0x3de77195	0.11300961
232	0xbd02fc6d	-0.031979013
233	0x3d7df6e0	0.062003016
234	0x3dafb6d5	0.08579794
235	0xbdaf28a3	-0.08552673
236	0xbcbb3d8b	-0.022856494
237	0xbc93b5b2	-0.018030975
238	0xbd3bc398	-0.04584083
239	0x3db5495b	0.08851882
240	0x3da0ee79	0.07857985
241	0x3cce476a	0.025180537
242	0x3c921e1e	0.017836627
243	0x3dcaa7f7	0.09895318
244	0x3e1c62f4	0.15272123
245	0xbc0d0230	-0.008606479
246	0x3c963833	0.018337345
247	0xba98fb92	-0.0011671653
248	0x3db9411a	0.0904562
249	0xbe0913e4	-0.13386494
250	0xbe003e30	-0.12523723
251	0x3e12844a	0.14308277
252	0xbd175d0c	-0.03695397
253	0x3dd39f4d	0.103331186
254	0x3c61cf30	0.0137823075
255	0x3d0b8db2	0.034070678

lstm.bias_ih_l0_reverse f4 [256]
0	0x3db1fe0c	0.08691034
1	0x3b1f6e1d	0.0024327107
2	0x3d144330	0.036196887
3	0x3e0c95e0	0.13729048
4	0xbc9c523e	-0.019082185
5	0xbdba2db6	-0.0909075
6	0x3e19cc87	0.15019427
7	0x3d9ebbaa	0.07750638
8	0xbd306778	-0.043067425
9	0x3d904064	0.070435315
10	0xbdc63f65	-0.0968006
11	0xbde23cfb	-0.11046787
12	0xbca8a2b7	-0.020585401
13	0xbc59acc6	-0.013285821
14	0x3e09e789	0.1346723
15	0xbd9668a6	-0.07344179
16	0xbd105880	-0.03524065
17	0xbde653ea	-0.11246474
18	0x3de912ed	0.11380563
19	0xbe00b4ff	-0.12569045
20	0x3d8eea51	0.06978286
21	0xbd870308	-0.06592375
22	0xbac9bab6	-0.0015390727
23	0x3ce22e2f	0.027609913
24	0x3d824736	0.06361239
25	0x3d43b304	0.047778144
26	0xbc12ce12	-0.008960264
27	0xbdce9eac	-0.10088858
28	0x3cb0ef77	0.02159856
29	0xbdaf84ea	-0.08570273
30	0xbd81602e	-0.06317173
31	0x3cf03a5b	0.029324701
32	0xbde66444	-0.11249593
33	0x3dd9e2d0	0.10638964
34	0xbc44966d	-0.011998755
35	0x3d651fd0	0.055938542
36	0xbd5958c9	-0.053063188
37	0xbc0f9fd4	-0.008766133
38	0xbd99e592	-0.0751449
39	0x3dceeb7e	0.1010351
40	0x3d47945c	0.04872547
41	0xbd74c4a1	-0.059757832
42	0xbd1ffee9	-0.03906146
43	0xbd902671	-0.07038582
44	0x3df6fa14	0.12059417
45	0xbad26e6e	-0.0016054639
46	0xbd89957f	-0.06717967
47	0x3d420ce0	0.04737556
48	0xbcd89c39	-0.02644168
49	0xbd1750dd	-0.03694235
50	0xbca6f109	-0.020378606
51	0xbda255ec	-0.079265445
52	0x3e075650	0.1321652
53	0x3cba1ef4	0.022719838
54	0x3e2a09e9	0.16605343
55	0xbdb59408	-0.08866125
56	0xbe08d357	-0.1336187
57	0x3ac11aac	0.001473268
58	0xbdd947cb	-0.106093965
59	0x3dc3ea72	0.09566201
60	0x3deb8116	0.114992306
61	0xbdcfd410	-0.101478696
62	0xbde783b1	-0.11304415
63	0x3da24d69	0.07924921
64	0x3dceec66	0.10103683
65	0xbd410404	-0.04712297
66	0xbca368fe	-0.019947525
67	0x3dfa2acb	0.12215193
68	0xbd5481ba	-0.05188153
69	0xbd99597b	-0.0748777
70	0x3dbc8b21	0.09206224
71	0xbd3928eb	-0.045205038
72	0xba9a7de6	-0.0011786788
73	0x3d9deac3	0.07710793
74	0x3daeb9ff	0.0853157
75	0xbd9b00bf	-0.07568502
76	0xbccef9af	-0.025265543
77	0xbdbe5add	-0.092946745
78	0x3d67b055	0.056564648
79	0xbd09c4a0	-0.03363478
80	0x3c7f5efc	0.015586611
81	0x3c5fbe4b	0.013656209
82	0x3c4f2497	0.012643001
83	0x3d3f3d2e	0.046689205
84	0xbce79343	-0.028268462
85	0xbdc42780	-0.095778465
86	0x3ce12b08	0.02748634
87	0xbdbe0ddc	-0.09279987
88	0xbd3ddd61	-0.0463537
89	0x3d855023	0.065094255
90	0x3da5d15a	0.08096571
91	0x3daa2742	0.08308269
92	0x3a080266	0.00051883457
93	0x3cbc1a67	0.022961808
94	0x3de5cd7e	0.11220835
95	0x3d21f696	0.039541803
96	0xbdc623be	-0.09674786
97	0x3b392f43	0.002825693
98	0x3dc6c3dd	0.09705327
99	0x3d8b3ebb	0.06799074
100	0x3ba5358a	0.0050417827
101	0xbd975391	-0.07388986
102	0x3cbea8ea	0.023273904
103	0xbd8148e6	-0.063127324
104	0xbd9eb63a	-0.07749601
105	0xbdc1b6df	-0.09458708
106	0xbd13a221	-0.03604329
107	0x3c3a16a9	0.011357942
108	0x3d404de2	0.046949275
109	0x3d2d8d75	0.042371232
110	0xbd4d4852	-0.0501178
111	0x3dd50e5b	0.10403129
112	0x3dcbf2b9	0.09958405
113	0x3cf1e0ae	0.029526081
114	0xbd77e292	-0.06051881
115	0x3bf45afe	0.007457136
116	0x3dfb161b	0.12260076
117	0x3d28767b	0.041128617
118	0x3dbf4afc	0.09340474
119	0x3c0b2062	0.008491607
120	0x3d770ce2	0.06031502
121	0x3df503e9	0.119636364
122	0x3daae914	0.083452374
123	0x3db9b049	0.09066827
124	0x3d757b85	0.05993225
125	0x3c31222b	0.010811369
126	0xbdac5660	-0.08414912
127	0x3e1f6480	0.15565681
128	0xbc2a2cb8	-0.010386638
129	0x3d97c35e	0.0741031
130	0xbdc57cab	-0.09642919
131	0x3d4d5cd6	0.050137363
132	0xbd195285	-0.037432212
133	0xbd49f87c	-0.04930924
134	0xbd874cb2	-0.06606425
135	0x3dd5972a	0.10429223
136	0xbc2f1927	-0.010687149
137	0xbdc04b31	-0.093893416
138	0xbdc1c870	-0.094620585
139	0xbce4dcc9	-0.02793731
140	0x3d53f5b8	0.051748008
141	0x3de2b2c8	0.11069256
142	0x3ca09b86	0.01960541
143	0x3c996437	0.018724544
144	0x3df657e8	0.120284855
145	0x3dd72f3f	0.10507058
146	0xbdcfc7cd	-0.10145531
147	0xbdb9e856	-0.09077518
148	0x3c86555f	0.01639813
149	0x3ddb8009	0.1071778
150	0x3d929af5	0.07158462
151	0xbd958e1b	-0.07302495
152	0x3cf544af	0.029939977
153	0x3d2a5f90	0.04159504
154	0xbd90bef1	-0.07067669
155	0xbcdb9ecc	-0.026809119
156	0x3d7c5288	0.061602145
157	0xbde35d55	-0.11101786
158	0xbc88a12e	-0.016678419
159	0xbdaf7e12	-0.08568968
160	0x3d2738b8	0.040825576
161	0x3d1f7dde	0.038938396
162	0x3d896eb0	0.06710565
163	0xbc9eb81f	-0.019374905
164	0xbdc4ed37	-0.09615558
165	0xbcb19629	-0.021678047
166	0x3d61203b	0.054962378
167	0xbcf1e6c8	-0.02952899
168	0xbc49cc18	-0.012316726
169	0x3ddeefe4	0.10885599
170	0xbda3219f	-0.07965397
171	0x3dd4af74	0.103850275
172	0xbd8695e4	-0.06571558
173	0xbc5d6d1f	-0.013514786
174	0x3daec8c7	0.08534389
175	0xbc3107df	-0.010805099
176	0xbd9bf1db	-0.0761449
177	0xbd572f50	-0.052535355
178	0x3d591702	0.053000458
179	0x3d3b9dc1	0.045804743
180	0xbdd75224	-0.10513714
181	0x3cee19a2	0.029064957
182	0xbbca16d1	-0.0061672707
183	0x3d37b2e0	0.044848323
184	0xbca502a4	-0.02014286
185	0xbdd94dea	-0.10610564
186	0xbd30767e	-0.043081753
187	0xbd89e918	-0.06733912
188	0xbbfb17b1	-0.0076627363
189	0xbcfc6a58	-0.030812427
190	0xba9d75e4	-0.0012013284
191	0x3d9d94a6	0.07694368
192	0xbc832731	-0.016009899
193	0x3d8f5694	0.06998935
194	0x3d62ba12	0.05535323
195	0x3c9ef7c1	0.019405248
196	0x3d8a7b3a	0.06761785
197	0x3c8935b0	0.016749233
198	0xbd2ebadf	-0.042658683
199	0x3dc4ba3d	0.09605835
200	0x3b6bfab8	0.0036007594
201	0x3dc94977	0.098284654
202	0xbcbf467f	-0.023349045
203	0xbd9e03b9	-0.07715554
204	0xbd1898da	-0.037255146
205	0xbd0c3c02	-0.034236915
206	0x3d7ba5d7	0.061437454
207	0xbd8e9f22	-0.06963946
208	0xbd24db5b	-0.040248256
209	0x3c66670d	0.014062655
210	0x3e18cf5d	0.14922853
211	0x3c0aee49	0.008479663
212	0xbb431783	-0.0029768653
213	0xbb958507	-0.0045629772
214	0xbd197c97	-0.037472334
215	0xbd9e785e	-0.07737802
216	0x3b18a483	0.0023291416
217	0x3dac4711	0.08411992
218	0x3d9e44a8	0.07727939
219	0xbd594914	-0.05304821
220	0xbd1bad96	-0.03800734
221	0xba128a20	-0.000559004
222	0xbce7e0de	-0.028305467
223	0x3be81be5	0.0070834034
224	0xbd5e1ebf	-0.05422854
225	0x3cec63ca	0.028856177
226	0x3d364111	0.044495646
227	0x3dad09ee	0.084491596
228	0x3e120713	0.14260511
229	0xbd1beec7	-0.038069513
230	0xbdd32b90	-0.10311043
231	0xbdad3909	-0.08458144
232	0x3dc01118	0.093782604
233	0x3d8e0f69	0.06936533
234	0x3d63c1c1	0.0556047
235	0xbcd818cd	-0.026379013
236	0x3dd041db	0.10168811
237	0xbcd22931	-0.025654407
238	0xbd3dcd91	-0.04633862
239	0x3da7161d	0.08158515
240	0x3cdee00b	0.027206441
241	0x3defb6d5	0.11704794
242	0x3caeab8a	0.02132203
243	0xbd65a02b	-0.05606095
244	0x3dc88890	0.09791672
245	0xbdd9048e	-0.10596572
246	0x3ddad708	0.10685545
247	0x3db1a197	0.08673399
248	0x3d8c10dc	0.06839153
249	0x3c4d9a43	0.012548986
250	0xbdb8ea44	-0.090290576
251	0xbc1e8c2f	-0.009676977
252	0x3a31a4c8	0.00067765685
253	0xbca24e15	-0.019812623
254	0xbd6277e2	-0.05529011
255	0x3d9370cb	0.07199248
