environmental_predictor/models/lstm_Kyiv_so2.pth (torch, 631854 bytes, 27 tensors)

lstm.weight_ih_l0 f4 [256, 3]
-0.0060151215 -0.07767448 -0.15909381 -0.077721246 0.11900324 0.2583699 0.029308941 -0.031945698
0.13533741 0.043641116 0.06818053 -0.065347895 -0.03417128 0.031607345 -0.07009535 -0.08090272
0.063735045 -0.3009924 -0.06286813 -0.06539894 -0.15968624 -0.14645262 0.013229362 0.023053128
-0.023218112 0.046951532 0.0030083812 0.10269054 -0.10287616 -0.030718308 0.08969951 -0.07412104
-0.14640296 -0.43732736 -0.0085187005 -0.014237681 -0.16817091 -0.007871888 -0.14279343 0.039770287
0.04151157 -0.007688719 -0.25252432 0.0044460036 -0.053022902 0.09099807 0.02827693 0.18104547
-0.03467272 0.00038133055 -0.16451807 -0.0036439698 -0.15411669 -0.14949742 0.07324476 0.1324519
0.037410207 0.015985353 0.04132044 0.11166093 -0.022954205 -0.02287459 -0.17254628 0.09648074
-0.0923718 0.008563581 0.03983664 0.050907213 -0.09767536 0.013267794 0.022980759 -0.014533274
0.10236239 0.070588045 -0.05195875 -0.15815486 0.06582281 0.003926934 -0.044006772 0.023739168
0.095794626 -0.13338675 0.04054777 0.084994815 0.25009406 0.19323833 0.3239642 0.0012234387
-0.05670995 0.030283032 0.17783603 0.05917206 0.2271779 0.2186966 0.056886222 -0.022870537
0.15044479 0.06472945 -0.025742052 -0.18671708 -0.08522995 0.06289464 0.14655536 0.027145896
0.16684967 0.016260635 0.062125515 0.10782202 0.17125916 0.054278955 0.16654946 0.07380138
0.07351128 0.0073472117 -0.0036475868 -0.010983893 0.07879882 -0.052382518 0.0024083275 -0.01924503
0.04690677 -0.039675668 -0.10489016 0.082102455 0.03166136 0.09236975 -0.011469347 0.12843837
0.2119181 -0.05584416 0.08861378 0.11927472 0.13153434 -0.024913399 -0.061946794 -0.1705158
-0.117190994 0.004822183 0.10532566 0.089356646 0.05430521 -0.07631995 0.076139726 -0.117944025
-0.095573835 -0.1471233 -0.50784475 0.005222199 -0.04638394 0.11186004 0.10482951 0.08610043
-0.08706317 -0.10612767 0.029531555 0.07532243 -0.050381456 -0.009693656 0.11236079 -0.062226314
-0.01671065 0.17061521 -0.025948055 -0.052060083 -0.09257789 -0.05702178 0.07511687 0.06893836
-0.21770565 -0.055599265 0.019041983 -0.103724524 0.023169555 0.017117802 0.058703464 -0.05325768
-0.102541015 0.09264347 0.015458973 0.15565747 0.053165905 -0.09951809 0.015592058 0.004481357
0.08163839 0.35320702 -0.11048639 -0.06402372 0.029952465 -0.20313999 0.044275824 0.41184726
-0.009734609 0.14555725 -0.124307446 0.13648596 0.02488956 0.2584868 -0.104687825 -0.0800922
0.0128408205 0.015802344 0.11178776 -0.09561349 -0.1366666 -0.108420774 0.095352605 0.13291386
-0.053663343 -0.23689997 -0.05808767 -0.072193004 -0.047723077 -0.048167873 0.06932038 0.007742061
-0.0682931 0.052815225 -0.004910172 0.119122565 0.040996805 -0.17082326 0.16566853 -0.020230347
-0.0035907927 -0.42862013 -0.12884603 -0.17524557 0.018527256 0.07669856 -0.04846762 0.11330275
-0.037467167 0.055828653 -0.24107069 -0.18363158 -0.051172126 0.18114354 0.063316524 0.1973033
-0.018981101 -0.035706725 -0.13899893 -0.09334863 0.031382546 -0.06386754 0.04837604 0.12330408
-0.123470515 0.22100586 0.14869271 0.15559807 0.10709887 -0.013236717 -0.13852961 0.025124267
00000000: 7f1a c5bb cc13 9fbd 7de9 22be 512c 9fbd
00000010: f8b7 f33d 0f49 843e 4e19 f03c 7ed9 02bd
00000020: e495 0a3e 07c1 323d 3ca2 8b3d 1ed5 85bd
00000030: 2ff7 0bbd b476 013d 278e 8fbd 53b0 a5bd
00000040: 8587 823d ad1b 9abe 02c1 80bd e1ef 85bd
00000050: ca84 23be adf7 15be f7bf 583c ead9 bc3c
00000060: e933 bebc 4050 403d 4328 453b 6b4f d23d
00000070: bcb0 d2bd f6a4 fbbc 60b4 b73d c6cc 97bd
00000080: a8ea 15be 5fe9 dfbe 0592 0bbc 2a45 69bc
00000090: ff34 2cbe 17f9 00bc 7138 12be 2be6 223d
000000a0: 0908 2a3d a6f1 fbbb de4a 81be c8af 913b
000000b0: 8b2e 59bd 325d ba3d 05a5 e73c fc63 393e
000000c0: fb04 0ebd 52ed c739 6d77 28be abcf 6ebb
000000d0: c4d0 1dbe da15 19be 5901 963d 79a1 073e
000000e0: 723b 193d b7f3 823c 9f3f 293d 7cae e43d
000000f0: 750a bcbc 7e63 bbbc f9af 30be b297 c53d
00000100: 6d2d bdbd 434e 0c3c bf2b 233d 1584 503d
00000110: 050a c8bd 2961 593c 2542 bc3c f81c 6ebc
00000120: 5fa3 d13d 7790 903d b3d2 54bd 59f3 21be
00000130: 1cce 863d 83ad 803b 7240 34bd a578 c23c
00000140: f92f c43d 8996 08be 6b15 263d c311 ae3d
00000150: 540c 803e 45e0 453e a3de a53e ca5b a03a
00000160: b148 68bd 1f14 f83c a61a 363e 675e 723d
00000170: 53a1 683e 00f2 5f3e 8701 693d fe5a bbbc
00000180: 330e 1a3e e090 843d ffe0 d2bc c332 3fbe
00000190: 0a8d aebd e8ce 803d 9c12 163e 1261 de3c
000001a0: a4da 2a3e 0635 853c 5377 7e3d cbd1 dc3d
000001b0: 905e 2f3e 9c53 5e3d f18b 2a3e 2e25 973d
000001c0: 158d 963d e1c0 f03b 5a0c 6fbb c9f5 33bc
000001d0: 4761 a13d 0d8f 56bd 08d5 1d3b c1a7 9dbc
000001e0: 5021 403d f482 22bd a7d0 d6bd 5525 a83d
000001f0: 58af 013d 5a2c bd3d eee9 3bbc 5985 033e
00000200: 0f01 593e d9bc 64bd 247b b53d 4e46 f43d
00000210: f0b0 063e 2f17 ccbc ecbb 7dbd b29b 2ebe
00000220: d501 f0bd 6703 9e3b fbb4 d73d 9e00 b73d
00000230: 246f 5e3d a24d 9cbd 25ef 9b3d a38c f1bd
00000240: 37bc c3bd 7ea7 16be 1d02 02bf fb1e ab3b
00000250: 16fd 3dbd e016 e53d dbb0 d63d 6c55 b03d
00000260: 2d4e b2bd 7759 d9bd 29ec f13c a542 9a3d
00000270: c95c 4ebd 24d2 1ebc 6a1d e63d 05e1 7ebd
00000280: c6e4 88bc c1b5 2e3e 0491 d4bc f43c 55bd
00000290: 7a99 bdbd ac8f 69bd e0d6 993d 8e2f 8d3d
000002a0: 3bee 5ebe 0ebc 63bd effd 9b3c 866d d4bd
000002b0: 14ce bd3c a23a 8c3c 0b73 703d ba24 5abd
000002c0: 0601 d2bd dcbb bd3d a247 7d3c ac64 1f3e
000002d0: 7ec4 593d 24d0 cbbd d575 7f3c 59d8 923b
000002e0: 0732 a73d 8dd7 b43e b046 e2bd de1e 83bd
000002f0: df5e f53c ee03 50be 915a 353d a5dd d23e
00000300: e97d 1fbc f60c 153e e794 febd fac2 0b3e
00000310: 31e5 cb3c 6258 843e 9266 d6bd 6107 a4bd
00000320: 4e62 523c eb73 813c fbf0 e43d 01d1 c3bd
00000330: 54f2 0bbe b60b debd 3a48 c33d 921a 083e
00000340: 18ce 5bbd e895 72be 56ed 6dbd edd9 93bd
00000350: 4679 43bd ad4b 45bd d8f7 8d3d 1db1 fd3b
00000360: 41dd 8bbd c754 583d 82e5 a0bb 88f6 f33d
00000370: 44ec 273d 4bec 2ebe 03a5 293e 1dba a5bc
00000380: 8153 6bbb 1974 dbbe 37f0 03be 9373 33be
00000390: 79c6 973c 2214 9d3d fc85 46bd 460b e83d
000003a0: 2c77 19bd 96ac 643d 3cdb 76be eb09 3cbe
000003b0: dd99 51bd b17d 393e 18ac 813d e009 4a3e
000003c0: 417e 9bbc 3741 12bd bc55 0ebe 912d bfbd
000003d0: fc8a 003d fccc 82bd f425 463d d986 fc3d
000003e0: 1cde fcbd 5c4f 623e e742 183e 1a55 1f3e
000003f0: a756 db3d d1de 58bc b5da 0dbe 68d1 cd3c

lstm.weight_hh_l0 f4 [256, 64]
-0.11965524 -0.11759271 -0.057536464 0.14067486 -0.16066788 0.015441597 -0.04344342 -0.098219365
-0.18580455 0.02163328 0.0022635814 -0.23904605 -0.011568362 -0.0912473 0.11743641 0.05472893
-0.08789919 -0.012471414 0.20253251 -0.0067483885 -0.02788606 -0.16669565 0.009043988 -0.023595266
0.055549443 -0.082861334 -0.030330546 0.19113116 0.084511116 -0.029487535 0.023292372 -0.04458838
0.044253796 0.16588086 0.064862266 -0.13969217 0.12214706 0.19042993 -0.19353613 0.13388273
0.15555741 -0.04329698 -0.17794263 0.13479227 0.007301876 0.112353295 -0.003133604 -0.17372452
0.05329056 -0.033321884 -0.028498335 -0.17520443 0.019824728 -0.08067045 -0.037296753 0.120758444
0.046653774 0.10197632 -0.06821579 -0.1644983 0.009077434 -0.24915124 -0.20295744 -0.015865834
-0.18292114 0.24219199 0.14582562 0.064307496 0.056452125 -0.054385398 -0.03370783 -0.14517172
0.061478965 -0.09999778 -0.044992097 0.15595661 -0.08152092 -0.0145820035 -0.13840225 0.039858
-0.0923195 0.025258148 -0.060733706 -0.2845208 0.025388839 -0.07189212 0.08425931 0.029916212
0.008103533 0.10064828 0.015537439 -0.24674591 -0.018521195 0.055330213 0.062064245 -0.009889575
0.09314921 -0.045684773 0.031652547 0.1133919 -0.055591866 -0.10782492 0.044302266 0.055479795
-0.021779371 -0.0034778982 0.09667824 -0.2345769 0.08960482 -0.017139696 -0.12604927 -0.08699613
-0.007900583 0.09333933 -0.08514334 0.009786964 -0.05897436 -0.12805893 0.048609752 0.04314164
-0.004861468 -0.028879534 -0.08037241 0.09791839 0.05024339 0.097889744 0.088997416 0.24130876
0.16703959 0.04204896 -0.09418058 -0.093233384 -0.03956058 -0.08573877 -0.10645353 -0.02599531
-0.0050542965 -0.056748223 0.07937548 0.010290824 -0.05973252 0.0021823025 -0.014699778 -0.0040295776
0.13290033 0.06429583 -0.09612636 -0.11128076 -0.028345209 -0.061419845 0.025872411 0.012003362
-0.10758096 -0.042584613 -0.11070161 -0.124486186 -0.12185143 0.04122177 0.07171932 0.118384026
-0.114166155 0.11760656 -0.08777317 -0.08304611 0.04008912 0.012255051 -0.09631741 0.0039947513
-0.07221422 0.106090054 0.15030974 -0.03734806 0.038465608 0.09784708 0.071097925 -0.019588599
0.15815397 0.06730333 -0.018333849 -0.023552615 -0.09141967 -0.016412342 0.1175339 -0.077063695
-0.0010572834 0.014462513 0.124163635 -0.023827964 0.011773885 0.021617366 0.008710276 -0.053737734
-0.056885403 -0.08287514 -0.1054261 0.104737945 0.019591207 0.12542376 -0.07449083 -0.0055448683
0.008214352 -0.069676004 -0.01731907 -0.09784741 -0.088221215 0.025576528 -0.09728886 -0.13295007
-0.050741237 -0.0047278437 -0.10606511 0.03678127 -0.04497722 0.020998579 -0.049835514 -0.058067318
0.09637425 0.11364038 -0.069457665 -0.033274308 -0.07753459 -0.024898246 0.075949885 -0.007485416
0.0914607 -0.119896054 -0.07046492 0.01538781 0.11483674 -0.0053553036 0.06486556 0.09483995
-0.043043956 -0.019278286 -0.019127844 -0.101314805 -0.008363525 0.028587222 0.108382024 -0.012190122
0.039535187 0.051350437 0.04186385 0.013605061 -0.042405013 -0.09598924 0.097126745 0.04051477
-0.017229222 -0.02974269 0.13698404 0.008918885 0.020917019 -0.14010938 0.094048575 0.047079008
00000000: ce0d f5bd 72d4 f0bd 5bab 6bbd 120d 103e
00000010: 1f86 24be c1fe 7c3c baf1 31bd 3c27 c9bd
00000020: 8c43 3ebe 4738 b13c 9858 143b 7dc8 74be
00000030: 3a89 3dbc dddf babd 8082 f03d 712b 603d
00000040: 7e04 b4bd e754 4cbc af64 4f3e 9621 ddbb
00000050: 4e71 e4bc 44b2 2abe 3c2d 143c dc4a c1bc
00000060: d087 633d 34b3 a9bd c477 f8bc e3b7 433e
00000070: 2a14 ad3d d88f f1bc a5cf be3c 4ea2 36bd
00000080: 7843 353d acdc 293e 82d6 843d 770b 0fbe
00000090: 3d28 fa3d 1000 433e 562e 46be 8e18 093e
000000a0: 714a 1f3e 2d58 31bd 9836 36be fc06 0a3e
000000b0: 9344 ef3b 7c19 e63d 275d 4dbb d7e4 31be
000000c0: 3447 5a3d 877c 08bd 5775 e9bc ca68 33be
000000d0: 7867 a23c 8d36 a5bd 7bc4 18bd 3450 f73d
000000e0: 0718 3f3d f6d8 d03d b8b4 8bbd 3e72 28be
000000f0: 85b9 143c 8121 7fbe 13d4 4fbe 11f9 81bc
00000100: ae4f 3bbe 2d01 783e 5053 153e a6b3 833d
00000110: 583a 673d 39c3 5ebd 3911 0abd e5a7 14be
00000120: 5ed1 7b3d a3cb ccbd a249 38bd 17b3 1f3e
00000130: 71f4 a6bd 5be9 6ebc 52b9 0dbe 2442 233d
00000140: 0212 bdbd 2dea ce3c e8c3 78bd b6ac 91be
00000150: 41fc cf3c 2d3c 93bd 2590 ac3d d812 f53c
00000160: aec4 043c af20 ce3d be90 7e3c f6aa 7cbe
00000170: c3b9 97bc efa1 623d 1437 7e3d e207 22bc
00000180: 03c5 be3d f51f 3bbd 1aa6 013d 033a e83d
00000190: 4cb4 63bd 50d3 dcbd 4b76 353d c83e 633d
000001a0: a76a b2bc 73ed 63bb 3eff c53d ed34 70be
000001b0: bb82 b73d 8c68 8cbc 0f13 01be 072b b2bd
000001c0: 7271 01bc b128 bf3d a25f aebd 8159 203c
000001d0: 198f 71bd e121 03be 051b 473d 4ab5 303d
000001e0: f34c 9fbb c694 ecbc 4a9a a4bd 7089 c83d
000001f0: 03cc 4d3d 6b7a c83d 4744 b63d a519 773e
00000200: 6d0c 2b3e 883b 2c3d bfe1 c0bd 25f1 bebd
00000210: 460a 22bd cf97 afbd 4f04 dabd 1ef4 d4bc
00000220: 839e a5bb d370 68bd 9d8f a23d d89a 283c
00000230: 16aa 74bd f604 0f3b 56d7 70bc 8c0a 84bb
00000240: 0617 083e 88ad 833d e6dd c4bd 2be7 e3bd
00000250: 3634 e8bc 6093 7bbd 61f2 d33c c0a9 443c
00000260: 6853 dcbd 346d 2ebd 87b7 e2bd 9df2 febd
00000270: 3e8d f9bd 29d8 283d 94e1 923d 5373 f23d
00000280: f2cf e9bd b5db f03d 6bc2 b3bd 1414 aabd
00000290: 7d34 243d 69c9 483c 1042 c5bd 67e6 823b
000002a0: 0de5 93bd be45 d93d ccea 193e 48fa 18bd
000002b0: 1d8e 1d3d 0d64 c83d ca9b 913d 4578 a0bc
000002c0: 1df3 213e 54d6 893d de30 96bc 6af1 c0bc
000002d0: 3c3a bbbd 2d73 86bc 9db5 f03d 92d3 9dbd
000002e0: 8b94 8aba 2df4 6c3c 8149 fe3d dd32 c3bc
000002f0: 41e7 403c e716 b13c 8cb5 0e3c 191c 5cbd
00000300: ab00 69bd 71ba a9bd a4e9 d7bd d980 d63d
00000310: bd7d a03c 166f 003e a68e 98bd bab1 b5bb
00000320: 7d95 063c 4bb2 8ebd b9e0 8dbc 3964 c8bd
00000330: 53ad b4bd de85 d13c 623f c7bd 1024 08be
00000340: 0bd6 4fbd 07ec 9abb aa38 d9bd f5a7 163d
00000350: 093a 38bd 3605 ac3c 5320 4cbd ffd7 6dbd
00000360: dd5f c53d 4abc e83d d23f 8ebd a44a 08bd
00000370: 75ca 9ebd 68f7 cbbc 9d8b 9b3d 3848 f5bb
00000380: bf4f bb3d 108c f5bd e94f 90bd 271d 7c3c
00000390: 862f eb3d 8b7b afbb 3cd8 843d 733b c23d
000003a0: dc4e 30bd 7fed 9dbc ffb1 9cbc 237e cfbd
000003b0: 2b07 09bc c02f ea3c 65f7 dd3d 14b9 47bc
000003c0: a6ef 213d d654 523d 6e79 2b3d c3e7 5e3c
000003d0: e1b0 2dbd 0296 c4bd 63ea c63d d1f2 253d
000003e0: 4c24 8dbc f1a6 f3bc 8b45 0c3e 8420 123c
000003f0: 2b5a ab3c d578 0fbe 8a9c c03d ebd5 403d

lstm.bias_ih_l0 f4 [256]
0.09552535 -0.052246664 -0.09379881 0.035571937 -0.08622673 0.019868815 0.097115986 0.010767943
0.056350667 0.053419802 -0.06255377 0.2384266 0.10784996 -0.0068898057 -0.054281496 0.21509314
0.033387516 0.0014228423 -0.09078032 0.034913987 -0.03914097 0.100099 -0.056901965 -0.049896482
-0.052912593 0.07606123 0.08366145 0.02280251 0.11890839 -0.062279664 0.08431628 0.0962888
-0.11210757 0.04620897 0.06037425 -0.09028725 -0.045633927 -0.06271611 0.09989146 0.09852296
0.040802967 -0.0073166233 -0.035265334 0.10209966 0.056545377 -0.025255263 0.09864135 0.09273725
0.21913153 -0.07699519 0.068296276 -0.04450982 0.08699372 -0.009459198 0.09402043 -0.10409107
0.049856212 -0.049102258 0.05188006 0.079004906 -0.06966498 0.08736932 -0.037213407 -0.11821007
0.13926393 -0.097696096 0.04112875 0.03639274 0.05032105 -0.07893679 -0.115944535 0.009543481
0.08761363 -0.04500431 0.04779334 0.056088008 -0.02597448 -0.10481001 0.022207906 0.14956306
-0.09581422 -0.027026933 0.11092146 0.068828486 -0.09978122 0.020831471 0.10687859 -0.07740086
-0.118422024 0.06753431 -0.116124935 -0.031871095 0.01844539 -0.096503854 0.12407838 -0.03634413
0.09550706 0.01157739 -0.110713944 -0.039988026 -0.07596559 -0.0028932667 -0.098840125 0.008149744
-0.11145018 -0.12722711 0.15077415 0.16032879 -0.020679537 -0.1125411 -0.0996316 -0.027356975
0.1366831 0.020275045 -0.014881761 -0.113360785 0.062071692 0.16717339 0.13250302 0.06591613
-0.010962387 0.08222438 -0.027933989 0.045089435 -0.09751234 0.05748241 -0.09598844 0.102353804
-0.08815854 -0.10330285 -0.07848709 -0.042133115 -0.037789676 -0.059786767 -0.095941156 -0.06722422
-0.04813838 -0.05828206 0.1043913 0.0151782585 -0.09587149 -0.028968254 0.11061239 -0.038458187
-0.06412179 -0.057587534 -0.0020376337 0.0550127 0.07581772 -0.05836612 -0.010754231 0.07003085
0.09453559 -0.030512745 0.037676264 -0.048809543 -0.036708232 -0.021764465 -0.0740415 -0.020359827
0.053300697 0.10016046 0.080119416 -0.09850592 0.021232765 0.04834005 -0.058191143 -0.016936403
-0.007866785 -0.042758048 0.098695464 -0.016386773 -0.0818825 0.07028048 -0.029138943 -0.044675857
-0.06391276 -0.097763315 -0.02323958 -0.048664328 0.026859881 0.09770479 0.031086894 0.0067643356
0.029081065 0.097976044 -0.0032962218 -0.1008232 0.028747242 -0.09487496 -0.099476956 0.07660711
0.07919583 -0.108372524 0.031276654 0.07316509 -0.08765581 -0.0006239554 0.10699429 -0.033624742
0.06560807 0.015632983 -0.10031779 0.12996565 -0.108872876 0.10014432 -0.10099691 0.14566702
-0.015039824 0.036783386 0.1067842 -0.059045702 -0.086564675 -0.038240287 0.096304454 -0.070292175
0.09455467 0.03457793 -0.015927052 0.10253011 0.09119804 0.04417831 0.16342244 -0.029681696
-0.09844953 0.07521286 0.03600554 -0.08638883 0.02476643 -0.010282561 -0.013244357 -0.010832724
0.025208022 0.08575543 0.021547511 0.12692197 0.016124545 -0.015084086 0.037953567 -0.044524945
0.20001882 -0.11233426 -0.03526482 0.024841689 -0.07848929 -0.023495752 0.050986372 -0.10298271
0.040663835 0.15929028 -0.07441402 -0.08447669 0.02094408 0.04764955 0.05342977 0.03765597
00000000: cba2 c33d 9900 56bd 9719 c0bd e1b3 113d
00000010: a497 b0bd edc3 a23c bfe4 c63d 076c 303c
00000020: f5cf 663d b9ce 5a3d 311c 80bd 1a26 743e
00000030: 71e0 dc3d e1c3 e1bb 4656 5ebd 6041 5c3e
00000040: 59c1 083d aa7e ba3a 08eb b9bd f801 0f3d
00000050: 4852 20bd b400 cd3d 0912 69bd 4160 4cbd
00000060: e0ba 58bd fdc5 9b3d b256 ab3d 54cc ba3c
00000070: 3e86 f33d f618 7fbd 04ae ac3d 1033 c53d
00000080: a798 e5bd 9e45 3d3d fd4a 773d 86e8 b8bd
00000090: a4ea 3abd 4e71 80bd e593 cc3d 68c6 c93d
000000a0: 0321 273d 49c0 efbb 6272 10bd a019 d13d
000000b0: 209c 673d 20e4 cebc 7a04 ca3d 07ed bd3d
000000c0: 0464 603e a7af 9dbd ebde 8b3d ee4f 36bd
000000d0: c329 b23d c1fa 1abc c98d c03d b32d d5bd
000000e0: 0736 4c3d 731f 49bd 3080 543d 53cd a13d
000000f0: 83ac 8ebd b0ee b23d 166d 18bd 1f18 f2bd
00000100: 349b 0e3e e414 c8bd 9f76 283d 8e10 153d
00000110: 721d 4e3d 9da9 a1bd 5474 edbd 435c 1c3c
00000120: c66e b33d 7056 38bd f3c2 433d 8abc 653d
00000130: 6fc8 d4bc a1a6 d6bd 5bed b53c 0f27 193e
00000140: 3f3a c4bd 9667 ddbc ca2a e33d f3f5 8c3d
00000150: 195a ccbd c3a6 aa3c 2ae3 da3d 5884 9ebd
00000160: 3f87 f2bd 6e4f 8a3d e9d2 edbd 448b 02bd
00000170: c91a 973c d0a3 c5bd ce1c fe3d 95dd 14bd
00000180: 3599 c33d 18af 3d3c febd e2bd 7cca 23bd
00000190: d993 9bbd f69c 3dbb b16c cabd 8186 053c
000001a0: fe3f e4bd d347 02be 8a64 1a3e 3b2d 243e
000001b0: 2268 a9bc f37b e6bd a70b ccbd bc1b e0bc
000001c0: a8f6 0b3e da17 a63c a1d2 73bc b329 e8bd
000001d0: e33e 7e3d 802f 2b3e dfae 073e 09ff 863d
000001e0: 959b 33bc 4165 a83d d2d5 e4bc b3af 383d
000001f0: 8db4 c7bd ad72 6b3d 9695 c4bd df9e d13d
00000200: 778c b4bd 7290 d3bd d7bd a0bd c693 2cbd
00000210: 59c9 1abd f8e2 74bd cc7c c4bd daac 89bd
00000220: c02c 45bd 2bb9 6ebd 1bcb d53d 3bae 783c
00000230: 4658 c4bd d54e edbc c088 e23d 5586 1dbd
00000240: 4952 83bd e8e0 6bbd d289 05bb ff54 613d
00000250: 5246 9b3d 5011 6fbd 8432 30bc 566c 8f3d
00000260: e09b c13d ddf5 f9bc 6d52 1a3d 84ec 47bd
00000270: 5f5b 16bd 644b b2bc 12a3 97bd a7c9 a6bc
00000280: d551 5a3d ed20 cd3d a615 a43d 79bd c9bd
00000290: 56f0 ad3c 3700 463d d659 6ebd 36be 8abc
000002a0: b0e3 00bc 1023 2fbd d920 ca3d 8e3d 86bc
000002b0: 03b2 a7bd 36ef 8f3d cbb4 eebc 08fe 36bd
000002c0: b1e4 82bd 2238 c8bd ef60 bebc 3f54 47bd
000002d0: 4109 dc3c 7319 c83d f1a9 fe3c 5ca7 dd3b
000002e0: 6a3b ee3c aaa7 c83d 6d05 58bb 657c cebd
000002f0: 567f eb3c ce4d c2bd 93ba cbbd 30e4 9c3d
00000300: 6c31 a23d 6af2 ddbd f31b 003d 94d7 953d
00000310: e484 b3bd f090 23ba d31f db3d 19ba 09bd
00000320: 865d 863d be10 803c 6a73 cdbd b715 053e
00000330: bef8 debd 7718 cd3d 78d7 cebd bc29 153e
00000340: 9869 76bc 2daa 163d adb1 da3d e8d9 71bd
00000350: d248 b1bd d9a1 1cbd 453b c53d 58f5 8fbd
00000360: e1a5 c13d 96a1 0d3d 7379 82bc 4efb d13d
00000370: 0ac6 ba3d 51f4 343d 3658 273e 0727 f3bc
00000380: e89f c9bd 3309 9a3d 8c7a 133d a0ec b0bd
00000390: f8e2 ca3c 3078 28bc dcfe 58bc bd7b 31bc
000003a0: 0e81 ce3c 8ba0 af3d 6884 b03c d5f7 013e
000003b0: 9f17 843c 3e23 77bc 3375 1b3d ca5f 36bd
000003c0: bcd1 4c3e 810f e6bd d871 10bd cc80 cb3c
000003d0: febe a0bd 2a7a c0bc 16d7 503d 99e8 d2bd
000003e0: 1f8f 263d fe1c 233e 6166 98bd 1d02 adbd
000003f0: eb92 ab3c 2d2c 433d 2dd9 5a3d 253d 1a3d

lstm.bias_hh_l0 f4 [256]
0.11288336 0.036499113 0.0014674035 -0.036802545 -0.013152249 0.053138074 0.01889361 0.07225346
-0.07551325 -0.1197789 -0.064297736 0.05805445 -0.06840151 0.09806274 0.0882717 0.14263676
0.08685289 0.021206507 0.109698795 0.09275262 -0.11897749 0.01390294 -0.10219342 -0.119645424
-0.12695487 -0.08212235 -0.074816115 0.061585605 -0.01267502 0.09034311 0.07885814 0.08419845
0.094349414 0.034066796 -0.037538346 -0.062425137 0.10851658 -0.12859592 0.0018696131 -0.0008608294
0.031969417 -0.11565188 -0.009330907 0.09651662 -0.03101642 -0.020613194 -0.07614793 -0.008853434
0.26984313 0.03951504 -0.111033745 0.06437868 0.10460948 0.12382961 0.16380377 -0.00320045
-0.09169145 0.09794086 0.046017766 0.1149234 0.10439927 0.08672404 -0.092789054 0.05386607
0.18884557 -0.045779232 -0.037182186 0.09577008 0.112118594 0.08697774 -0.083184384 0.08466357
0.07534496 -0.021255199 0.0198784 0.15399136 0.007941923 -0.11758962 0.046118915 0.17256257
-0.10689811 -0.045118358 0.11942534 0.003760291 -0.007830051 -0.06816452 0.060413748 0.08015664
0.0058164326 0.07441603 0.08372593 0.12716651 0.13851212 0.016880773 -0.02333106 0.030097233
-0.039633937 -0.06856498 0.07624835 0.04186868 0.09422987 0.01135934 0.06468676 -0.023035705
-0.08123044 -0.0479817 0.16864547 0.17328858 -0.0028051343 -0.026423149 -0.047586516 0.013569646
0.15151924 -0.014935446 -0.031790487 0.024688732 0.09135132 0.079023235 0.014362501 0.012749117
0.017204143 -0.046116605 -0.028051782 -0.020797752 -0.01470879 0.048317343 -0.13393989 -0.02471967
0.11112867 0.032175794 -0.088595785 0.1050501 -0.0251427 0.063075475 -0.078534216 -0.028650524
0.011922867 0.015398382 0.06829905 -0.044170644 -0.10113197 -0.016828835 -0.03839741 0.078315236
-0.020275453 0.036024876 0.07297524 -0.05338405 0.08930653 -0.08186033 -0.04300635 0.025341794
0.042407867 -0.0068685734 0.05347772 0.11157025 0.035598192 0.08506635 -0.010432221 -0.10619745
0.06299989 -0.07444617 -0.029912565 -0.0033781645 -0.001407201 0.03918796 0.00086728303 0.102104716
0.06211761 -0.024050148 -0.109845154 0.008047377 0.04401943 0.014345961 -0.05812297 -0.08138135
0.085984625 -0.04786744 -0.07561745 0.002872846 -0.009922245 -0.12000408 -0.03816913 0.093448974
0.09888921 -0.104876705 -0.0030404087 0.06562918 -0.08828252 -0.004500871 -0.051184725 -0.09842193
0.08296568 -0.10285198 -0.113847554 0.12492962 -0.08095173 -0.095010914 0.09756073 0.030896936
-0.0126801 0.02520505 -0.04906008 0.06545357 0.03713913 0.033466917 -0.03512032 0.06562684
0.11677657 0.044769492 -0.08255506 -0.048399646 -0.11235211 0.0162518 0.103652686 -0.06562221
-0.071240224 0.05041215 -0.058768254 0.02534628 -0.036747213 -0.047436465 0.15239969 0.11782944
-0.055641558 0.101501316 0.033804465 0.045630906 0.08188374 -0.12453892 -0.0014705339 -0.031483132
-0.04326204 0.04890398 0.13134864 0.16869442 -0.1090563 0.049241718 -0.013049281 0.053480666
0.2623311 -0.07493916 -0.032152776 0.10179972 -0.055638038 -0.03187108 0.15550537 0.1014814
-0.10629031 0.06884437 0.090242304 -0.023986202 -0.070499524 -0.021215143 -0.0833126 0.07738607
00000000: 642f e73d 1880 153d e455 c03a 44be 16bd
00000010: 887c 57bc 4fa7 593d c6c6 9a3c 9ff9 933d
00000020: b1a6 9abd a44e f5bd 88ae 83bd 81ca 6d3d
00000030: 1716 8cbd 1ed5 c83d cbc7 b43d 5f0f 123e
00000040: eedf b13d 45b9 ad3c c3a9 e03d 16f5 bd3d
00000050: 78aa f3bd 28c9 633c c94a d1bd a908 f5bd
00000060: 7500 02be c32f a8bd 3139 99bd 3041 7c3d
00000070: e3aa 4fbc cf05 b93d 6080 a13d 3d70 ac3d
00000080: 443a c13d a089 0b3d cfc1 19bd 80b1 7fbd
00000090: f13d de3d a6ae 03be ce0d f53a 48a9 61ba
000000a0: 5df2 023d e5da ecbd a9e0 18bc 81aa c53d
000000b0: 2616 febc 00dd a8bc 72f3 9bbd fe0d 11bc
000000c0: e128 8a3e 86da 213d a965 e3bd f8d8 833d
000000d0: 7f3d d63d 619a fd3d 2dbc 273e a4be 51bb
000000e0: bac8 bbbd 3895 c83d 207d 3c3d f65c eb3d
000000f0: 49cf d53d 609c b13d 3008 bebd aba2 5c3d
00000100: bc60 413e 0183 3bbd 594c 18bd 1b23 c43d
00000110: 6f9e e53d 6321 b23d 935c aabd 1864 ad3d
00000120: 754e 9a3d 621f aebc 07d8 a23c e9af 1d3e
00000130: d71e 023c d4d2 f0bd 30e7 3c3d 3eb4 303e
00000140: 65ed dabd 07ce 38bd 4695 f43d 376f 763b
00000150: 9d49 00bc d799 8bbd 6874 773d 2a29 a43d
00000160: c697 be3b 6e67 983d 8078 ab3d f037 023e
00000170: 1fd6 0d3e 8c49 8a3c c720 bfbc 798e f63c
00000180: 3257 22bd cc6b 8cbd 1828 9c3d 7e7e 2b3d
00000190: 97fb c03d 861c 3a3c 7e7a 843d 60b5 bcbc
000001a0: 255c a6bd 7688 44bd 66b1 2c3e 9072 313e
000001b0: 58d6 37bb 5c75 d8bc 14ea 42bd 3853 5e3c
000001c0: dc27 1b3e cdb3 74bc be36 02bd 0640 ca3c
000001d0: 6716 bb3d efd6 a13d b250 6b3c ace1 503c
000001e0: b4ef 8c3c c4e4 3cbd dacc e5bc 0c60 aabc
000001f0: 23fd 70bc 68e8 453d 8a27 09be e880 cabc
00000200: 6e97 e33d c4ca 033d b571 b5bd 8224 d73d
00000210: 10f8 cdbc b72d 813d 8cd6 a0bd 81b4 eabc
00000220: 2158 433c 7f49 7c3c 5fe0 8b3d 47ec 34bd
00000230: 471e cfbd a0dc 89bc 9a46 1dbd bd63 a03d
00000240: b518 a6bc d28e 133d 0b74 953d 3ca9 5abd
00000250: 58e6 b63d 64a6 a7bd 6d27 30bd 9899 cf3c
00000260: dfb3 2d3d c511 e1bb 740b 5b3d f17e e43d
00000270: 69cf 113d 4437 ae3d e8eb 2abc 0c7e d9bd
00000280: 1606 813d 3c77 98bd 320b f5bc 3264 5dbb
00000290: d571 b8ba 8e83 203d 615a 633a 471c d13d
000002a0: 096f 7e3d d104 c5bc 7ff6 e0bd 25d9 033c
000002b0: b84d 343d 520b 6b3c 5a12 6ebd 44ab a6bd
000002c0: b518 b03d a610 44bd 52dd 9abd 5c46 3c3b
000002d0: e990 22bc b3c4 f5bd 3c57 1cbd 2d62 bf3d
000002e0: 6d86 ca3d 99c9 d6bd 9841 47bb 9768 863d
000002f0: 77cd b4bd 0b7c 93bb 13a7 51bd 7091 c9bd
00000300: e9e9 a93d 0fa4 d2bd e828 e9bd 1adb ff3d
00000310: 05ca a5bd 1595 c2bd eccd c73d 921b fd3c
00000320: 32c0 4fbc d27a ce3c 39f3 48bd 850c 863d
00000330: 331f 183d 9b14 093d 53da 0fbd 5d67 863d
00000340: 8e28 ef3d 3760 373d a112 a9bd b53e 46bd
00000350: dd18 e6bd 7f22 853c dc47 d43d f064 86bd
00000360: 65e6 91bd f87c 4e3d fbb6 70bd 00a3 cf3c
00000370: 3f84 16bd bd4c 42bd aa0e 1c3e 9050 f13d
00000380: 67e8 63bd ecdf cf3d 8d76 0a3d 79e7 3a3d
00000390: aab2 a73d 430e ffbd eebe c0ba 75f4 00bd
000003a0: 8933 31bd 8a4f 483d 4280 063e 3bbe 2c3e
000003b0: e958 dfbd afb1 493d a7cc 55bc 8b0e 5b3d
000003c0: 4350 863e b479 99bd a1b2 03bd 5f7c d03d
000003d0: b6e4 63bd 408b 02bd cd3c 1f3e 7bd5 cf3d
000003e0: bcae d9bd 47fe 8c3d f5d0 b83d b67e c4bc
000003f0: 0e62 90bd 61cb adbc cc9f aabd 967c 9e3d

lstm.weight_ih_l0_reverse f4 [256, 3]
-0.00012824753 -0.1008004 0.051437218 -0.12915821 -0.061408773 0.022115873 0.18879291 0.092804134
-0.08032909 -0.017814174 0.20374776 -0.048218217 0.10899507 -0.095147856 -0.08549307 0.014486057
0.031926665 0.04853035 -0.23975779 -0.08095877 0.039065164 -0.03713138 0.17005931 -0.011666959
0.22814173 0.104280025 -0.00028584452 0.14901517 0.19633676 0.23290317 -0.046603892 0.12697688
0.09577436 -0.07464483 0.0052882778 0.06883954 -0.043830823 0.075796016 0.011592066 -0.012445393
0.13689241 0.14999104 0.09103792 0.119491085 -0.07344083 -0.070646495 0.19721812 0.16679098
0.09163064 0.04885341 0.090772845 -0.044577803 -0.020225966 -0.13288684 -0.1700326 0.07938204
-0.11317283 0.15826832 0.1450299 0.21346325 -0.09774952 0.046361115 0.10767187 0.15780352
0.028673682 -0.02581957 -0.12249701 0.119592264 -0.070918515 -0.17167501 -0.037680585 -0.023662332
0.12979841 0.069049105 0.13537833 0.16147076 -0.032471117 -0.16102223 -0.12897171 0.060514163
0.06540212 -0.081328675 -0.09459198 -0.013810684 0.081004255 0.054886557 0.07644961 -0.17397995
0.016866272 0.03323652 -0.016692597 -0.16986349 -0.20101571 0.08262425 0.021241184 0.040148806
-0.010861556 0.14684473 0.07430903 -0.024772944 0.122024156 -0.058292754 0.09741882 0.06736399
0.06593818 -0.01788839 0.040154018 0.18431723 0.1036835 -0.0531124 -0.053663805 -0.033421203
0.009087129 0.16758825 0.08898137 -0.012516938 0.079970606 0.004009721 0.07648566 0.1697221
0.20844238 0.17915247 -0.03951813 -0.039048783 0.037793864 -0.21568392 -0.21858725 -0.14015558
0.13464567 0.19211975 0.2788134 0.27446136 -0.20902635 -0.02342829 0.1507735 0.05271172
0.108715154 0.35254157 0.024322206 0.21121962 0.26251748 -8.116709e-05 0.12593085 0.025854476
0.34283474 0.20128472 0.11176534 -0.020396106 0.12975799 0.23195587 -0.12291861 -0.025597444
0.097672835 -0.07048037 0.06850576 -0.06116196 0.10944135 0.05027324 0.11058402 -0.031117225
0.19980742 0.11709297 0.1729983 -0.051700242 -0.12056023 -0.19177651 -0.029673751 0.034331184
0.016973086 -0.05031686 0.09419691 -0.011432691 0.049290985 0.053979877 -0.10896153 -0.008095886
-0.07013542 -0.024933394 0.03831633 0.11524101 -0.041297168 0.12019614 -0.029807698 -0.0067217173
-0.044097748 -0.024031855 0.06984661 -0.015816774 -0.070182055 -0.33184376 0.056952324 -0.006948431
0.034763694 -0.11053167 -0.028114066 -0.168918 0.13960406 0.041565455 0.17851551 0.09169465
-0.14882176 0.06859187 0.29617834 0.11188081 -0.11895261 -0.065170325 -0.13470076 0.109032616
0.039669376 0.15921514 -0.045779344 -0.006735399 0.043041524 0.07203592 0.18638995 0.12404775
0.01843944 -0.020141045 -0.043057878 -0.027325038 0.21258172 0.23363476 -0.0012323665 0.18521579
0.10565929 -0.075861454 0.022291828 -0.049742542 -0.033910573 -0.023845118 0.054984886 -0.07798604
0.09094808 0.051815644 -0.10470595 0.111080796 -0.031056724 0.08713722 0.31299043 0.094821386
-0.05287134 0.15241502 0.020294094 0.05622646 -0.04858654 -0.0071167694 -0.10419423 0.10778307
-0.085072175 -0.024814801 0.21140565 0.08254551 -0.047723398 -0.0038296017 0.038070586 0.12701137
00000000: 2f7a 06b9 7170 cebd d5af 523d 0d42 04be
00000010: c487 7bbd 592c b53c ee52 413e 1810 be3d
00000020: 9483 a4bd 08ef 91bc 41a3 503e 7780 45bd
00000030: cf38 df3d e1dc c2bd fe16 afbd ed56 6d3c
00000040: 89c5 023d c3c7 463d 1183 75be b6cd a5bd
00000050: cb02 203d 1317 18bd 0724 2e3e c626 3fbc
00000060: fc9d 693e c490 d53d 67dd 95b9 6f97 183e
00000070: 810c 493e 2b7e 6e3e b9e3 3ebd 3a06 023e
00000080: 5925 c43d 63df 98bd 4a49 ad3b bffb 8c3d
00000090: f387 33bd f13a 9b3d a6ec 3d3c c3e7 4bbc
000000a0: 862d 0c3e 4097 193e 1772 ba3d beb7 f43d
000000b0: 2568 96bd 1caf 90bd 8cf3 493e 41cb 2a3e
000000c0: d8a8 bb3d 831a 483d 1de7 b93d 3797 36bd
000000d0: edb0 a5bc 7d13 08be 071d 2ebe 0d93 a23d
000000e0: 28c7 e7bd 1711 223e b882 143e 1c96 5a3e
000000f0: e630 c8bd 27e5 3d3d 1283 dc3d 3f97 213e
00000100: 12e5 ea3c 9083 d3bc b6df fabd caec f43d
00000110: ba3d 91bd 93cb 2fbe f556 1abd 82d7 c1bc
00000120: e0e9 043e 9e69 8d3d 9ea0 0a3e 9758 253e
00000130: 6f00 05bd 03e3 24be 2911 04be b3dd 773d
00000140: 8cf1 853d a68f a6bd 71b9 c1bd 3546 62bc
00000150: 8fe5 a53d bad0 603d 9d91 9c3d cd27 32be
00000160: 232b 8a3c 0423 083d eabe 88bc b2f0 2dbe
00000170: 10d7 4dbe e736 a93d fe01 ae3c 1373 243d
00000180: abf4 31bc 775e 163e 552f 983d a1f0 cabc
00000190: cde7 f93d 62c4 6ebd 8583 c73d 22f6 893d
000001a0: 990a 873d ac8a 92bc 8a78 243d a8bd 3c3e
000001b0: 0458 d43d 638c 59bd 94ce 5bbd ace4 08bd
000001c0: 2ee2 143c 419c 2b3e dd3b b63d d813 4dbc
000001d0: a1c7 a33d fa63 833b 84a4 9c3d a1cb 2d3e
000001e0: eb71 553e bf73 373e c3dd 21bd 9ef1 1fbd
000001f0: bdcd 1a3d 3fdc 5cbe 56d5 5fbe f284 0fbe
00000200: 8ee0 093e 0abb 443e a1c0 8e3e 3386 8c3e
00000210: 010b 56be afec bfbc 5e64 1a3e 3fe8 573d
00000220: 0da6 de3d 5480 b43e 5d3f c73c f549 583e
00000230: b168 863e 4038 aab8 04f4 003e c4cc d33c
00000240: 0988 af3e 951d 4e3e 3ae5 e43d bc15 a7bc
00000250: 47df 043e d785 6d3e c1bc fbbd bbb1 d1bc
00000260: b208 c83d 0358 90bd bf4c 8c3d f784 7abd
00000270: c922 e03d 50eb 4d3d e079 e23d 8de9 febc
00000280: 519a 4c3e 70ce ef3d 7726 313e a2c3 53bd
00000290: 48e8 f6bd 1061 44be 5e16 f3bc db9e 0c3d
000002a0: 240b 8b3c 0d19 4ebd 4fea c03d 2e50 3bbc
000002b0: 58e5 493d 011a 5d3d 3927 dfbd 9ba4 04bc
000002c0: 29a3 8fbd 1e41 ccbc 96f1 1c3d 7b03 ec3d
000002d0: 3827 29bd 6529 f63d 462f f4bc da41 dcbb
000002e0: d79f 34bd 74de c4bc bd0b 8f3d 2e92 81bc
000002f0: 9cbb 8fbd 6de7 a9be d746 693d aaaf e3bb
00000300: 6064 0e3d 6e5e e2bd 784f e6bc d7f8 2cbe
00000310: 5ef4 0e3e 8a40 2a3d c5cc 363e 68ca bb3d
00000320: bb64 18be e579 8c3d b0a4 973e c421 e53d
00000330: 6d9d f3bd 0578 85bd ffee 09be 7e4c df3d
00000340: 5b7c 223d 4b09 233e 1f83 3bbd 9fb4 dcbb
00000350: 4f4c 303d 9287 933d 02dd 3e3e bf0c fe3d
00000360: 4f0e 973c d5fe a4bc 755d 30bd c2d8 dfbc
00000370: 06af 593e f33d 6f3e 5c87 a1ba 35a9 3d3e
00000380: e663 d83d 405d 9bbd 5a9d b63c d6be 4bbd
00000390: d0e5 0abd d656 c3bc d537 613d 25b7 9fbd
000003a0: fd42 ba3d a43c 543d 1370 d6bd 547e e33d
000003b0: ac6a febc 0075 b23d 4840 a03e b731 c23d
000003c0: 9e8f 58bd af12 1c3e cd3f a63c b74d 663d
000003d0: ae02 47bd ca33 e9bb c963 d5bd 5fbd dc3d
000003e0: 523a aebd 6948 cbbc b97a 583e 9f0d a93d
000003f0: 9c79 43bd 0efa 7abb e7ef 1b3d 450f 023e

lstm.weight_hh_l0_reverse f4 [256, 64]
-0.083485566 0.009055676 -0.023358183 0.11174169 -0.026412187 -0.07547246 0.008236812 0.08447097
0.06878147 0.14552431 -0.066658616 -0.10933628 -0.020321213 -0.034352954 -0.052427918 -0.074637316
0.05610639 -0.09780419 0.03233672 -0.113494344 -0.035074975 -0.018062208 0.06702727 -0.007471791
0.08910847 -0.06090153 -0.085555434 0.021660877 -0.061984386 0.14878376 -0.047447607 0.0042819455
0.0011942964 -0.06050674 0.008718706 -0.024115132 0.022725169 0.09249582 -0.09078766 -0.09689609
0.060587224 -0.08932922 0.010563666 -0.026590874 -0.052414633 0.0784523 0.10883203 0.1064671
-0.13324519 0.05172972 0.053029682 0.0066313534 -0.017453322 -0.06900531 0.0829517 -0.07815863
0.011992711 0.10849149 -0.007612366 0.07723117 -0.10608204 0.10198896 0.017021338 0.067899175
0.11019328 -0.09403977 -0.0606282 -0.032619417 0.15148938 -0.14130056 0.047856007 -0.010288904
-0.046007156 -0.007960703 -0.121245965 -0.00086316455 0.06400947 -0.10547481 0.041821778 -0.16872111
-0.050598305 0.10521939 0.08098906 -0.06361524 0.115123816 -0.026586808 0.027463464 -0.1723413
-0.08213671 0.15394865 0.07862177 -0.028696911 -0.090997644 0.00022988676 -0.07086037 0.109501496
-0.06554447 0.048174255 0.08186057 0.081630655 0.100370534 -0.046819463 -0.09428831 -0.07597416
0.07597172 -0.04448741 -0.13080454 -0.2240967 -0.08577884 -0.0010098533 0.07933812 -0.040347207
0.050317913 -0.025946897 0.0779169 0.14544047 -0.075243235 0.10279248 0.020056944 0.04961976
-0.098953985 0.15193191 -0.11326133 0.031058712 -0.08449345 0.15678869 0.07947839 0.1381265
-0.04187391 0.09578389 -0.104404986 -0.15711217 -0.13687652 -0.008892578 -0.20751151 -0.08143333
-0.08428264 -0.050379742 -0.026721587 -0.04062233 0.004219085 0.029406974 -0.24661884 0.1807279
-0.028104695 -0.10047289 0.04769801 -0.04974369 -0.105498925 -0.111909434 0.03819753 0.106695466
0.02102759 -0.1371495 -0.018470177 -0.106700525 0.07197353 0.06503321 0.10574377 -0.025305714
-0.079828285 -0.0042117527 0.051806573 0.13222098 0.047650725 0.091165826 0.025296558 0.014925338
0.11853515 0.042687528 0.0014447157 0.22970498 -0.04458073 -0.24750707 -0.1957311 0.01876346
0.18840836 0.009541035 -0.12981574 -0.23088665 -0.06130272 -0.1746263 -0.012387879 0.0882828
0.091979645 -0.11945239 0.11711814 -0.14797114 -0.08056376 -0.020906935 -0.17215441 -0.038701728
0.12771119 -0.035373516 0.06366427 -0.00084220874 0.044469196 -0.16905569 0.088717096 0.11730896
-0.061486296 0.0041305586 -0.08309698 0.024515366 0.14832886 -0.16483095 0.105894335 0.1517448
-0.0035448126 0.013805949 0.02901116 0.11944443 0.13306993 0.07828628 -0.14479773 0.06994855
-0.067926146 -0.15828401 -0.08057158 0.1512898 0.12039137 -0.029082417 -0.06414904 0.028198007
-0.06363279 0.033151977 0.008646008 -0.0008167871 -0.0807541 -0.07822927 0.05907739 0.0052948403
-0.020044183 0.15658616 0.03471289 0.120969914 0.030322539 -0.044579577 -0.08011687 -0.06519585
-0.12447186 -0.18423748 0.082797974 -0.13133247 0.1168386 0.09283372 0.06669787 0.03391867
-0.06713547 0.0047270623 -0.018615965 0.01627105 -0.06367342 -0.081869155 0.112712696 -0.074919574
00000000: 7bfa aabd 425e 143c a959 bfbc d4d8 e43d
00000010: 5f5e d8bc 4e91 9abd b2f3 063c 1eff ac3d
00000020: 4ddd 8c3d 5304 153e 5084 88bd b3eb dfbd
00000030: ac78 a6bc afb5 0cbd a8be 56bd 73db 98bd
00000040: d0cf 653d 904d c8bd 8273 043d b96f e8bd
00000050: c7aa 0fbd 32f7 93bc 9845 893d edd5 f4bb
00000060: 807e b63d e273 79bd b037 afbd 2772 b13c
00000070: 57e3 7dbd c55a 183e 6c58 42bd 904f 8c3b
00000080: f089 9c3a ead5 77bd e7d8 0e3c 198d c5bc
00000090: 222a ba3c 736e bd3d e1ee b9bd 7571 c6bd
000000a0: 4f2a 783d 3df2 b6bd 3a13 2d3c 1bd5 d9bc
000000b0: bab0 56bd 99ab a03d 54e3 de3d 6c0b da3d
000000c0: 6d71 08be 8be2 533d a735 593d d34b d93b
000000d0: 45fa 8ebc a852 8dbd 95e2 a93d a211 a0bd
000000e0: 137d 443c c930 de3d 2871 f9bb 602b 9e3d
000000f0: 8a41 d9bd 96df d03d 5570 8b3c b90e 8b3d
00000100: 04ad e13d ec97 c0bd 4755 78bd f09b 05bd
00000110: 0820 1b3e 18b1 10be a904 443d cb92 28bc
00000120: 0072 3cbd 9c6d 02bc ce4f f8bd fe45 62ba
00000130: 6617 833d 2d03 d8bd 504d 2b3d 3ac5 2cbe
00000140: 2b40 4fbd 437d d73d 98dd a53d b548 82bd
00000150: 09c6 eb3d 94cc d9bc 0ffb e03c 3d7a 30be
00000160: 4b37 a8bd b7a4 1d3e 7304 a13d c915 ebbc
00000170: f95c babd c20d 7139 3e1f 91bd 5242 e03d
00000180: 2e3c 86bd 5e52 453d 84a6 a73d f92d a73d
00000190: 118f cd3d c4c5 3fbd 3b1a c1bd 5798 9bbd
000001a0: 1097 9b3d 6e38 36bd a0f1 05be 9b79 65be
000001b0: d1ac afbd 0e5d 84ba 067c a23d 1d43 25bd
000001c0: 281a 4e3d 968e d4bc e592 9f3d 59ee 143e
000001d0: 2019 9abd dd84 d23d 764e a43c 173e 4b3d
000001e0: 63a8 cabd 0a94 1b3e 8ef5 e7bd d76e fe3c
000001f0: e70a adbd 378d 203e 91c5 a23d 0971 0d3e
00000200: fa83 2bbd 582a c43d 48d2 d5bd 03e2 20be
00000210: 5c29 0cbe 2db2 11bc e67d 54be 85c6 a6bd
00000220: 609c acbd fd5a 4ebd 3be7 dabc 9a63 26bd
00000230: 4040 8a3b e5e6 f03c a689 7cbe bc10 393e
00000240: d13b e6bc bbc4 cdbd fd5e 433d 0ac0 4bbd
00000250: d20f d8bd c630 e5bd 0375 1c3d 2783 da3d
00000260: 0d42 ac3c eb70 0cbe c54e 97bc ce85 dabd
00000270: dc66 933d 2230 853d 3190 d83d ee4d cfbc
00000280: 037d a3bd be02 8abb 2133 543d f064 073e
00000290: 682d 433d 26b5 ba3d ba3a cf3c 6889 743c
000002a0: 8fc2 f23d 1ed9 2e3d 9d5c bd3a c837 6b3e
000002b0: 499a 36bd 7e72 7dbe bc6d 48be d4b5 993c
000002c0: 1fee 403e 0052 1c3c 6bee 04be 8d6d 6cbe
000002d0: 9018 7bbd 3dd1 32be 88f6 4abc 9dcd b43d
000002e0: d35f bc3d 74a3 f4bd a3db ef3d bf85 17be
000002f0: 9dfe a4bd 0545 abbc 3f49 30be b485 1ebd
00000300: b9c6 023e d2e3 10bd 6a62 823d acc7 5cba
00000310: 5525 363d ef1c 2dbe 4fb1 b53d ae3f f03d
00000320: 0ed9 7bbd a359 873b c02e aabd 73d4 c83c
00000330: 85e3 173e 72c9 28be 21df d83d fd62 1b3e
00000340: 1650 68bb 5932 623c d0a8 ed3c 489f f43d
00000350: 7c43 083e 8f54 a03d db45 14be 2f41 8f3d
00000360: dd1c 8bbd 3415 22be b602 a5bd b7eb 1a3e
00000370: c08f f63d 403e eebc 9260 83bd 82ff e63c
00000380: e951 82bd 5eca 073d fca7 0d3c a81d 56ba
00000390: 6862 a5bd ab36 a0bd 22fb 713d 5780 ad3b
000003a0: b333 a4bc 1f58 203e 1a2f 0e3d 13bf f73d
000003b0: f966 f83c 1399 36bd 5014 a4bd 6785 85bd
000003c0: 1aeb febd c0a8 3cbe fc91 a93d 057c 06be
000003d0: 1349 ef3d 9b1f be3d e598 883d 4eee 0a3d
000003e0: 527e 89bd 79e5 9a3b 8280 98bc dd4a 853c
000003f0: 3667 82bd 04ab a7bd ead5 e63d 6f6f 99bd

lstm.bias_ih_l0_reverse f4 [256]
-0.10670516 -0.09056451 0.24988048 0.13626029 -0.016405081 -0.003050762 0.08585133 0.0023882492
-0.026672967 -0.061493874 -0.047763612 -0.06278661 -0.07960016 -0.05675836 0.11185229 0.041327313
0.06854067 0.052200947 0.098255545 0.06417198 -0.098034136 0.06152738 0.08144891 0.12629439
0.122448206 -0.072322756 -0.036443923 -0.06600793 0.082535245 0.13539231 0.050901525 0.044786286
0.093036085 0.012476641 -0.012134395 0.024858875 0.010611724 -0.061516803 -0.096335895 -0.032043066
-0.0102250725 0.077050015 -0.031256657 0.10793125 -0.030206796 0.2571641 -0.026253486 -0.03034241
0.11043591 0.12774307 -0.09810759 0.3273651 0.060991395 -0.018450068 -0.005454407 -0.114601724
-0.0028643971 -0.09555501 -0.084394 0.03624838 -0.10414842 0.13004889 0.09924807 0.105918095
-0.07921449 0.13406253 -0.017124105 0.060678292 0.0076117897 -0.022564655 0.1139529 -0.075059295
0.10268309 -0.06300361 0.054567434 0.03347806 -0.081953906 0.011731404 0.038004212 0.0779701
0.11473233 0.040620755 -0.1070199 0.01768565 0.11105764 0.07684066 -0.08908388 0.04176341
0.023057822 -0.03158321 0.013733773 0.02533087 0.047275063 -0.06191167 -0.06857008 -0.09370893
0.19160405 0.09621312 0.00342357 0.09959039 0.09733025 0.05307364 -0.0994642 0.08303088
-0.013622299 0.21412349 0.103714846 0.07887853 -0.06850436 0.23266743 -0.056694996 0.09841104
-0.00093085086 0.10557005 -0.07410511 0.2733238 -0.11544197 0.020056326 0.039447293 0.0579633
0.08482495 0.13181841 0.033156145 -0.03597394 -0.048454687 0.19101521 -0.01728668 0.08836427
0.029951563 -0.06055723 0.03050208 -0.07684578 0.06950733 0.087270714 0.06411698 0.09354748
0.025569046 -0.08644131 -0.06044599 -0.07925606 0.0924739 0.082733534 -0.047904715 -0.008124479
-0.023969708 0.07216026 -0.039343886 -0.09256242 0.059742816 0.08100344 0.027645336 -0.058248196
0.0068881954 -0.073809825 -0.07373248 0.042734284 0.08415828 -0.09811028 0.04864793 0.03902804
0.07530433 0.070233256 -0.0469046 -0.044244517 0.06829252 -0.01997855 -0.005207988 -0.04925088
-0.026456052 -0.052312482 -0.10181723 0.031161746 -0.049836792 0.055298526 0.08525255 -0.09855686
-0.0684532 0.077859186 0.11480464 -0.006601733 0.023197692 -0.07363071 -0.037208408 -0.0401753
-0.00018779862 -0.10414293 0.076226585 0.015019029 -0.07099326 0.07392204 0.06399938 0.040663525
0.00086119806 0.080231905 0.06592169 0.15196335 0.10165298 -0.05583274 0.013301614 -0.07099455
0.15429372 -0.039303057 0.08302505 -0.07695839 -0.11770573 -0.0019996378 -0.05143262 -0.035369825
-0.026097775 -0.07114991 -0.09366909 0.025862508 0.10499903 -0.039530706 -0.006481979 0.03662032
-0.04794035 -0.060125038 0.07947306 -0.12370383 -0.0578896 0.05327691 -0.0026742155 -0.026023502
0.24586082 -0.07617816 0.12059561 -0.07736639 0.016508952 0.027933087 0.11927218 0.11737237
-0.07754835 0.2573775 0.10045254 0.115608424 -0.026196374 0.17351139 0.014161101 -0.0019360314
0.06707538 0.13147308 -0.021288462 0.26531664 0.031485204 -0.017143343 0.02666282 -0.10473844
0.004206445 0.032406624 -0.07555641 -0.05282847 -0.098717995 0.1294475 0.034839865 0.013766311
00000000: 3c88 dabd e379 b9bd abe0 7f3e d187 0b3e
00000010: f363 86bc 4bef 47bb d2d2 af3d 2c84 1c3b
00000020: 4481 dabc 00e1 7bbd c7a3 43bd 4496 80bd
00000030: 6905 a3bd 747b 68bd d012 e53d d446 293d
00000040: 0d5f 8c3d a9d0 553d 343a c93d 996c 833d
00000050: 1fc6 c8bd 2204 7c3d b0ce a63d 5153 013e
00000060: 20c6 fa3d f41d 94bd 3946 15bd 2a2f 87bd
00000070: 3d08 a93d 48a4 0a3e 1e7e 503d d371 373d
00000080: b489 be3d d36a 4c3c 57cf 46bc d7a4 cb3c
00000090: ccdc 2d3c 0bf9 7bbd c14b c5bd 973f 03bd
000000a0: 1087 27bc 66cc 9d3d fb06 00bd 0f0b dd3d
000000b0: 3e74 f7bc 03ab 833e 8d11 d7bc a590 f8bc
000000c0: 392c e23d 14cf 023e a2ec c8bd 669c a73e
000000d0: 1dd2 793d 9924 97bc e2ba b2bb 4fb4 eabd
000000e0: 9cb8 3bbb 58b2 c3bd c3d6 acbd 2e79 143d
000000f0: c44b d5bd 892b 053e 9242 cb3d 96eb d83d
00000100: 353b a2bd b047 093e da47 8cbc cd89 783d
00000110: 526c f93b 83d9 b8bc 2360 e93d b0b8 99bd
00000120: 834b d23d 0908 81bd 1a82 5f3d 4a20 093d
00000130: 73d7 a7bd 1335 403c 4eaa 1b3d caae 9f3d
00000140: c9f8 ea3d f361 263d 402d dbbd 7fe1 903c
00000150: 3072 e33d a35e 9d3d 9c71 b6bd 1c10 2b3d
00000160: c2e3 bc3c 655d 01bd 9e03 613c af82 cf3c
00000170: 7fa3 413d 1797 7dbd 786e 8cbd 78ea bfbd
00000180: da33 443e 620b c53d f95d 603b 0cf6 cb3d
00000190: 1555 c73d bf63 593d e3b3 cbbd 180c aa3d
000001a0: 1030 5fbc 3043 5b3e 7368 d43d 118b a13d
000001b0: 044c 8cbd 5f40 6e3e 0339 68bd ba8b c93d
000001c0: 5804 74ba 1c35 d83d 6bc4 97bd 19f1 8b3e
000001d0: d76c ecbd 2a4d a43c 7c93 213d ed6a 6d3d
000001e0: b4b8 ad3d 68fb 063e bdce 073d 6959 13bd
000001f0: 6c78 46bd 7e99 433e cc9c 8dbc 54f8 b43d
00000200: fb5c f53c dc0a 78bd 80df f93c 5261 9dbd
00000210: dc59 8e3d fdba b23d c34f 833d d295 bf3d
00000220: 2d76 d13c 2408 b1bd 3796 77bd 0051 a2bd
00000230: f562 bd3d 3370 a93d bc37 44bd 891c 05bc
00000240: 1f5c c4bc c2c8 933d 0e27 21bd 5e91 bdbd
00000250: e2b4 743d 22e5 a53d 7978 e23c a995 6ebd
00000260: 5fb6 e13b 9b29 97bd 0e01 97bd 250a 2f3d
00000270: 2d5b ac3d 0bee c8bd 0d43 473d dedb 1f3d
00000280: 2839 9a3d 74d6 8f3d 0a1f 40bd bd39 35bd
00000290: f3dc 8b3d 0eaa a3bc c5a7 aabb 4abb 49bd
000002a0: 5dba d8bc 9d45 56bd 8d85 d0bd eb46 ff3c
000002b0: aa21 4cbd b580 623d e498 ae3d 2ed8 c9bd
000002c0: 3131 8cbd a374 9f3d b21e eb3d 5a53 d8bb
000002d0: 1609 be3c b3cb 96bd d867 18bd db8e 24bd
000002e0: cfeb 44b9 e348 d5bd af1c 9c3d 6012 763c
000002f0: ea64 91bd 7064 973d 1b12 833d cc8e 263d
00000300: 06c2 613a a050 a43d f301 873d 489c 1b3e
00000310: 702f d03d dfb0 64bd 03ef 593c 9765 91bd
00000320: 2cff 1d3e 3efc 20bd 0a09 aa3d 5c9c 9dbd
00000330: b40f f1bd 5b0c 03bb 03ab 52bd f3df 10bd
00000340: 00cb d5bc 0bb7 91bd 94d5 bfbd 9cdd d33c
00000350: bb09 d73d f3ea 21bd c866 d4bb 30ff 153d
00000360: 1a5d 44bd ac45 76bd c6c2 a23d 6f58 fdbd
00000370: a51d 6dbd e438 5a3d e441 2fbb 3d2f d5bc
00000380: f0c2 7b3e 4c03 9cbd d5fa f63d 4572 9ebd
00000390: c83d 873c eed3 e43c f944 f43d ed60 f03d
000003a0: abd1 9ebd fcc6 833e 10ba cd3d 1cc4 ec3d
000003b0: c799 d6bc f8ac 313e f603 683c 6fc2 fdba
000003c0: d15e 893d e1a0 063e 2465 aebc 95d7 873e
000003d0: a1f6 003d 3270 8cbc fc6b da3c 1b81 d6bd
000003e0: 38d6 893b cfbc 043d 52bd 9abd aa62 58bd
000003f0: a92c cabd e38d 043e 3fb4 0e3d 188c 613c
