environmental_predictor/models/lstm_Kyiv_pm25.pth (torch, 631873 bytes, 27 tensors)

lstm.weight_ih_l0 f4 [256, 3]
00000000: 30fc 1dbe 59a4 97bd e054 213d 5d41 033d
00000010: 8adc c53d fca8 da3d f038 ed3d 5ffd a63c
00000020: 3e31 af3d 33ee 953d 050e 95bd d053 af3c
00000030: 002a 0bbd b3c4 3a3e c233 8ebd 0514 ebbd
00000040: eb96 08be af67 0b3e a7e5 b0bb 29cd b23c
00000050: 2232 df3d 4cf8 1fbe a41a c53b 8f4a d63d
00000060: 596b 8d3d 45dd 9f3d f7d4 4bbc 6a03 263e
00000070: bb41 07bd fba4 e03d 31a0 e3bd 46cf 7d3d
00000080: 39cd 83bd 5d22 d53c 6631 27bd b89d cbbd
00000090: c8bc 39be f5f5 d5bd 80f0 093e 70c9 e93d
000000a0: e0a4 11be 8608 c8bd edbb e4bd 6b88 21be
000000b0: 91d0 a0bd edd8 86bd 7cbc 4abd b844 61bb
000000c0: 92f4 723c 83af 933d 2fd8 40bd 20aa 283e
000000d0: 9c5d 3dbe 368a 05be 5c10 923d 1898 0abc
000000e0: a19b a6bc 6423 e13c df09 073e ea26 623c
000000f0: c770 dabd 81b6 d4bd 16e7 eb3d e39a e6bd
00000100: 4399 d83d 6dd3 fe3d 75b8 c73c d473 d93c
00000110: 7e11 b63d 71db 06be 7a7a 6abe 253e 8abd
00000120: e2c7 3b3e 5c50 ce3d c1bc 613d 40fa 1ebe
00000130: 3c49 b5bd 9883 b93d 219d 303e f446 64bd
00000140: 0540 82bc 5d63 f63d 8a7f 0bbd c4b1 f9bb
00000150: 50a8 bf3c c7cc 7abe b9a9 f0bd 366e 0b3e
00000160: b498 e83d 8ff6 4c3d 51fa f33c 39d6 3cbe
00000170: ee0a 633d 76e9 1fbe 41e9 cdbd d156 efbd
00000180: 8adb 6e3d ef7d 1cbd 5d24 fdbc 5d6d 60bd
00000190: f368 b13d 49f4 3fbd 5edc a4be 4bee 28be
000001a0: bd4f 2fbd 5ba3 7c3d 739b d4bd 1539 7f3e
000001b0: bf7a a23c 0ae7 e33d d479 bfbd be67 d1bd
000001c0: 87a0 a5bc ade5 88bd c1d2 93bd 7cdb 123e
000001d0: dc33 b13c fd86 223e 45c8 4a3c bff8 edbb
000001e0: 08ff 45bd eab9 c1bb 9788 8d3d 2daa b13d
000001f0: cdf4 c9bb 899f 773e ef16 38be 029f b43d
00000200: 195b 2a3e f296 2fbd 1fff f3bd 1ee1 973d
00000210: a9f2 c7bd e75e 7fbd 9f41 623d 952d a43d
00000220: ba73 0dbe 746a 8a3d 747f f83b 521f e53d
00000230: ef0c 043e 2453 4a3c 6131 c13b 645a 20be
00000240: aa7f 55be ab63 853c 9269 cd3d b1d7 99be
00000250: 4f9e 03be dbff ce3c 9163 8e3d 8a0d 8fbd
00000260: 171f acbd d088 253d 4414 c2bd 8b69 c3bd
00000270: 71b1 13bd 0a69 3fbd c108 9b3d b339 e3bc
00000280: eff7 b93d f5b3 bbbd 827b 8e3d b5e3 5b3d
00000290: 62ec c0bd 6dba 45bd 0722 8ebd 6f49 a0bc
000002a0: 048a 8fbb 85d7 ab3d c322 0b3e 545f c8bc
000002b0: 1701 a93d 54a1 d23c c3fd 97be 51a5 3ebc
000002c0: d599 a83d 8b39 0ebb f23e 80bd 2de7 b9bd
000002d0: d3dc c7bb ebe0 bdbd b7e2 513d e95f 1fbe
000002e0: 9420 82bd d599 243c 74db 313d 5deb fa3c
000002f0: b706 0d3d 1864 a9bd ed63 5d3d 26ef 7f3d
00000300: 9fb3 0dbb 307b ca3b a483 203e 2ce6 4d3d
00000310: 7572 b1bd 0c88 e93d 7c15 123e 10a8 91bd
00000320: 17b8 e2bc 4781 893d a3ef 5bbd f1ce 043e
00000330: a958 fe3d 65c2 9f3c a8d2 05bd ea1a c4bc
00000340: 29a9 2c3d dcb8 88bc e2c1 e8bc af90 4f3d
00000350: 8bae b33d 3627 3fbd 6859 473d a48d 3dbd
00000360: 4d08 053d b243 27be 1661 5bbe 0458 473e
00000370: 5e29 78bd da01 733e 5638 d0bd 66cc 4c3c
00000380: 2c30 84bd 57af bfbc 0781 f53d e546 d73c
00000390: ff12 99bd 7323 10be 994a ed3c c762 44bd
000003a0: 9a7b b6bd d1ca f9bd a78b a0bd 1620 ff3c
000003b0: 67e4 76bd 2494 76bc 5595 63bc bcd4 8fbc
000003c0: 6346 bd3d ee37 ec3d b2b6 0b3d 09b9 44bd
000003d0: 3d2c 7fbe 656e e1bc 56c7 793d a380 26bd
000003e0: 6278 95bc 7b95 24bd 9850 8c3d d2e1 013e
000003f0: 5d6d 2cbe 8e3e e43c cce5 833d 3eda fd3c
-0.15428233 -0.07404394 0.039387584 0.032044757 0.09661205 0.106767625 0.115831256 0.020384489
0.08554314 0.073208235 -0.07278065 0.02140227 -0.0339756 0.18239097 -0.06943466 -0.11478428
-0.1333882 0.13613771 -0.0053984704 0.021826344 0.10898234 -0.15622061 0.0060151387 0.1046344
0.069052406 0.07805876 -0.0124409115 0.1621224 -0.03302167 0.109689675 -0.111145385 0.06196525
-0.064356275 0.026017362 -0.040818594 -0.09942192 -0.1813842 -0.10447303 0.1347065 0.11415374
-0.14223051 -0.09767251 -0.111686565 -0.15774696 -0.07852281 -0.06584344 -0.04949616 -0.0034373235
0.014828818 0.072112106 -0.04708117 0.16471148 -0.1849274 -0.13041005 0.071320266 -0.008459114
-0.020337882 0.027482696 0.1318736 0.013803223 -0.10666042 -0.10386372 0.115186855 -0.11260011
0.10576107 0.1244267 0.024379948 0.026544489 0.08890055 -0.13169648 -0.22898284 -0.067501344
0.18337968 0.10073921 0.05511165 -0.1552515 -0.08851859 0.09058303 0.1724744 -0.05573173
-0.015899668 0.12030671 -0.034057178 -0.0076200683 0.023395687 -0.24492179 -0.11751122 0.13616261
0.11357251 0.050039824 0.029782446 -0.18441094 0.055430345 -0.15616402 -0.10054255 -0.11686481
0.058314838 -0.038206037 -0.030901128 -0.054791797 0.086625956 -0.046863828 -0.32199377 -0.16497152
-0.042800654 0.061679225 -0.10381212 0.24924119 0.01983392 0.111280516 -0.09349409 -0.102248654
-0.020218147 -0.06684432 -0.072179325 0.14341539 0.021631174 0.15871806 0.01237685 -0.007262319
-0.04833892 -0.0059120553 0.06910818 0.086750366 -0.0061632157 0.24181952 -0.17977498 0.08819391
0.16636313 -0.042868562 -0.11913895 0.074159846 -0.097630806 -0.062346365 0.055238362 0.080165066
-0.13813677 0.067585856 0.007583553 0.111876145 0.12895559 0.012348924 0.005895779 -0.15659481
-0.20849481 0.016282877 0.100299016 -0.30047372 -0.12853359 0.025268486 0.069525845 -0.06985004
-0.084043674 0.040413678 -0.094765216 -0.09541615 -0.036057893 -0.046731032 0.07570029 -0.027737474
0.09080493 -0.091651835 0.06957151 0.053683955 -0.094200864 -0.048273493 -0.06940084 -0.019566266
-0.0043804664 0.083907165 0.1358748 -0.024459518 0.08252161 0.025711693 -0.29685792 -0.011636094
0.08232466 -0.0021701779 -0.06262006 -0.090772964 -0.0060993223 -0.09271415 0.051241603 -0.1556393
-0.0635387 0.010046442 0.043422177 0.030629808 0.034430232 -0.082710445 0.054050375 0.06248393
-0.0021621955 0.006179236 0.15675217 0.050268337 -0.08664409 0.11402902 0.14266008 -0.071121335
-0.027675672 0.06714111 -0.053695332 0.12969567 0.12419254 0.019501874 -0.0326716 -0.023938615
0.04215351 -0.01668971 -0.028412763 0.05067509 0.08773526 -0.046668254 0.04866925 -0.046277657
0.03247862 -0.16334417 -0.21423754 0.19467169 -0.060586326 0.23731175 -0.10166995 0.012499904
-0.064545006 -0.023399038 0.11987501 0.026278922 -0.07474326 -0.14076023 0.028966235 -0.047945764
-0.08910294 -0.12196887 -0.078391366 0.03114323 -0.060276415 -0.015049968 -0.013890584 -0.017557494
0.09241941 0.11534105 0.03410978 -0.048028026 -0.2491922 -0.02751846 0.060981117 -0.04065002
-0.01824588 -0.04018162 0.068513095 0.126838 -0.16838594 0.02786186 0.06440315 0.030987855

lstm.weight_hh_l0 f4 [256, 64]
00000000: b245 45bd 0ed1 e93d 5337 4e3d dba0 ff3d
00000010: cee4 c5bd 1517 b4bd 40d3 55bd c57d a3bd
00000020: 113a be3d 202c 15be 1bd5 af3d 18f9 c2bd
00000030: 8356 0abe fc71 f13d 09de 723d d8c9 5abc
00000040: 375c afbd 1576 d7bc 4a34 febc 4394 a23d
00000050: 5da1 78bd 2fff 053d 4b5e a23d fbc7 90bc
00000060: b428 023e 8477 cdbd 3474 f5bc 301a bd3c
00000070: 36ff ce3c 2714 36bd e47d cf3d 0dd8 993c
00000080: 33dc 153d d703 ba3d 5db3 ddbc 41f6 973d
00000090: db0c bd3d 78ce 81bd 9d88 f63c 7b73 833d
000000a0: 2650 2e3e e310 c13d 69f7 b63d 193c d73c
000000b0: 0dca ab3d e804 043c c4c4 b03d fc13 a53b
000000c0: 2002 ddbd 17a5 01bd 1b57 573c c8aa 1dbe
000000d0: f98c 9c3c 341b cfbd 400a f13d d5fd fcbc
000000e0: 0dbe 923d 48bd c73b e298 4ebd df04 aabd
000000f0: 62f0 833c 3f63 003d f58f 9d3d 505b 78bd
00000100: bf7d babd 1e95 a43d d2c4 283d 936c cc3d
00000110: 0750 6a3d c1df 2a3c 642f 1a3c f06a 893c
00000120: 3969 03be 160a d43c f50a 213c cb78 7a3d
00000130: f3a5 c2bd 337c a53d c45a edba 5b68 8e3c
00000140: f2a9 9c3d 0b6b 7a3b 147a e83c 0dba fe3d
00000150: d4df 983d 03ca 0dbc b2a8 d33d 8db5 b93d
00000160: b428 61bd c914 003d 417e 493d a652 89bd
00000170: 9193 ee3c 2507 dfbc ae40 21bd bd24 88bd
00000180: 2ee9 783d 0b74 26bd c3fc ae3d 62d3 fb3c
00000190: e693 513d 1555 7a3d 81b7 f5bc 6ea8 183d
000001a0: 281b efbd 03d9 a6bd 23f8 5dbc 9aab 61bd
000001b0: a5a6 1c3d b958 cc3d 0b4a 813d c181 a9bd
000001c0: 8407 623d c583 aabd 988b 8e3d ba88 9cbd
000001d0: 4530 06bd 1b43 49bd 3142 2abc 35a4 813b
000001e0: 2076 a33d 75b1 7e3b 618b 5fbd 6ffd b83c
000001f0: ee50 8d3c 25c6 a73d 2f2f f0bc 4a27 bdbc
00000200: 01e6 083e 1e0c 3d3c 96be 863c 312e b43d
00000210: 31db a3bd da2d b5bd 17a3 c7bd bfb1 b03d
00000220: 2f9a dcbc 9398 a3bd 8df6 27bb bade 763d
00000230: e950 ee3c 18e8 913d b01e 9fbd 73c0 253d
00000240: 0f63 4dbd f61f bf3a 84fa 1b3d ab17 0bbd
00000250: e3a6 73bd a193 4dbd 7d6a a03d 9d37 a53d
00000260: 421a cfbc 7461 8dbd 1eda 8d3d b76f ce3d
00000270: 2e9e 883d d6b6 03be e28a 8d3c ddc7 a23d
00000280: 0a37 8bbd a6f7 0c3d f9e3 e4bd df5a a3bd
00000290: f250 d33d 2323 b6bd e150 973d 8d69 0abc
000002a0: 2ed5 eabc 15e1 83bd d0f2 2ebc c399 0bbe
000002b0: 8302 933d 5691 ce3c 45f5 2bbd 5fe9 98bc
000002c0: 99a7 24be 2122 d2bc 67e9 fa3c e67f 8dbd
000002d0: a350 b5bd f1a1 11be e64b a1bd 69ea d03d
000002e0: b590 bfbd a559 043e 5196 9c3d 7bb9 493c
000002f0: 0aab 713d 2eec 88bd f606 0cbc 85fa b03d
00000300: efc3 e13d ef58 973d f491 0a3e c568 5f3d
00000310: 48d8 3a3d 6c39 f23d 98b1 f9bc d53c dd3b
00000320: c0de 593d 0e47 e0bc a227 9b3d 5183 a5bd
00000330: 5c31 cdbd 21a4 053e edf7 34bc fa67 c1bd
00000340: 38da de3d 3083 45be 5ac4 b1bd 025c e63d
00000350: ab3f c3bd 0ab7 8c3d 09ea 9d3c b0e4 c2bd
00000360: 4465 323d ac24 79bd 0460 74bc bab5 a1bd
00000370: 3502 8abd 6f8f 903d 96a3 29bd 4203 81bd
00000380: ae38 f43d 21b9 78bd f886 013e a067 a3bd
00000390: 5cb5 28bd 8cc4 13bd 2546 143d 3a07 18bd
000003a0: 21b4 e9bd a3e1 8fbc e1dc 13bd 5510 3b3d
000003b0: 7c30 533d 0849 563d ff34 d0bd 1ff5 33bb
000003c0: 4787 f63d d2b1 933d 8621 333d 19e7 26bd
000003d0: 66b4 c93d 57b2 a5bc bb03 7c3c 72f3 843d
000003e0: 018f 8cbd 9b39 67bd e22a 75bd b520 0e3b
000003f0: 22ee 13be 148e 39bd f19c 1fbc 46bb b63d
-0.04816217 0.11416827 0.05034573 0.124818526 -0.09662782 -0.08793465 -0.052203417 -0.07982973
0.09288419 -0.14567614 0.085855685 -0.09520167 -0.13509564 0.11789319 0.05929378 -0.013353787
-0.085625105 -0.026301423 -0.031030793 0.07938435 -0.060700763 0.032714065 0.07928141 -0.017673483
0.1271084 -0.100325614 -0.029962637 0.023083776 0.025268178 -0.044452813 0.101314336 0.018779779
0.03658695 0.09082764 -0.027063066 0.07420016 0.092309676 -0.06338209 0.03009444 0.064185105
0.17022762 0.09427049 0.089339085 0.026273774 0.083881475 0.00805781 0.0863128 0.0050377827
-0.10791421 -0.031651583 0.013143326 -0.15397179 0.01911019 -0.101126105 0.11769533 -0.030882755
0.071651556 0.006095562 -0.05043877 -0.0830171 0.016105834 0.03134465 0.07693473 -0.060633957
-0.091060154 0.08036254 0.041203327 0.099816464 0.057205226 0.010429324 0.009410713 0.016774625
-0.12833108 0.025883716 0.0098292725 0.061150353 -0.095043086 0.0808033 -0.0018108715 0.017383745
0.07649602 0.0038210775 0.028378524 0.1243783 0.07464567 -0.00865412 0.103349105 0.09067831
-0.05497046 0.031269822 0.04919267 -0.06705217 0.0291231 -0.027225086 -0.039368324 -0.06647632
0.060769252 -0.04063801 0.08544304 0.030740444 0.051166438 0.061116297 -0.029994728 0.037270002
-0.116751015 -0.081468605 -0.01354793 -0.055095293 0.038244862 0.0997786 0.06312951 -0.08276702
0.05518295 -0.08325914 0.06960219 -0.07643266 -0.032760877 -0.049136262 -0.010391758 0.0039563426
0.07981515 0.0038863097 -0.05457628 0.022581784 0.017250504 0.0819209 -0.029319374 -0.023090024
0.1336899 0.0115385335 0.0164483 0.08797873 -0.08000792 -0.08846636 -0.09747904 0.086276524
-0.02692899 -0.079880856 -0.0025629133 0.060271002 0.029091315 0.071243465 -0.07769525 0.040466737
-0.050143298 0.0014581669 0.038080707 -0.03395812 -0.059485327 -0.050189618 0.07832811 0.08067248
-0.025281075 -0.06903353 0.06926368 0.10079902 0.066707954 -0.12862715 0.017278139 0.07948277
-0.06797607 0.034415863 -0.11176295 -0.07976317 0.103181735 -0.088934205 0.07388473 -0.008448017
-0.028666105 -0.06439415 -0.010678008 -0.13632874 0.071782134 0.025215786 -0.041981954 -0.018665968
-0.16079558 -0.02565104 0.030628873 -0.0690916 -0.08853271 -0.14221932 -0.078758046 0.1020096
-0.093537726 0.12924822 0.07645858 0.012312288 0.059001006 -0.06685673 -0.0085465815 0.08641533
0.110236995 0.073900096 0.13532239 0.054543275 0.045616418 0.118273586 -0.030480191 0.0067516365
0.053190947 -0.027377632 0.07575919 -0.08081687 -0.1001918 0.13050891 -0.011045438 -0.0944366
0.10881466 -0.19288325 -0.08680029 0.11248018 -0.09533628 0.068708494 0.019276636 -0.09516275
0.043553606 -0.06082599 -0.01491547 -0.0789599 -0.06738702 0.07058608 -0.041415773 -0.062994495
0.11924873 -0.060723428 0.12649143 -0.07978749 -0.041188583 -0.036076114 0.036199708 -0.037116267
-0.1141131 -0.017563647 -0.03609932 0.045669872 0.05155991 0.05231574 -0.10166358 -0.0027459336
0.12037521 0.07211651 0.043733142 -0.040747736 0.098488614 -0.02022664 0.015381749 0.06491746
-0.06863213 -0.05645142 -0.05985535 0.0021686975 -0.14446309 -0.045301512 -0.009742008 0.08922438

lstm.bias_ih_l0 f4 [256]
00000000: e07b cabd d699 2cbd 8605 033e 6261 0e3d
00000010: 4bb2 6bbd 6a2f 753c 0c85 9a3d 4cf7 67bd
00000020: 1c64 223e b23d 0a3e 634d 74bd fe10 7cbd
00000030: 7db8 66bd 0fbd 423d de89 febc a9eb f5bd
00000040: a9c2 463c 83c9 0e3e 522c 803c e0f9 85bc
00000050: 4950 92bc 2bf9 0ebc 9fb7 ab3c 667d d93d
00000060: f603 8f3d 427a 2ebd eff6 473d 268c 113d
00000070: f171 cc3d 0222 bdbd b539 023c 56e0 0c3b
00000080: 58ed 30bd 5558 e8bd bc9e 3fbd 6fd3 54bb
00000090: af8a 923d 6bd5 083b c5cf 893b df1f 993d
000000a0: 04c7 6dbd 98af f33d e560 cdbd d355 cfbd
000000b0: f02f 58bd febe ae3c a8cc c13c d6b8 b53d
000000c0: 8dd2 1dbd d705 c2bc 863d b9bc 6801 3fbd
000000d0: 7ae2 6dbd 3f95 cc3d 245a 95bd 748f 76bc
000000e0: a707 b7bd ed15 47bd cd9a 1c3d bcf9 d9bd
000000f0: ec9d d73d ac73 bf3d b0fb fe3d 6bbc 833d
00000100: f2f4 553b 80c5 263d 0714 ed3c 2292 303a
00000110: c915 31bd e03c c63d 2ec5 c33b 5c0a 3fbc
00000120: c6e8 ce3d 2b4d 2e3e d296 493d 0f28 903b
00000130: 6b60 133e fe4c a03d 741b e5bd 1e8f ce3d
00000140: 57d4 ebbd 2203 193c 110b 49bd ab56 433c
00000150: e763 c2bd 1b72 c13d 204a c2bd cb91 023e
00000160: 54e1 c4bd faa0 2e3d 6b87 9abd 8d2f b6bd
00000170: 210b 58bd 357d 7b3d c6f3 4a3d f189 bebc
00000180: 586f d5bc cff0 9ebd 7218 39bc aaf9 5b3d
00000190: 43e9 5b3c 406c 43bd c10f cbbd e7c8 ec3d
000001a0: 44e2 373d 57a9 a2bd 77e3 3a3c 8156 88bd
000001b0: f5de 5d3d 16c9 80bd b85f 463e cabf c33d
000001c0: 2860 05bd e095 a13d f5ea 74bc 8c24 aa3d
000001d0: 3306 14bd a15a 1abd b82c c03d 471b d5bd
000001e0: 5dc5 ae3d 7c6a 773d aa47 013e bdc7 e9bd
000001f0: e903 d83d b0f7 e9bd 578c 09bc e161 b23d
00000200: a61d 733d b440 ce3d 79ed 98bd 6d25 bb3d
00000210: 8d6f 46bd 8ce2 52bd 2a07 6ebc 1864 d8bc
00000220: 1d90 66bc a1ce 83bd a288 593c 9642 3bbd
00000230: 64f0 c4bd 8a9b cd3d fe27 d13d 1b1e 55bd
00000240: 8864 bcbd 4b93 43bd e61d ce3d f7f8 f3bc
00000250: d370 d5bd 2788 41bd 36c8 583d d815 ed3b
00000260: 2f93 fa3c 6bc2 143c bc59 153d 9900 263c
00000270: 5309 9fbd 19cf 1bbb 9078 e13d 7faf 4cbd
00000280: c29d 81bd c39b d43d a4e4 b2bd 41b5 903d
00000290: 7d3e 213b 6f14 df3c f9a0 cdbc 5605 c4bc
000002a0: c9c7 95bd 472a b83d e82e 933b a253 04bd
000002b0: c641 afbd bb85 c63c 986b 853c 6271 23bd
000002c0: 3c3f a1bc aaa7 7abd b844 32bd c57c c4bc
000002d0: 927b a43d 2bdd 9f3d b811 863d 3f67 d93d
000002e0: 81a5 e0bd a5f7 3fbd da54 6a3c 65a4 c8bc
000002f0: 9e4c b63d 8a62 8b3d 38d5 b6bc bb25 033c
00000300: b2f0 8dbd 828a 1cbd a8d4 e33d 265c 94bc
00000310: f204 ca3d b7f7 4d3d 858d 11bd ddc5 ecbd
00000320: a7d0 6c3d e3d4 263d 886d 113d 84bf 733d
00000330: d69e 1f3e a732 2f3d 456b b6bd 1268 76bd
00000340: cb86 d2bd c0d1 673d 622b b13d 5c12 0d3e
00000350: a621 00be b1c5 f23d 93d8 debc 21ff 353e
00000360: 293e d83d fd72 433d 7fb2 fd3d b978 85bd
00000370: 7313 1b3e ab09 de3d d9a7 30bd 92d0 53bd
00000380: ec92 eabd 6ecb 2abd c06e 0a3e 5e33 483e
00000390: d292 003e 080f 723d 325e 15bd fd77 12bc
000003a0: e8d9 963d ddbe 0b3e be9f 533d 5631 c83c
000003b0: 11b0 26bc 65ed 87ba f28b 753c bad5 e73c
000003c0: 0625 c6bc 8d54 d2bd 12cb 303c 44ac 023e
000003d0: 475f 8b3c 19cc a43c cf46 2fbd d807 ce3c
000003e0: 91a0 c43a 0cf2 733d 9807 f73d b53c e6bd
000003f0: 2984 c03d 7010 8dbb 3fce 5a3c d731 913c
-0.098869085 -0.042138897 0.12795076 0.03476084 -0.05754308 0.014964918 0.07544908 -0.056632325
0.15858501 0.13500097 -0.059644114 -0.061539643 -0.056328285 0.04754358 -0.0310716 -0.12007839
0.012131372 0.13944058 0.015646134 -0.016354501 -0.017860549 -0.008726398 0.02096158 0.10619621
0.06983177 -0.042597063 0.04881948 0.035534047 0.0998267 -0.09235002 0.007948329 0.002149602
-0.0431951 -0.11344973 -0.04678224 -0.0032474657 0.07155358 0.002087916 0.0042056763 0.07476782
-0.058051124 0.11898726 -0.10028247 -0.101237915 -0.05278009 0.021331307 0.023657158 0.08873145
-0.038530875 -0.023684425 -0.022612344 -0.0466322 -0.058077313 0.09989404 -0.072925836 -0.01504885
-0.089370064 -0.048604894 0.038233567 -0.10643336 0.10528168 0.093482345 0.12450349 0.06432422
0.003264722 0.040715694 0.028940214 0.00067356427 -0.043233667 0.0967958 0.0059744334 -0.011660185
0.10102992 0.17021625 0.0492161 0.0043993066 0.1439225 0.07827185 -0.11186877 0.10085891
-0.1151511 0.009339126 -0.04908282 0.011922519 -0.09491711 0.09445592 -0.094867945 0.12750928
-0.096132904 0.042633988 -0.0754536 -0.08895788 -0.05274499 0.061398704 0.049548887 -0.023259135
-0.02605407 -0.07760774 -0.011297332 0.053704895 0.013422313 -0.047710657 -0.09915114 0.115617566
0.044893518 -0.07942455 0.011406771 -0.06657124 0.054167707 -0.06288354 0.19372451 0.09558065
-0.032562405 0.078899145 -0.014948596 0.08307752 -0.036138725 -0.037684087 0.093835294 -0.10405593
0.08533738 0.060404286 0.12624994 -0.1141505 0.10547621 -0.11424196 -0.008395276 0.08710075
0.059354447 0.10070935 -0.07467169 0.09137998 -0.048446227 -0.051485583 -0.014528075 -0.026414916
-0.014072445 -0.06435896 0.013277205 -0.0457178 -0.096161634 0.10039432 0.10212706 -0.052030664
-0.09198862 -0.04774789 0.100642964 -0.029781802 -0.1042191 -0.047248986 0.05292531 0.00723527
0.03058776 0.009079556 0.03646253 0.010131978 -0.0776545 -0.0023774563 0.110093236 -0.049972054
-0.06328918 0.10381272 -0.08735016 0.070658214 0.0024603896 0.027231423 -0.025101172 -0.023928326
-0.073134966 0.08992439 0.0044916756 -0.03230632 -0.08557467 0.02423369 0.016286656 -0.039903052
-0.019683473 -0.061195053 -0.043522567 -0.023985276 0.08031382 0.07805856 0.06546348 0.10615396
-0.10969067 -0.04686703 0.014302457 -0.024492452 0.08901332 0.06805904 -0.022318467 0.008004601
-0.069306746 -0.03821803 0.11124545 -0.018110346 0.098642245 0.050285067 -0.035535354 -0.11561177
0.057816174 0.04073037 0.035504848 0.059508815 0.15587935 0.042772915 -0.08907179 -0.060157843
-0.10279616 0.056596518 0.08650853 0.13776535 -0.12512836 0.11854113 -0.02720288 0.17773105
0.10558731 0.047717083 0.12387561 -0.06517167 0.15144138 0.10841688 -0.043128822 -0.05171258
-0.114538044 -0.041697912 0.1351881 0.19550845 0.12556008 0.059096366 -0.036466785 -0.00893974
0.07365781 0.13647027 0.051666014 0.024437588 -0.010173813 -0.0010370432 0.014986979 0.028300155
-0.024187576 -0.10270033 0.010790603 0.12761027 0.017013205 0.020116853 -0.042792138 0.025150225
0.0015001466 0.059557006 0.12061995 -0.11242048 0.094002075 -0.004304938 0.013354837 0.01772396

lstm.bias_hh_l0 f4 [256]
00000000: f4f2 ce3d 5d31 dbbd 6886 ac3d 90ed f13c
00000010: dc12 77bd 47b6 d53d 8a72 c83d c798 11be
00000020: a8a2 d23d c89e a0bd 8c8c 113d 53af b6bd
00000030: b918 ba3d bb63 073e 567c e6bd 82d6 aebd
00000040: 961a f5bc b34a 703d a2f4 e6bb a8a1 85bc
00000050: a4b9 edbd 65f5 953d 2bf3 873d 172f 873c
00000060: dd71 febc d4e9 43bb 736c c93d e7ff 2f3b
00000070: 580a 2a3e 5259 06be d851 bdbc f3f0 d1bc
00000080: 5a08 90bc ea47 c53d 4881 473b 4f34 3d3d
00000090: 614d 91bd c3ff cdbc 5913 d13d f5bf f5bb
000000a0: 5f49 d3bb 564d 12bd 6626 843d d41c cabd
000000b0: 01d4 9c3d 7191 ec3d 0c69 713d 13ba c13d
000000c0: 4cd4 943c b8a0 46bd d135 c2bd a016 aebd
000000d0: e292 a13d ef07 5f3c 42fc 85bd c3ab 1abd
000000e0: 5fcc 93bd 846f acbd b4c5 a33d ddba 643d
000000f0: 6ffb 943e 3330 e03d 25fd 0c3d 65aa 2bbc
00000100: 8410 3bbc c924 a23d c1db d3bc ca8b b6bd
00000110: 6c81 e9bd 042e 11bd 227c e63c a64a 98bd
00000120: 7072 ad3b 741b 53bc 217f 80bd 98e2 33bd
00000130: 467c fe3d a9ee 04bd 6a63 c93d 6d4c fb3d
00000140: 9ced 83bd f1e6 eebd ae35 4fbc 5068 84bd
00000150: 8fb1 0b3d 7306 5e3c 08ac dc3d f51e 163e
00000160: 2de6 ccba 7566 5b3d c1aa d83d da7a 503d
00000170: 5108 c53c 43f5 bd3d 3e1c a23d 10f2 d43c
00000180: 9205 953d b5f1 8d3d b9cd cc3d 9263 923d
00000190: 0619 b3bd b171 b43c 452f 323c df22 6b3c
000001a0: d386 2b3d 874d 8cbb dd88 1e3d d5d5 c13d
000001b0: 10ba cc3d db19 be3d f1f5 f23d 8ec6 1d3e
000001c0: a8a5 4dbd 9a56 bd3d e10f e53c 3217 593d
000001d0: 8e40 5ebc f4c7 c73d 333b f1bd b691 4d3d
000001e0: 6c26 ba3c fefa 073e 0d2c 013e 5c08 a93c
000001f0: c3ee 793e 7eec e0bc b11c 013d 574b b2bd
00000200: 67ec 6d3d 7744 97bc 2656 d63d e7da b93d
00000210: 8b2f c639 2d49 e5bd 07a0 b4bd 29bc 6dbd
00000220: d9fb 853c 67dd 403d 0488 ca3d d17d 9abc
00000230: 545f 373c 9f1b e2bd ce7b febd 80fd d33d
00000240: 3b5e 0cbd 3b11 953d f982 b23d 840c 293d
00000250: e138 6a3c 21a6 c73d 99f3 f03c 518b a0bc
00000260: 2668 c63d 3fb3 d1bd 4530 babc 7d1e ae3d
00000270: 7ba3 c23d f168 77bd 3de6 083d d1c0 2ebd
00000280: b80c fbbc e1dd 563d e0f4 7f3d 016c c3bc
00000290: 60c3 733d cdb3 053d b9ed 97bd 4c99 c13c
000002a0: c855 ec3d 735f 1bbd 4a46 64bd dc7c 27bd
000002b0: 1b04 a0bd 1315 363d 931d 4f3d 69bb 843d
000002c0: 4bde 89bd 8bff 043e cb6b ef3c bc98 03bd
000002d0: 4fc8 1cbd 3355 e3bd c7f2 32bd 6fd4 b03d
000002e0: db46 263d a646 133d 29a9 84bd f755 bbbd
000002f0: f250 94bd 9438 c53d bb7e 9d3c 4ab1 4abd
00000300: 4234 06bd bd5b c33d fa5f 823d c836 77bb
00000310: b630 703d 339f a3bd 6ac2 b0bd 1546 ad3c
00000320: f0f6 30bd c705 633d 9ede f8bd cb1f debd
00000330: b852 263e 21df 6dbc e826 743d 60f4 703b
00000340: 8da1 9c3d d5b1 2e3e 5f89 bcba c1b9 93bd
00000350: 58e1 233d 27fd 273d e45c ce3d 70b1 1e3e
00000360: cafa 683d 5cbf f83d e3db ee3d e9a3 8b3d
00000370: 9ba1 373e 6634 2cbd 802c d8bc 3039 0a3e
00000380: d26b 4e3d 8385 b6bc 389d ea3d dd22 343d
00000390: 0119 1cbc 82b4 6dbd 0f4c a63c 746c b73d
000003a0: 2135 483d cbde e63d 2d6f cbbd 3dc8 3e3d
000003b0: 0269 f939 0c63 67bc 456b 953d b626 0f3e
000003c0: 8548 823d 54b5 69bd 0ab5 b5bd d704 d53d
000003d0: 26d5 e73d 57cf f4bb 059e 06bd eb72 bc3d
000003e0: 74c6 ddbc ab31 f4bc 1a60 633d cdb8 7d3d
000003f0: ef1e 243d b666 01be e69a c4bb c98d 9d3c
0.101049334 -0.10702775 0.084240735 0.029532224 -0.06032072 0.10435157 0.097874716 -0.14218436
0.102849305 -0.07842785 0.035534427 -0.08920159 0.09086747 0.13221638 -0.11254184 -0.08537008
-0.029919904 0.05866499 -0.0070482055 -0.016312435 -0.11607674 0.07322196 0.066381775 0.016501946
-0.031060154 -0.002989401 0.09835138 0.002685541 0.16605508 -0.1312001 -0.023110315 -0.025627589
-0.017582107 0.09632857 0.0030442048 0.046192463 -0.07094837 -0.02514637 0.102087684 -0.0074996897
-0.0064479555 -0.035718285 0.064526364 -0.0986878 0.07657624 0.11551178 0.05893807 0.09459319
0.018167637 -0.048493117 -0.09482921 -0.08500409 0.07889344 0.013612731 -0.06542255 -0.03776146
-0.07216715 -0.084197074 0.07996693 0.05584227 0.2909808 0.10946693 0.034421105 -0.010477637
-0.011417512 0.079171725 -0.025861623 -0.089133814 -0.114016384 -0.035444275 0.028135363 -0.07436113
0.005293183 -0.012884963 -0.06274248 -0.04391727 0.12426047 -0.032454167 0.09833415 0.122704364
-0.06441805 -0.11665142 -0.012647076 -0.064652085 0.03410488 0.013551342 0.10775 0.14660247
-0.0015632563 0.053564508 0.10579444 0.05089841 0.024051817 0.092752956 0.07915543 0.02599433
0.07276453 0.069308676 0.10000176 0.07147898 -0.08745007 0.022026869 0.010875528 0.014351576
0.041876625 -0.004281703 0.03870474 0.09464613 0.09996426 0.09282275 0.11863316 0.15407774
-0.05020681 0.092450336 0.027961673 0.053000636 -0.013565196 0.09754935 -0.117788695 0.05018779
0.0227234 0.1327934 0.1261446 0.020633869 0.24407487 -0.027456518 0.031521503 -0.08705776
0.05808678 -0.018465264 0.1046565 0.090749554 0.00037800925 -0.11195598 -0.08819585 -0.05804077
0.016355442 0.047086146 0.09889224 -0.018858822 0.011192162 -0.110404246 -0.124259576 0.10351086
-0.034269553 0.07278677 0.08716387 0.0412717 0.014295788 0.097484834 0.029413031 -0.019597681
0.096878335 -0.102392666 -0.022728095 0.08501909 0.09503838 -0.060402814 0.033422697 -0.042664353
-0.030645713 0.052457694 0.06248939 -0.023855211 0.059512496 0.032642175 -0.07418389 0.023632668
0.11539799 -0.037932824 -0.055731095 -0.04089056 -0.07813283 0.04445369 0.050565314 0.06481058
-0.06731852 0.12988107 0.029226204 -0.03212808 -0.038276967 -0.11100235 -0.04368856 0.086342685
0.040594917 0.035956047 -0.06477577 -0.09147256 -0.072420016 0.09629932 0.019225469 -0.049485482
-0.03276468 0.09538982 0.06365962 -0.003772186 0.058640204 -0.07989349 -0.086308315 0.021151582
-0.043204248 0.05542543 -0.12151836 -0.10845908 0.16242492 -0.01451853 0.059607416 0.0036766753
0.07648001 0.17060025 -0.0014384201 -0.07213164 0.040009826 0.04101291 0.10076311 0.15497375
0.056879796 0.12145874 0.11663034 0.06818373 0.17932741 -0.04204216 -0.026388407 0.13498378
0.050395794 -0.02228046 0.11455768 0.04397856 -0.009527446 -0.058033474 0.02029994 0.08956233
0.048878793 0.11272963 -0.099333145 0.04657768 0.00047571218 -0.014122736 0.07295851 0.13979611
0.06361488 -0.057057694 -0.08872421 0.10401314 0.11319952 -0.007471006 -0.032865543 0.09201606
-0.027072169 -0.02980884 0.05551157 0.061943818 0.040068563 -0.12636837 -0.0059999106 0.019232647

lstm.weight_ih_l0_reverse f4 [256, 3]
00000000: ea97 a6bd 1deb 403d bb3f 0ebd 5b67 0cbe
00000010: 8fa7 673d 04eb b83e ab50 153e 8874 a7bd
00000020: 05d3 7fbd 47d0 4cbe 2955 b7bd 3690 03be
00000030: e70a 303e 06f0 463c 46fd 0dbe 984e ba3d
00000040: 71de 4b3d 0cd0 0dbe 2ac6 21bd 8dc7 473d
00000050: d077 f83c a6fd 563d 6780 48bd 8fe9 033e
00000060: ec3b 2d3e e94b c73e eccc 563e 0e4e 993d
00000070: 5231 043e 670a f43d 16e9 b9bd b603 08be
00000080: cbd6 f73d 0c4b 63bd 3c32 07bd ce1b 86bd
00000090: aaba 00be 8954 1b3d 6f00 973d 2933 323e
000000a0: d60c 2f3c 8a02 263d c566 6e3e 8b74 2d3e
000000b0: d9b9 743e 6fc5 a0bd 9432 b3bd 96bf 843d
000000c0: c8cf 12be ba6c 5bbb 138d 68ba ec5f 103e
000000d0: 81cf 7b3d d4f0 743d 7cf0 333d ee29 aa3d
000000e0: 7ae7 1abd b49e 0cbd b0d9 90bd b293 11be
000000f0: 75a3 93bd 61a8 fabd 42de dbbd 80e5 1a3e
00000100: 58d4 ce3d 2840 8fbd 8b5a 293d 0475 27bd
00000110: 8b41 333d ec9a 0cbe 7dba c03d 1f84 cf3d
00000120: df6a 063e c308 e33b 14ba b1bd c3a5 8abd
00000130: 5169 273d c18f 483d 5e20 983d 4f67 65bd
00000140: e17b 763d 86ab 803e 34dd b93c 533a 863e
00000150: 84f2 b1bd 65af 37bd 1c2c bf3d 890a f73d
00000160: 42c4 aa3d 0144 ae3b 4a68 b13d 5d69 31bb
00000170: c597 1fbd 2223 983d cff8 84bd dac2 233e
00000180: 5d35 973c fc65 00bd 08c4 c43d 1d3b ec3d
00000190: 3073 423d 8b2d cf3c 47ad 07bd 293d ac3c
000001a0: 315b 393d 2c78 d13d eab2 4c3d d1a6 0b3d
000001b0: 56d7 c13d eb97 9a3d b38e 51bd 62a8 333d
000001c0: 146e 083e 5c93 793d 40c2 e5bd 6599 09be
000001d0: 4328 8b3a 5dfc dcbd f755 a1bd df13 803c
000001e0: f209 e7bb ec4f 1d3e fc23 653e 75b4 373e
000001f0: 1ab0 01bd d66f 1fbd 0aec 093e c1c6 d2bd
00000200: 9e4a 083e 33ee 3f3e 37c3 aa3d b92e b1bd
00000210: a5b7 063e bb2b 863d ff57 32be 4a3e 00be
00000220: 715a 47bd 6f03 853c 932b 63bd cf67 d8bd
00000230: 3b8a d83c 0551 89bd 7b18 5fbd 8f67 483d
00000240: 0c5e 80bb c8ea d4bd 53aa bebd 5d5e 99be
00000250: bcfa 923d aaf9 07bd d8eb 8abd 365f 87bd
00000260: d3dd 94bc 521e f73c 1acd 0cbb a07b 99bd
00000270: 87be b83b 1d49 15be 7117 a7bb 4da3 43be
00000280: 5ca5 10be 0ce0 073c 33b1 3c3e ba59 1c3d
00000290: 847d 063e 7f2e bfbd d655 bebc c492 ffbd
000002a0: ec4d f7bd e163 adbd 8a2d f03d bd7a 303e
000002b0: 6513 863d 6118 cb3d 3516 8ebb 543d 9cbd
000002c0: 4c74 273d ce71 d43c 07c0 e03b 404d 823d
000002d0: 03de d6bd 75d6 36bc 95f4 d5bc caf4 ae3d
000002e0: 9a1e 61b9 fb71 86bd 8a99 6ebc c7ef 8cbc
000002f0: e739 223e 9ebf dd3d bd97 9eb9 1015 7cbc
00000300: 8e5a ba3d a92f d5bd 4024 ce3d 714d 813d
00000310: 6791 6b3e 4e7c 403e f083 e73d 9e7e 06bd
00000320: b423 b23d 0282 34be f2fd 94bd 3275 173b
00000330: b827 0f3e bd3f 95bb 0641 d2bd a9d0 ae3c
00000340: 1540 583c 24c0 183d 1c84 febd 7099 95bd
00000350: 8846 9a3d a4bd ed3d 5eb9 2f3e c0a7 5f3d
00000360: 13e1 e43d 47b2 bf3e 889a 603e 06a5 073e
00000370: 08d4 783e 503a 65bd 612b 31be e8a1 0abe
00000380: e111 b13c f954 7f3d 342d de3c d78b b43d
00000390: 6546 503c e64f 4e3e 1af9 c13d 4a1f 24bb
000003a0: 2e87 c5bc 4d17 413b d04c 5bbc ff4b 55bb
000003b0: 154a 8bbb 89a9 3dbd cb6b 68bd f63a 353c
000003c0: 1518 263e b6f3 563e 1d94 4fbd f568 04bd
000003d0: 8b14 febc ec0a 653c ef72 bbbb 5665 b63c
000003e0: 9e27 a83c 088e e93c 4133 0c3e 11a6 33bd
000003f0: 90c4 783d eb22 78ba d152 36bd 42a9 f93d
-0.08134444 0.04709922 -0.034728747 -0.13711302 0.05655628 0.36116803 0.14581554 -0.081765234
-0.062457103 -0.20001327 -0.0895179 -0.12847981 0.17191659 0.012142187 -0.13866147 0.09097022
0.049772684 -0.13848895 -0.039495625 0.04877429 0.030330569 0.05248799 -0.04895058 0.12882064
0.1691739 0.38925102 0.20976609 0.07485591 0.12909439 0.119160466 -0.09077661 -0.13282666
0.121015154 -0.055491492 -0.03300689 -0.06548272 -0.12571207 0.037922416 0.073731296 0.17402329
0.010684213 0.040529765 0.23281391 0.16938989 0.2389902 -0.078501575 -0.087498814 0.064818546
-0.14337075 -0.0033481554 -0.00088711194 0.14099091 0.061477188 0.059799984 0.043930516 0.08308779
-0.03781841 -0.03433104 -0.070727706 -0.14216498 -0.07208911 -0.12239147 -0.10735752 0.1512661
0.10099095 -0.06994659 0.041346114 -0.04088308 0.04376368 -0.13730973 0.0941057 0.10132622
0.13126706 0.0069285347 -0.0867807 -0.06769898 0.040871922 0.04896522 0.074280486 -0.056006726
0.060176734 0.25130862 0.022688486 0.26216373 -0.08688834 -0.044845004 0.09334585 0.12062556
0.083382145 0.0053181653 0.0866247 -0.0027070858 -0.038963098 0.07428576 -0.06492769 0.15992299
0.018458063 -0.03134726 0.096077025 0.115347125 0.047473133 0.025290271 -0.033124235 0.021025257
0.045252983 0.10227999 0.049975313 0.034094635 0.094649 0.07548507 -0.05116148 0.043861754
0.13323241 0.06093155 -0.11218691 -0.13437422 0.0010616857 -0.10790322 -0.078777246 0.015634475
-0.007050746 0.15362519 0.22377008 0.17939933 -0.031662084 -0.038925014 0.13468948 -0.102918155
0.13309714 0.1874321 0.083380155 -0.0865149 0.13155992 0.0655131 -0.1741638 -0.12523761
-0.048670236 0.016236989 -0.055461477 -0.10566675 0.0264331 -0.067049064 -0.054466706 0.048926886
-0.0039174613 -0.103963435 -0.093098305 -0.29954806 0.0717673 -0.033197083 -0.06783265 -0.06609957
-0.01817218 0.030165825 -0.0021484555 -0.07494283 0.005637947 -0.14578672 -0.00509923 -0.19105263
-0.1412558 0.008293163 0.18426971 0.038171507 0.13133818 -0.0933504 -0.02323429 -0.12479165
-0.12075409 -0.08466316 0.11727436 0.17234321 0.06546668 0.09916759 -0.0043361434 -0.07628885
0.040882394 0.025933173 0.006858829 0.063623905 -0.10491564 -0.011159529 -0.026117602 0.085427836
-0.00021469072 -0.06564709 -0.014562974 -0.017204178 0.158424 0.10827564 -0.00030249162 -0.015385881
0.09099303 -0.10409481 0.10065508 0.06313599 0.23004685 0.18797418 0.11304462 -0.032835595
0.08698216 -0.17627719 -0.07274999 0.0023110625 0.13979995 -0.0045547173 -0.102663085 0.021339731
0.013198872 0.037292615 -0.124275416 -0.073046565 0.07532984 0.11608437 0.17160556 0.05460334
0.11175742 0.37440702 0.21933949 0.13246545 0.24299634 -0.055963814 -0.17301704 -0.13538325
0.02161497 0.062336896 0.027121164 0.08815735 0.012712096 0.20147666 0.094713405 -0.0025043064
-0.02411231 0.0029463351 -0.013385013 -0.0032546518 -0.0042507746 -0.04630426 -0.056743424 0.011061421
0.16220124 0.20991406 -0.05067836 -0.032326657 -0.031015655 0.013979655 -0.0057204883 0.022265118
0.020526703 0.028510109 0.13691427 -0.043859545 0.06073433 -0.00094656524 -0.044512574 0.121904865

lstm.weight_hh_l0_reverse f4 [256, 64]
00000000: 158d 9e3d 36cb f1bd 9e35 d23d fbaa be3c
00000010: 3b47 f73d a492 adbd 397f 793d 223d 83bd
00000020: 5b09 01be 92a5 023e 9a6e bd3c 0291 74bd
00000030: b941 a7bb 2d73 83bc b3dc eebd 2ad3 cebc
00000040: 51a1 903c c6ca 9d3d bc65 053e 6874 483d
00000050: de1f d8bd a4f5 b2bc b613 cc3c ebcc 6b3d
00000060: bfe2 6b3d ae2b ae3d 9f0d b6bb 8b53 3e3c
00000070: 2e93 f0bd 3b6b 993d d99c f43d c1f3 263d
00000080: 8c8c 6c3c cfff ee3c 2f4b 8d3a d052 e2bd
00000090: 6d42 94bc 888d f9bd 35c0 63bd 1a41 97bd
000000a0: 9dd3 98bd b80e 3abb 0fd3 193c 3455 d03d
000000b0: bb72 c7bd a23c 013e d078 183e 82bd 61bd
000000c0: 6dcb debd e9cc d3bd 85a5 be3d aa06 64bd
000000d0: e2a2 e3b9 3a82 fd3d 7c57 e8bd 8436 8b3b
000000e0: 30f6 ef3d 1c7c abbd 551a f5bd d3a8 bd3d
000000f0: 9d11 5dbd 15d9 d6bd fb34 34bd 93e1 d4bd
00000100: b249 c73d b6f3 2cbe da9d 7cbc 046c c73c
00000110: c7df a63c b816 983d ed88 9abc d63b b6bd
00000120: db03 273e 33c0 2d3b 3ed0 c0bd 9948 173e
00000130: 8378 dd3c 6cbc dcbd 1dbc f0bd 183a f03d
00000140: 5f20 f6bd c360 063c 3dfe e9bb 45f7 553d
00000150: 5b8d 4abd 4969 b6bd def0 86be 4ea6 1c3e
00000160: 4cf4 1dbe 2417 fe3c ddd3 c7bd 704d b7be
00000170: b0db 3c3e 52a6 9dbb 190c d5bc e138 ffbc
00000180: 0599 83ba 79a3 cf3a 1fc8 96bd 11d5 f03b
00000190: 6e00 19be 156f 3fbe cd6f a0bd 0d6a 6bbc
000001a0: 3089 55be f002 27be a2a7 b7bd 232e 03be
000001b0: 8248 c23d 5ce9 5bbe f78f b13d 6845 f7bd
000001c0: 7a95 dc3b 7468 b2bd 5d55 01be f866 79bd
000001d0: 2ee6 c9bd 149d dd3c 4c93 763c 938f 33be
000001e0: ab74 cf3d 0a7a 93bc cacc d33c df61 093c
000001f0: 8554 62bd 862a b4bd 5739 993b f8f8 f6bd
00000200: 9e3f bdbd 54dd 8b3d 5661 8e3d 77cb 543c
00000210: 08a4 d93d c668 363d 8683 8fbd 5c47 a13c
00000220: d795 3bbe 12ef b2bc d9a5 babd 8337 0dbe
00000230: 0393 2ebd 8308 e0bd dac5 40bb 4e66 b0bd
00000240: 6ad3 9b3c 8c13 5dbd adc6 ce3d 0e63 d8bd
00000250: 3571 a7bd 85f3 3dbd 8b70 423d c249 aa3d
00000260: 94be f03d 2325 78bd 2383 5cbd 9544 0b3d
00000270: 8bb2 cd3d 9feb 10bb 264a aabd e171 b2bd
00000280: fa0b 43bd abd4 0b3c 7ff3 c5bd a0b3 05bd
00000290: bc5e ee3d 68b8 b6bd b9b3 9d3c a3da 8cbd
000002a0: 72c4 c1bc 07f8 cdbd ef11 11bd 0a10 9d3d
000002b0: 51b8 2c3d 93ae 123d a43f f8bc 7e6a bfbd
000002c0: f3b1 033e 3ea1 93bd d160 ce3c 9330 9ebd
000002d0: aa38 debd a633 e13c 0306 a6bd 4d70 0a3d
000002e0: 5d3b a23d 2f37 77bd f600 c03c bb98 c33d
000002f0: b8ab bd3d be00 babd 0e87 1bbd c86e ae3d
00000300: c930 3d3d 8692 263e 6958 10bb 146b 0e3d
00000310: a956 f93d 8361 59be 5350 c7bd c987 83bd
00000320: 56b8 04bc 4e28 bf3c c4ae 0dbd 8541 ebbd
00000330: 2c45 8c3d 8120 50bd 31a4 9a3d f2c1 953d
00000340: 7c02 693d bdba 01bd 67cd 1a38 824c cdbd
00000350: cd8f dfbd a2a9 753c 5f44 c7bd af72 cd3d
00000360: dc2b 163e f04d 06be c4db c0bd b1f9 91bb
00000370: 3752 cbbb c5da 54bd 32eb 89bd 749f aabc
00000380: 9e8f 8f3d 5500 debd 83a5 183d 1eb3 54bd
00000390: 1858 b13d 2204 8f3d ef02 993d 29a3 e6bc
000003a0: e3e6 61bd df46 083c 225a 48bc 4ccc 743d
000003b0: f62c c6bd 974b 0d3e 95df ca3d 1f91 873d
000003c0: 569b c03d 2803 58bd 2b0a 8ebc ada3 e4bc
000003d0: f7a1 a2ba 09f1 24bd 841a b33d f0f2 0abd
000003e0: cc89 aa3d 7250 6c3d 1659 ecbc a08c bf3d
000003f0: 2625 a4bd 078b 643d 0c98 923d ad0f b0bc
0.07741753 -0.118063375 0.10264133 0.02327489 0.12074133 -0.08475235 0.060912345 -0.064081445
-0.12601225 0.12758473 0.023124028 -0.059708603 -0.0051042703 -0.016046131 -0.11663189 -0.025247175
0.017655047 0.077046916 0.1302709 0.04893914 -0.10552953 -0.021845646 0.024911743 0.057568472
0.05758929 0.08504425 -0.005555823 0.011616598 -0.11746822 0.07491156 0.11943979 0.040759806
0.014437806 0.029174713 0.0010779853 -0.110509515 -0.01809808 -0.12185198 -0.055603225 -0.07385464
-0.07462237 -0.002839012 0.009388699 0.10172501 -0.0973868 0.12620786 0.14889836 -0.05511237
-0.10878644 -0.10341818 0.09308914 -0.055670418 -0.0004341817 0.12378354 -0.11344811 0.004248442
0.117168784 -0.08373281 -0.11967913 0.09260716 -0.053971875 -0.10490624 -0.04399584 -0.10394587
0.09730853 -0.16889843 -0.015418494 0.024343498 0.020370377 0.07426208 -0.01886412 -0.088981315
0.16310064 0.0026512265 -0.09414719 0.14773788 0.027035004 -0.10778126 -0.1175463 0.117298305
-0.12017893 0.008201781 -0.0071409033 0.052237768 -0.049451213 -0.089068 -0.26355642 0.15297815
-0.15425223 0.031016894 -0.097572066 -0.35801268 0.18443179 -0.0048110867 -0.026006745 -0.031155052
-0.001004011 0.0015841565 -0.07362389 0.0073496182 -0.1494157 -0.18694718 -0.07833824 -0.014368546
-0.20853114 -0.16309714 -0.0896752 -0.12810569 0.09486486 -0.21475738 0.08670037 -0.12073785
0.006731686 -0.08711329 -0.1263022 -0.060889214 -0.098583564 0.02705244 0.015049767 -0.17535238
0.101296745 -0.018002529 0.025854487 0.008385151 -0.055256385 -0.08797173 0.004676025 -0.12059206
-0.0924065 0.06829324 0.06952159 0.012987963 0.106269896 0.044533513 -0.07007508 0.019687347
-0.18318878 -0.021842513 -0.09113664 -0.13790707 -0.04262067 -0.109391235 -0.0029414804 -0.08613263
0.019021709 -0.05397372 0.10096488 -0.10565768 -0.081758894 -0.046374816 0.04747061 0.083148494
0.117551 -0.06058229 -0.053836 0.03400095 0.1004382 -0.0022113097 -0.08314924 -0.08713127
-0.047618844 0.008534591 -0.09665584 -0.032642007 0.11639163 -0.089218915 0.019250738 -0.06877639
-0.023653243 -0.10057073 -0.035417493 0.07669075 0.042167965 0.03581102 -0.030303784 -0.09346484
0.12860851 -0.07208489 0.02519265 -0.077241085 -0.108506516 0.027490448 -0.081066154 0.033798505
0.07921479 -0.06035536 0.023437958 0.095506154 0.092612684 -0.09082173 -0.037970595 0.085172236
0.046189103 0.16266832 -0.0022025353 0.034770086 0.12174732 -0.21228604 -0.097321175 -0.06422383
-0.00810059 0.023334648 -0.034590498 -0.11487106 0.06849131 -0.05081225 0.07550848 0.07312383
0.056887135 -0.031672228 3.6907757e-05 -0.10024358 -0.109161 0.014994057 -0.097298376 0.1003164
0.14665169 -0.13115668 -0.09416917 -0.0044548144 -0.006204869 -0.051966447 -0.06734313 -0.020827986
0.07009815 -0.10839907 0.03726722 -0.051928632 0.08659381 0.0698321 0.07471263 -0.028153973
-0.05515183 0.008317678 -0.012228521 0.059765145 -0.09676544 0.13798366 0.09905926 0.066194765
0.09404628 -0.052737385 -0.017338833 -0.027910078 -0.0012407888 -0.04026893 0.08745292 -0.03392309
0.08327064 0.057693906 -0.028851073 0.09352994 -0.08014898 0.05579665 0.07157907 -0.02149185

lstm.bias_ih_l0_reverse f4 [256]
00000000: 4730 97bd e813 293e 0884 96bd f30b 903c
00000010: b8f1 8c3c 97e6 423b aa62 d0bd e75f 6a3c
00000020: b5f1 993d f93c b3bd 17f0 e7bc 05be 51bd
00000030: 9c94 633d 54e9 ea3d 5d31 72bd f1d5 2e3c
00000040: 8015 2e3e 60f1 54bb 87bd c3bd 86bc 49bd
00000050: 6f26 a1bd 19fc cf3c d08c 1c3d aba8 793d
00000060: 9acf cbbb 1fa8 da3d a3ba ea3c 99fe 3d3e
00000070: 0ac3 b03d 1960 223d 9e18 de3d 14b7 92bd
00000080: 7735 8f3c dc27 b43d ed9e 9a3c 0006 62bb
00000090: b173 83bd ebec 98bd 8d8c a83d 9db6 d3bb
000000a0: fa47 0b3d b4d5 b23d ad5c 81bd 1565 983d
000000b0: e2a2 c6bb 62c4 943e 61ee f43d 6a90 d63d
000000c0: 4e0d 8ebc 8705 a23d d461 333d 8487 8f3d
000000d0: bd96 ddbd b7ae 1d3d d893 dbbd 40f5 ddbb
000000e0: 8347 393d 7c25 91bd 9bcf 743d ca71 923d
000000f0: 4f1b 273e e3e9 52bd f09a edbb bdc9 25bd
00000100: 26ed c0bb 2ae2 fcbc e9bc 9fbd c489 7fbc
00000110: b39b dabc 9712 66bc ffde f1bb eb6a e03d
00000120: 0614 df3d c578 803d 6015 203d ca64 153c
00000130: 39e8 093e caf4 abbd cadd bb3d efe4 2e3b
00000140: 796c 693d ad6d 973c be8a c03d 2bf2 093d
00000150: d5df b63d 3bb3 a93d aaf5 a1bc c571 cfbd
00000160: 2dd3 c83d fc7a 2f3c 624e f2bd 3e7a 2d3e
00000170: 6418 a7bd 401b d9bc 9f1f e6bc 0b12 673d
00000180: ca54 aabd de21 293d 5f22 8fbd 2c6f 3d3d
00000190: c33c 98bd a019 acbd 880a f23d 6a02 95bd
000001a0: aa41 a0bd 3039 093e 1495 9d3d 7068 c23d
000001b0: 2b62 963d 25d4 293e 0c98 ddbc 8932 7cbd
000001c0: 8f17 30bd 52a0 d2bd f1aa cf3d 2b33 903d
000001d0: 451f 163d f560 a13c af00 0bbd fb9a afbd
000001e0: 4bd1 e2bd 46df ca3d 0471 6d3c 6ef2 d1bc
000001f0: 0101 48bd 5245 90bd b1c3 f33c 480c df3c
00000200: 2c75 c03d 10ff ba3b 4917 21bd f322 e73d
00000210: 15e9 68bd bcff ca3c 5d15 ea3d c7df 293d
00000220: 4de3 e3bd d6f0 cb3d d0d5 af3c 570a ae3d
00000230: e830 a03c 58de c2bb 22bf 993d f55d bbbd
00000240: 7a8c ef3d c27f de3d a29d bf3d 620e aa3d
00000250: b09d 883d 3266 5fbd 5985 8e3c 58fa 3cbd
00000260: 3e7e 623c 8672 4ebc c80b 88bd 73b8 40bc
00000270: 97e7 bd3d bfb7 083c 3727 86bd a4d3 b9bd
00000280: 8269 403d 5543 2ebd 58dd 8abd 24bc 463a
00000290: d06e 59bc 76b0 913d 4c42 b7bd d739 f63c
000002a0: 1a98 31bc ce07 cbbd 6820 123d 92df 25bd
000002b0: 1471 853d 8eb3 993d 2bb8 833b 64a3 e3bd
000002c0: 6ef7 63bd 8eb0 43bd 804f ebbd 85b3 a23d
000002d0: 0930 dabd 320e a13d 4200 8f3c 3fc1 b9bd
000002e0: 5511 5e3c 7e7b 143d 2805 973d dd23 183d
000002f0: 06b6 8e3d d412 cdbd 127e ab3d 2d2c a7bd
00000300: b4d6 71bd 6cff 493e c67c 19bc b21e 573c
00000310: acac be3d 4c17 013c 06fe 6b3d 57fe 9d3d
00000320: 3c2b e83d aa15 d43d 097f 053d c951 8fbd
00000330: ff37 0d3b 477b 1b3d f72d 083d 0b64 a6bc
00000340: 9dee b73d af5d 4dbd 4657 a43d b848 d93a
00000350: 3a31 dc3c bd78 033e 8e9b 213d d679 76bd
00000360: 8a95 c0bc 8ed0 4d3d d437 ab3c 9dc6 3cbc
00000370: 5ab8 933d aab7 cbbd 0459 46bd 8244 1f3d
00000380: 0371 8b3d 3abd 073e ae39 43bd a1b6 bcbd
00000390: ed98 293c 3c45 563d fbf8 1c3d 8ff4 1c3d
000003a0: 9730 093e 2138 acbd 43f5 87bd 5244 993d
000003b0: e112 4cbd a0b9 1e3e b58b fa3c ffa3 ebbd
000003c0: 64ec b03d ef06 823d a903 873b a4cd 97bd
000003d0: a06b 8ebd 91ae 1ebd d98c 963d 9093 cfbd
000003e0: 19de 883d 49d0 3cbd 8a65 5bbd b33d 99bb
000003f0: 7d6c 143c 9f38 393d 9f9f ea3c d2eb b03d
-0.07382255 0.165115 -0.07349402 0.017583823 0.017205104 0.0029739493 -0.10175069 0.014305091
0.07516805 -0.08751864 -0.028312726 -0.051206607 0.055561647 0.11470285 -0.059129108 0.010671125
0.17000389 -0.0032492504 -0.09557634 -0.049252056 -0.07868659 0.025388764 0.038220227 0.06095187
-0.0062198164 0.10676598 0.028653448 0.18554153 0.08630951 0.039642427 0.10844539 -0.07163826
0.017481549 0.08796665 0.01887461 -0.003448844 -0.06418551 -0.074670635 0.08229933 -0.006460978
0.03400419 0.08732167 -0.063165046 0.07441155 -0.0060618976 0.29056078 0.1195953 0.104767635
-0.017340329 0.079112105 0.043794468 0.070082694 -0.10819767 0.0384967 -0.10721558 -0.006773621
0.045234215 -0.07087228 0.0597683 0.0715061 0.16319011 -0.051492583 -0.007251136 -0.040475596
-0.0058876453 -0.030869562 -0.07799704 -0.015596811 -0.026685571 -0.014042518 -0.0073813195 0.10957893
0.10892491 0.06273035 0.039082885 0.009118268 0.13467492 -0.08396299 0.09173162 0.0026686748
0.056988213 0.018484915 0.09401463 0.033678215 0.08929411 0.082861386 -0.019770462 -0.10129122
0.098059036 0.010710474 -0.118313566 0.16941163 -0.08158949 -0.026502252 -0.02809125 0.05641369
-0.083169535 0.041292064 -0.06988978 0.0462486 -0.074334644 -0.08403325 0.11818415 -0.07275851
-0.078250244 0.13400722 0.0769445 0.09492576 0.07342943 0.16584833 -0.02705004 -0.06157163
-0.042991217 -0.10284485 0.10140026 0.070410095 0.036650915 0.019699553 -0.0339362 -0.08574482
-0.11075076 0.09905867 0.014492277 -0.025628295 -0.048829082 -0.07044472 0.029756399 0.027227536
0.09397349 0.0057066754 -0.039328847 0.11285963 -0.05686291 0.024780147 0.11429856 0.041473176
-0.111273386 0.09958045 0.021464258 0.08498066 0.01955457 -0.0059469156 0.07507159 -0.0914878
0.11696716 0.108642116 0.09356238 0.083035246 0.066707015 -0.05454082 0.01739757 -0.046137184
0.013824044 -0.012600547 -0.06642872 -0.011762726 0.09272688 0.00834459 -0.065504484 -0.0907357
0.04697562 -0.04254468 -0.06780499 0.0007581136 -0.013271049 0.071137354 -0.08948192 0.030056877
-0.0108394865 -0.09913598 0.035675436 -0.040496416 0.065157086 0.075049505 0.0040197573 -0.11115149
-0.05565589 -0.047775798 -0.11489773 0.07944397 -0.10653693 0.07864036 0.017456178 -0.09070062
0.013553937 0.036250584 0.0737403 0.037143577 0.06968312 -0.10013357 0.083736554 -0.08162723
-0.059042647 0.19726342 -0.009368127 0.013129877 0.09310278 0.00787909 0.057615303 0.07714527
0.11336371 0.103556946 0.032591853 -0.06998021 0.002154827 0.037959363 0.03324696 -0.020311376
0.08981059 -0.05013817 0.080244586 0.0016577458 0.026878942 0.12839027 0.03945499 -0.060174786
-0.023508806 0.05024772 0.020900644 -0.0115219625 0.07212897 -0.099471405 -0.048424736 0.038883694
0.06808665 0.13255778 -0.04766243 -0.09214521 0.010351402 0.05231212 0.038323384 0.038319167
0.13397442 -0.08409143 -0.06638577 0.07483734 -0.04982269 0.15500498 0.030584196 -0.11505889
0.08638838 0.06348979 0.0041203094 -0.0741227 -0.069541216 -0.0387407 0.07351083 -0.10135567
0.06682987 -0.046097074 -0.053563632 -0.0046765446 0.009059069 0.045220014 0.028640566 0.08638729
