environmental_predictor/models/lstm_Kyiv_pm10.pth (torch, 631873 bytes, 27 tensors)

lstm.weight_ih_l0 f4 [256, 3]
0	0xbdc5edfc	-0.096645325
1	0xbe77f92d	-0.24216147
2	0x3df7663d	0.12080047
3	0xbd58901e	-0.052871816
4	0xbd08cf9e	-0.033401124
5	0x3dde3e47	0.10851722
6	0x3d7652c9	0.060137544
7	0xbd9e489c	-0.07728693
8	0xbe0c1a95	-0.13682015
9	0x3dd1a644	0.10236791
10	0xbd99a77d	-0.07502649
11	0xbdb5fa0a	-0.08885582
12	0xbe26f494	-0.16304237
13	0x3c46611c	0.012108114
14	0xbd2f2e8b	-0.042768996
15	0xbeb11d18	-0.3459251
16	0xbe240256	-0.16016516
17	0xbe0ec82f	-0.13943551
18	0xbec2f3a5	-0.3807651
19	0xbe7a72ba	-0.24457827
20	0xbd8b77f2	-0.06809987
21	0xbdb029a3	-0.086016916
22	0x3cfec8a9	0.031101542
23	0xbd32e026	-0.043670796
24	0xbe1dcdfe	-0.15410611
25	0xbdb43e96	-0.08801
26	0x3d2021b4	0.03909464
27	0xbd178920	-0.036996007
28	0xbe2b41dc	-0.16724342
29	0x3db60d3b	0.08889242
30	0x3dacac61	0.08431316
31	0x3daa7ff5	0.08325187
32	0xbdcd3b57	-0.10021084
33	0xbd4f8d40	-0.050671816
34	0xbdb2255b	-0.08698531
35	0xbbc042b8	-0.0058673285
36	0x3e109feb	0.14123504
37	0xbd8f7d38	-0.070063055
38	0x3daf28fc	0.08552739
39	0xbcbfe226	-0.023423266
40	0x3e0275ec	0.12740296
41	0xbc7a80d9	-0.015289509
42	0x3e18e3f1	0.14930703
43	0xbcb51180	-0.022103071
44	0x3b3089f4	0.0026937695
45	0x3dad51ab	0.084628426
46	0x3d734497	0.059391584
47	0xbdd8e42d	-0.10590396
48	0xbcc9d494	-0.024637498
49	0x3d5dbaa8	0.054133087
50	0x3d3f2202	0.04666329
51	0xbbd1e210	-0.0064051226
52	0x3db53518	0.088480175
53	0x3e4e2dda	0.20134678
54	0xbc3075a3	-0.010770234
55	0x3d9c870f	0.07642948
56	0xbdeb4f7d	-0.114897706
57	0x3cd3abcf	0.02583876
58	0xbda057b8	-0.07829231
59	0xbd6efa7b	-0.058344346
60	0xbe48e2bb	-0.19617741
61	0xbdbc0bbc	-0.09181926
62	0xba2852ef	-0.00064210495
63	0xbd4ea944	-0.050454393
64	0xbd1f60f9	-0.03891084
65	0xbd4af7b6	-0.04955264
66	0xbdb78bcf	-0.08962213
67	0x3d24c008	0.040222198
68	0xbd9b1c20	-0.07573724
69	0x3d0f4cc3	0.034985315
70	0xbac6bcf4	-0.0015162514
71	0xbd259a7c	-0.04043053
72	0x3dbe93ca	0.09305532
73	0x3d9d5b23	0.076833986
74	0xbdf6d1ec	-0.12051758
75	0xbd3887a2	-0.045051225
76	0xbd294e5c	-0.041334495
77	0x3d98c267	0.07458954
78	0xbe643f11	-0.22289683
79	0xbcd9e4ea	-0.026598413
80	0xbd6fe328	-0.058566242
81	0xbd1fc3dc	-0.039005145
82	0xbc6ea394	-0.014565367
83	0x3def7a39	0.11693234
84	0xbeb9a7ca	-0.36260825
85	0xbea13a0f	-0.31489608
86	0xbd689354	-0.056781128
87	0x3dff3c07	0.12462621
88	0x3d4ffc37	0.05077764
89	0x3e062d12	0.1310313
90	0x3cdce76f	0.026965825
91	0x3da46a99	0.080281444
92	0x3db6947b	0.08915039
93	0xbe03e08d	-0.12878628
94	0xbdc85883	-0.09782507
95	0xbd8ebd44	-0.06969693
96	0xbd9f1823	-0.077682756
97	0xbc88db6d	-0.016706193
98	0x3cdfb90c	0.027309917
99	0x3d84ba04	0.06480792
100	0x3d33f49a	0.043934442
101	0x3ba29279	0.0049613086
102	0xbd69acd3	-0.057049584
103	0xbc7879ba	-0.015165741
104	0xbd99655b	-0.07490035
105	0x3d32b074	0.04362531
106	0x3e0724cd	0.13197632
107	0xbcc90679	-0.02453922
108	0xbe1d0536	-0.15334019
109	0xbc04e839	-0.008112007
110	0xbdcfabb9	-0.10140175
111	0xbe882c4e	-0.26596302
112	0xbdae04cc	-0.08497009
113	0x3ddc439e	0.107550845
114	0xbdd1efec	-0.102508396
115	0xbdb4eb25	-0.08833913
116	0x3ce45ad3	0.02787534
117	0xbddc5264	-0.10757902
118	0xbd53b70a	-0.05168823
119	0x3d3b88e4	0.045784846
120	0xbd8fa293	-0.070134304
121	0x3d433317	0.047656145
122	0xbd3b6fd6	-0.045760952
123	0x3dfa1b46	0.12212233
124	0xbb9a7d0b	-0.0047146133
125	0x3c944add	0.018102104
126	0xbe340965	-0.17581709
127	0xbc4cfb95	-0.012511154
128	0x3d37c98c	0.044869944
129	0xbe251233	-0.16120224
130	0xbdd8ddda	-0.1058919
131	0xbe095c1c	-0.13414043
132	0xbe2a7e65	-0.16649778
133	0xbdf764d2	-0.12079777
134	0x3dbd7690	0.092511296
135	0x3ce71e8d	0.02821281
136	0x3ce7882e	0.028263178
137	0x3d991a49	0.074757166
138	0x3c87db52	0.016584072
139	0x3d81aa3f	0.063313
140	0xbd8a88b1	-0.06764353
141	0xbe2cb81c	-0.16867107
142	0xbcf80e59	-0.030280279
143	0xbd933641	-0.071880825
144	0x3c853137	0.016258819
145	0x3da5ad12	0.08089651
146	0xbd1a718d	-0.037705947
147	0x3dc4b3a4	0.09604576
148	0x3d76333f	0.060107466
149	0xbac2e20e	-0.0014868395
150	0x3d5f6100	0.054535866
151	0xbda99a78	-0.08281416
152	0xbe0403b7	-0.12892042
153	0xbe942374	-0.289333
154	0xbe7216ee	-0.2364156
155	0xbdd10c6d	-0.10207448
156	0xbd5f2e86	-0.054487728
157	0xbc1ea36a	-0.009682516
158	0x3d6fd49c	0.05855237
159	0x3dad4665	0.08460692
160	0xbd8ea9ca	-0.069659784
161	0x3cf7e000	0.030258179
162	0x3d97ec79	0.074181505
163	0xbcbbf502	-0.022943977
164	0x3def254b	0.11677035
165	0xbbc6a1bb	-0.0060617602
166	0xbd22ab20	-0.03971398
167	0x3df8eaeb	0.12154182
168	0x3c56dcf5	0.013114204
169	0xbc8c1ca7	-0.017103506
170	0x3db2ea4f	0.08736097
171	0x3d02f858	0.03197512
172	0xbc92bd09	-0.017912405
173	0xbd30bcd8	-0.043148845
174	0xbcbdbbef	-0.023160903
175	0xbc897e88	-0.016783968
176	0xbd833000	-0.0640564
177	0xbceb8227	-0.028748585
178	0x3db116eb	0.086469494
179	0x3d6ac4bf	0.057316538
180	0xbd1101b7	-0.035402026
181	0x3db4a9ac	0.08821425
182	0xbcaf1f4c	-0.021377228
183	0xbe8700ed	-0.26367894
184	0xbe9b4807	-0.3032839
185	0xbccb1854	-0.024791874
186	0x3d76d25e	0.060259216
187	0x3e24c517	0.16090809
188	0x3d81aa55	0.063313164
189	0xbd1d68bc	-0.03842996
190	0xbe181f2a	-0.14855638
191	0x3e629ec2	0.22130874
192	0xbe219026	-0.15777645
193	0xbe8f1891	-0.2794843
194	0xbdef5e54	-0.116879135
195	0xbe04b7dd	-0.12960763
196	0xbd3ce471	-0.046116296
197	0x3d5987fe	0.053108208
198	0x3dd835dd	0.105571486
199	0x3db7d4c8	0.08976132
200	0x3d0b5d64	0.03402461
201	0x3dd6f598	0.10496062
202	0x3d4a6958	0.04941687
203	0xbdcf66f5	-0.10127059
204	0xbd8fe62e	-0.07026325
205	0x3d12c55f	0.03583276
206	0xbd22d042	-0.03974939
207	0xbe96159b	-0.2931336
208	0xbea1d256	-0.31605786
209	0xbd936a74	-0.07198039
210	0xbeb0a192	-0.34498268
211	0xbe54e09e	-0.2078881
212	0x3d925e38	0.07146877
213	0xbcf1aeda	-0.029502321
214	0xbc392847	-0.011301107
215	0xbdf37472	-0.118874446
216	0xbe12e6a8	-0.14345801
217	0xbe94bd87	-0.29050848
218	0x3cbc6433	0.022996997
219	0xbe0022c4	-0.12513262
220	0xbe1017ab	-0.14071529
221	0xbd453d2f	-0.048154052
222	0x3de20c28	0.11037475
223	0x3c7827a7	0.015146173
224	0xbdf46ab0	-0.119344115
225	0xbdba8999	-0.09108276
226	0xbddcca93	-0.107808255
227	0xbdd30c8b	-0.10305127
228	0xbc9b1175	-0.018929223
229	0x3c8d3046	0.017234933
230	0xbda9ec98	-0.0829708
231	0x3cbb37f7	0.022853835
232	0x3cb19319	0.021676587
233	0x3d174f5b	0.036940914
234	0xbd19c412	-0.037540503
235	0x3ce9d19d	0.028542334
236	0xbc6265a1	-0.0138181755
237	0x3c5f2646	0.013619965
238	0x3d3a53f4	0.04549022
239	0x3c56a26e	0.01310025
240	0xbc131ece	-0.008979512
241	0x3cd2f0c4	0.025749572
242	0x3d96c300	0.07361412
243	0x3ca8ac72	0.02059004
244	0x3c89395f	0.01675099
245	0xbc946246	-0.018113267
246	0x3da60d17	0.081079654
247	0x3dbb2f2a	0.09139855
248	0x3d97f6a1	0.074200876
249	0xbe0351a7	-0.12824117
250	0xbe2925ac	-0.16518277
251	0x3d95b95c	0.07310745
252	0xbe154545	-0.14577205
253	0xbe4c5b9d	-0.19956823
254	0x3c562b41	0.013071836
255	0xbda18c7a	-0.07888122

lstm.weight_hh_l0 f4 [256, 64]
0	0xbd8ce26a	-0.068791226
1	0x3e244071	0.16040207
2	0xbdb04e98	-0.086087406
3	0x3db34b8d	0.087546445
4	0x3d06d476	0.032917462
5	0x3dbd26fa	0.0923595
6	0xbe00f602	-0.12593845
7	0x3e199f68	0.15002215
8	0x3b1e8703	0.002418936
9	0x3d00c31a	0.031436063
10	0xbe16f167	-0.14740525
11	0xbac0e52c	-0.0014716736
12	0xbdba76bd	-0.09104679
13	0xbd9206c5	-0.071301974
14	0x3e5aef4d	0.21380349
15	0xbd9c7b3b	-0.07640692
16	0xbd8c957d	-0.0686445
17	0xbd03644c	-0.032078072
18	0xbdfefd73	-0.12450685
19	0xbe36b509	-0.17842497
20	0xbdb84b86	-0.0899878
21	0xbcc2b2b7	-0.023766859
22	0x3d0e30fb	0.03471468
23	0xbcca64c8	-0.02470626
24	0x3e098af3	0.13431911
25	0xbb6dac56	-0.003626605
26	0x3e5f73ea	0.21821561
27	0xbe1035ba	-0.14082995
28	0x3e578eb5	0.21050532
29	0x3dbfd5d5	0.09366957
30	0xbe105db2	-0.14098242
31	0x38eb5b46	0.00011222674
32	0x3d90faef	0.07079112
33	0x3df26acc	0.11836776
34	0x3d22f737	0.039786544
35	0x3d0efd94	0.0349098
36	0x3e319d98	0.17345273
37	0xbdcc0bcd	-0.09963188
38	0x3d36f43f	0.044666525
39	0xbe0229d7	-0.12711273
40	0xbd8bde29	-0.06829483
41	0xbd9c843d	-0.0764241
42	0xbcd76772	-0.026294444
43	0x3d52149c	0.051289186
44	0x3e5ad7f8	0.21371448
45	0xbd8ebc6a	-0.06969531
46	0x3e382afe	0.1798515
47	0xbd055107	-0.032547977
48	0xbe24df6c	-0.16100854
49	0x3d9c6ebb	0.07638308
50	0x3dbaf4b7	0.09128707
51	0x3d2a7f63	0.04162539
52	0x3ce56faa	0.028007347
53	0xbd6c88d2	-0.05774767
54	0xbcf1d991	-0.029522689
55	0xbdfa96ce	-0.12235795
56	0xbda870db	-0.082246505
57	0xbd0ac317	-0.03387746
58	0x3ddd2f60	0.10800052
59	0x3db95a23	0.09050395
60	0x3d3612d0	0.044451535
61	0x3e779634	0.24178392
62	0x3d3bcf32	0.045851894
63	0x3c2e151b	0.010625149
64	0x3d2f009f	0.0427252
65	0x3c97c105	0.018524656
66	0xbc9a06aa	-0.018802006
67	0x3db0a8c3	0.08625939
68	0x3db572d9	0.08859796
69	0x3bf755bc	0.007548062
70	0xbd088a78	-0.03333518
71	0xbd0219c0	-0.03176284
72	0xbca84620	-0.02054125
73	0x3dc78636	0.097423956
74	0x3d8e3cb9	0.06945176
75	0xbcd5ad32	-0.026083563
76	0xbd8a173a	-0.06742711
77	0xbdd089f7	-0.10182565
78	0xbc3e5988	-0.011618026
79	0x3ad5e524	0.00163189
80	0x3d2d935f	0.042376872
81	0xbcbe2345	-0.023210177
82	0xbdc39133	-0.09549179
83	0xbc1f8c8c	-0.009738099
84	0x3d863280	0.06552601
85	0x3d41155e	0.047139518
86	0x3d61c6b6	0.055121146
87	0x3dcda7ba	0.10041757
88	0xbddd1f23	-0.107969545
89	0x3dbdf26b	0.09274753
90	0x3d9e95b2	0.07743396
91	0xbd831c9c	-0.06401941
92	0x3d951146	0.07278685
93	0xbdec3884	-0.11534217
94	0xbd5bc837	-0.053657737
95	0x3df52c48	0.119713366
96	0x3cfaca18	0.030613944
97	0xbcd1de96	-0.025618833
98	0x3c965288	0.0183499
99	0x3d87be3f	0.066280834
100	0xbb174c7b	-0.0023086357
101	0x3cee9ad1	0.029126557
102	0x3db0baef	0.08629405
103	0xbdf60233	-0.12012138
104	0x3dc76001	0.09735108
105	0xbdc54756	-0.09632747
106	0x3dd0548b	0.10172375
107	0xbc9e80c6	-0.019348513
108	0x3dc3ea6c	0.09566197
109	0x3b7e4193	0.003879641
110	0x3ca7df83	0.02049232
111	0x3c470efe	0.0121495705
112	0x3e0749a6	0.13211688
113	0xbcd20e13	-0.025641477
114	0xbdd5d51b	-0.10441037
115	0xbdc09c9d	-0.094048716
116	0xbc998b59	-0.018743204
117	0x3df17d0c	0.11791429
118	0xbd22df4d	-0.039763737
119	0xbd06aad0	-0.032877743
120	0x3c3ef09c	0.011654045
121	0xbc0ead58	-0.008708321
122	0x3e01c01d	0.12670942
123	0xbda0e856	-0.078568146
124	0x3d8868ce	0.06660615
125	0x3c3a7fd0	0.011383012
126	0xbdc577c9	-0.09641988
127	0xbc89bc50	-0.016813427
128	0x3d7eae4e	0.06217795
129	0xbc049f68	-0.008094646
130	0xbd38c3bb	-0.045108538
131	0x3d36d3e0	0.044635653
132	0xbd50bbed	-0.05096047
133	0xbc6b6a26	-0.0143685695
134	0x3d62f1e7	0.055406477
135	0x3cb9a208	0.02266027
136	0xbd1d1789	-0.038352523
137	0x3e11e6d0	0.14248204
138	0x3d81a498	0.06330222
139	0x3cd0008f	0.025390891
140	0xbd35ed99	-0.044416044
141	0xbb3c532b	-0.0028736095
142	0x3df06347	0.11737686
143	0x3e0a346c	0.1349656
144	0xbd8352d2	-0.06412281
145	0xbcd9b53f	-0.026575683
146	0x3d4b3184	0.04960777
147	0x3b84695e	0.004040881
148	0xbb9d2d56	-0.004796664
149	0x3c988434	0.018617727
150	0xbe066dc8	-0.13127816
151	0xbda351da	-0.07974596
152	0xbd2c1dd3	-0.04202063
153	0xbd379f9b	-0.044829946
154	0xbcee9d7c	-0.029127829
155	0xbd9ccac1	-0.0765586
156	0x3d44306b	0.047897737
157	0x3d2556df	0.04036605
158	0x3d426dee	0.04746812
159	0x3d2a15ca	0.041524686
160	0x3d988b24	0.07448414
161	0xbd122b53	-0.03568585
162	0x3d922526	0.07135992
163	0x3d8b1963	0.067919515
164	0xbdf13804	-0.11778262
165	0x3da80225	0.08203534
166	0x3da5cda3	0.08095863
167	0x3d83ff31	0.06445158
168	0x3d86a801	0.06575013
169	0x3dd6eb7e	0.10494135
170	0xbda06bc2	-0.07833053
171	0xbc33fa83	-0.01098502
172	0xbcec216b	-0.028824529
173	0x3d4da719	0.050208185
174	0xbdcbb606	-0.099468276
175	0xbdac3960	-0.08409381
176	0xbdc53622	-0.09629466
177	0x3cf173f5	0.029474238
178	0x3d73a83c	0.059486613
179	0x3dc4ede6	0.09615688
180	0x3d8effc1	0.06982375
181	0xbcb9b282	-0.022668127
182	0xbd7a81ed	-0.061159063
183	0xbd4196b9	-0.04726288
184	0xbbd04913	-0.0063563674
185	0xbdc82481	-0.097725876
186	0x3cf1f6e2	0.029536668
187	0x3e0b40b2	0.13598898
188	0x3dd4dc6e	0.10393606
189	0x3df95a38	0.12175411
190	0xbdf87d85	-0.12133316
191	0x3d107fe0	0.0352782
192	0xbd6ed1f3	-0.058305692
193	0x3c02fe97	0.007995269
194	0xbca89c59	-0.020582365
195	0x3cc6d6f1	0.024272414
196	0x3d97109e	0.07376216
197	0x3e250daf	0.16118501
198	0xbdd0380b	-0.10166939
199	0x3df220d3	0.11822667
200	0xbcca15fc	-0.024668686
201	0xbc10f1f4	-0.008846749
202	0x3d8a23a3	0.067450784
203	0x3db6eaec	0.089315265
204	0xbe0787a2	-0.13235334
205	0xbdb21b31	-0.086965926
206	0xbdcb219b	-0.09918519
207	0xbc32d7bd	-0.010915694
208	0x3d119e24	0.035551205
209	0xbcd73385	-0.026269684
210	0x3daab7fc	0.083358735
211	0x3d226b12	0.03965289
212	0xbdb4d22b	-0.08829149
213	0xbd8a2b06	-0.06746487
214	0x3c2d1205	0.010563378
215	0x3d31196c	0.043237135
216	0x3da9f453	0.08298554
217	0xbd802b11	-0.06258214
218	0x3db72a7e	0.089436516
219	0x3e072905	0.13199241
220	0x3e338d58	0.17534387
221	0x3daaad89	0.083338805
222	0x3d04c61c	0.032415494
223	0xbd6b0126	-0.057374142
224	0xbd40d921	-0.04708207
225	0x3d99cd50	0.075098634
226	0xbdfd3053	-0.12362733
227	0x3d55027c	0.052004322
228	0x3d1c6d19	0.03818998
229	0xbe2cb5df	-0.16866253
230	0xbd105d56	-0.035245262
231	0x3debfd39	0.11522908
232	0x3d06694d	0.032815266
233	0x3dbc0d26	0.09182195
234	0x3d9e1823	0.077194475
235	0x3d63f553	0.05565388
236	0xbd9d9438	-0.07694286
237	0x3dee4932	0.11635055
238	0x3dcc0bda	0.09963198
239	0xbd115bcb	-0.03548793
240	0x3da79bb0	0.08183992
241	0xbdbca01f	-0.09210228
242	0xbb9361c9	-0.004497741
243	0x3d9e2dd3	0.07723584
244	0xbd8ab691	-0.06773103
245	0xbd7fded8	-0.06246838
246	0x3de458db	0.1114976
247	0x3d9d9229	0.076938935
248	0x3d1bb991	0.038018767
249	0x3c8f1aaa	0.01746877
250	0x3def7857	0.11692875
251	0xbdc56170	-0.09637725
252	0x3de4f34b	0.11179217
253	0x3e3fd398	0.1873306
254	0xbd6e7a39	-0.05822203
255	0x3d6c71d1	0.05772573

lstm.bias_ih_l0 f4 [256]
0	0xbc8d0b0e	-0.017217185
1	0xbd4e79e5	-0.050409216
2	0xbdcfff11	-0.10156072
3	0x3ccbb51f	0.024866639
4	0x3d2848d7	0.04108509
5	0xbda4000b	-0.08007821
6	0x3e14a776	0.14517006
7	0x3d86b64d	0.0657774
8	0x3e41994c	0.18906134
9	0x3e1fd3c5	0.15608127
10	0xbdfdaf92	-0.12387003
11	0xbdea9491	-0.11454118
12	0x3dc04db1	0.093898185
13	0xbd63698e	-0.055520587
14	0xbe05f3ef	-0.13081335
15	0xbd875437	-0.066078596
16	0xbd788ddc	-0.060682163
17	0xbc9b0b3e	-0.01892626
18	0x3ca44dae	0.020056572
19	0xbda96379	-0.08270926
20	0x3c9c8a89	0.019109027
21	0x3df55e5e	0.1198089
22	0xbd1bc5dc	-0.03803049
23	0x3df2cccc	0.11855468
24	0xbdaf677f	-0.08564662
25	0xbc579ca5	-0.013159906
26	0x3b9a6083	0.004711212
27	0xbd7096da	-0.058737613
28	0x3e1486f9	0.14504613
29	0xbd4ba94a	-0.049721994
30	0xbd16a22d	-0.036775757
31	0x3d3a5308	0.04548934
32	0x3d78f528	0.060780674
33	0xbe0642fa	-0.13111487
34	0xbb6e92ee	-0.0036403495
35	0xbc823ed8	-0.015899107
36	0x3d8edf28	0.069761574
37	0x3e131b3f	0.14365862
38	0x3d0a6ed4	0.0337971
39	0x3d57a428	0.052646786
40	0x3d8f8930	0.07008588
41	0x3dfd2ba1	0.12361837
42	0x3d048ac1	0.03235889
43	0x3ca769a1	0.02043611
44	0xbd6cb7ad	-0.057792354
45	0x3c0d609f	0.008628993
46	0xbdd8f3ef	-0.10593402
47	0xbc747ded	-0.014922601
48	0x3d57d668	0.052694708
49	0xbd6fb068	-0.058517843
50	0x3d8cb59e	0.06870578
51	0x3d65c8cb	0.056099694
52	0x3dbaeab7	0.091267996
53	0x3d3249a5	0.043527264
54	0xbd07b7c2	-0.03313423
55	0xbd56a6dc	-0.052405223
56	0x3d488e13	0.048963618
57	0x3da8ced0	0.08242571
58	0xbd2d0570	-0.042241514
59	0x3de293c6	0.11063342
60	0x3d93e304	0.07221034
61	0x3e67b3ad	0.22627135
62	0x3d9de308	0.077093184
63	0x3d96b8a0	0.07359433
64	0x3da4a34b	0.08038958
65	0x3c48bab5	0.012251546
66	0x3dc01798	0.093795
67	0x3d809113	0.06277671
68	0xbd3f8afd	-0.04676341
69	0x3c9550dd	0.018227035
70	0x3e158a00	0.14603424
71	0xbc45341c	-0.01203635
72	0xbd1b50d7	-0.03791889
73	0xbcc7277b	-0.024310818
74	0x3d53700e	0.051620536
75	0xbd8a4bc5	-0.06752733
76	0x3e0d4f47	0.13799773
77	0x3cdd513b	0.027016273
78	0xbd89e50b	-0.067331396
79	0x3de626ea	0.11237891
80	0xbda835cc	-0.08213386
81	0xbd85772f	-0.06516873
82	0x3c696df1	0.0142474035
83	0x3da8c240	0.08240175
84	0x3d621050	0.055191338
85	0x3de4e66d	0.11176763
86	0x3db47c57	0.088127784
87	0x3e03eaa8	0.12882483
88	0x3da0d3eb	0.0785292
89	0x3d84e38d	0.06488714
90	0x3e16a3b0	0.1471088
91	0xbda2ea1e	-0.079548106
92	0xbd9367f8	-0.07197565
93	0x3d65cb50	0.056102097
94	0x3cb517e2	0.022106115
95	0xbdcaa84a	-0.0989538
96	0x3daa1109	0.083040304
97	0x3d1cd6c7	0.038290765
98	0x3ddc1a8f	0.10747253
99	0xbd82e03e	-0.06390427
100	0xbe0155c8	-0.12630379
101	0x3b9901ab	0.0046693883
102	0xbc800015	-0.01562504
103	0x3d41f598	0.047353357
104	0x3d6dc5ef	0.058050092
105	0xbd86559c	-0.065592974
106	0xbdb12858	-0.08650273
107	0xbc031731	-0.008001135
108	0x3db31e3b	0.087460004
109	0x3da17904	0.0788441
110	0x3c3952c8	0.0113112405
111	0xbdf490b1	-0.1194166
112	0x3df401be	0.11914395
113	0x3d6a074c	0.057135865
114	0xbdac45ca	-0.08411749
115	0xbd613809	-0.05498508
116	0x3dbcdff2	0.09222402
117	0x3db934a8	0.090432465
118	0xbe01ed4c	-0.12688178
119	0xbd26fa37	-0.040765967
120	0xbdad81e6	-0.08472042
121	0xbdc919a1	-0.098193415
122	0x3c75bf1c	0.014999177
123	0x3da6ec76	0.0815057
124	0x3b12431d	0.0022317835
125	0x3da2869c	0.07935831
126	0x3d0338ab	0.032036465
127	0x3da67add	0.08128903
128	0xbcefc0b5	-0.029266695
129	0x3d90bd7a	0.0706739
130	0x3d929d7d	0.07158945
131	0xbd9b98ec	-0.07597527
132	0x3dd5e5b9	0.10444207
133	0x3de4fb22	0.11180712
134	0x3cf3890a	0.029728431
135	0xbd0ec42b	-0.03485505
136	0x3d1a0e2e	0.03761118
137	0x3cb71b47	0.022351874
138	0x3d397f2d	0.0452873
139	0xbdda23bf	-0.10651349
140	0xbda0ab7d	-0.07845209
141	0x3d42a0b3	0.047516536
142	0x3d764b9c	0.0601307
143	0xbcdbf260	-0.026848972
144	0xbdc50924	-0.09620884
145	0x3d8d5ad3	0.06902089
146	0xbd0252a8	-0.03181711
147	0xbda910b4	-0.08255139
148	0xbdcbc72b	-0.09950098
149	0x3cbd6e48	0.023123875
150	0x3c006599	0.007836723
151	0x3bcf6f8a	0.006330435
152	0x3d19c508	0.03754142
153	0x3d5a5816	0.05330666
154	0x3cebc65e	0.028781112
155	0x3cdbb113	0.026817834
156	0xbbea2b3e	-0.007146268
157	0xbd8051d0	-0.062656045
158	0xbd0d82a7	-0.034548428
159	0x3bd85b96	0.006602715
160	0xbd7ba268	-0.06143418
161	0x3d739871	0.05947155
162	0xbd04b569	-0.03239957
163	0x3d534f3f	0.051589247
164	0x3d6f6cf0	0.0584535
165	0x3d9b53aa	0.07584317
166	0x3dd1e0e6	0.10247974
167	0xbdda3543	-0.1065469
168	0xbda3d153	-0.0799891
169	0xbc6721de	-0.014107196
170	0xbd0ed3cb	-0.03486995
171	0xbdbfc91a	-0.09364529
172	0x3df49ae8	0.119436085
173	0x3c862497	0.01637487
174	0x3b3bfe15	0.002868538
175	0x3d2db4d0	0.042408764
176	0xbca5a8ea	-0.020222146
177	0x3d916038	0.070984304
178	0xbcfda83a	-0.030964006
179	0x3e06bda7	0.13158284
180	0xbdb98ae6	-0.09059696
181	0xbd20e864	-0.039284125
182	0xbbdf6a84	-0.0068181176
183	0xbccb09b5	-0.024784902
184	0x3ca95399	0.020669745
185	0x3d5f569d	0.05452596
186	0xbce4c211	-0.02792457
187	0xbd5c12b0	-0.05372876
188	0xbd8823b5	-0.066474356
189	0x3dabfb38	0.083975255
190	0xbd7d47d5	-0.061836082
191	0x3b8eb7d4	0.00435541
192	0x3e04ee1b	0.12981455
193	0x3db1f941	0.086901195
194	0xbde551b3	-0.111972235
195	0xbdb105c5	-0.086436786
196	0x3a862647	0.0010234796
197	0x3c493568	0.012280799
198	0x3dc4770f	0.09593021
199	0x3d0e885d	0.034798015
200	0x3cf0e9ef	0.029408423
201	0x3daeb8ea	0.08531363
202	0x3db39576	0.08768742
203	0x3dc7bee8	0.09753209
204	0x3da3e5e1	0.0800283
205	0xbd9080a3	-0.070557855
206	0x3d59df27	0.05319133
207	0x3d1b4392	0.037906237
208	0xbdc672db	-0.09689876
209	0x3d31ba14	0.04339035
210	0x3dd6b3f6	0.104835436
211	0x3bd74b00	0.00657022
212	0x3dc30f60	0.09524417
213	0xbc5c24b9	-0.01343649
214	0xbbe025aa	-0.0068404274
215	0x3dcc9a5a	0.09990378
216	0x3dad05a5	0.08448342
217	0x3d04d885	0.03243305
218	0xbd1a7dbc	-0.037717566
219	0x3a29f8c5	0.0006483908
220	0x3e25aefb	0.16180031
221	0x3e27c661	0.1638427
222	0xbdc5f01d	-0.096649386
223	0x3d260f90	0.040542185
224	0xbd0ac4da	-0.03387914
225	0xbd8be58f	-0.06830894
226	0xbc194cf8	-0.00935673
227	0x3c7c018a	0.015381226
228	0x3d7ba7ac	0.0614392
229	0x3d8eb55f	0.069681875
230	0x3b064d44	0.0020492831
231	0x3dab4fa4	0.083647996
232	0xbde0c372	-0.10974778
233	0xbd93aaef	-0.07210337
234	0x3d94e567	0.072703175
235	0xbd78273e	-0.0605843
236	0xbd8c997b	-0.068652116
237	0xbc100f07	-0.008792645
238	0x3d3a336d	0.0454592
239	0xbd820151	-0.06347907
240	0x3dd43550	0.10361731
241	0xbbc6c23f	-0.0060656364
242	0xbb4c6169	-0.003118599
243	0xbd0a4fb2	-0.03376741
244	0x3c033274	0.008007634
245	0xbdb46bba	-0.0880961
246	0xbcfac30b	-0.030610582
247	0xbd749f22	-0.059722073
248	0x3d8ef058	0.06979436
249	0xbdc01ac9	-0.09380109
250	0x3dba4d00	0.09096718
251	0x3cad037e	0.02111983
252	0xbdf3e64a	-0.119091585
253	0xbca13004	-0.019676216
254	0xbbffbe85	-0.007804694
255	0x3e1f6afc	0.15568155

lstm.bias_hh_l0 f4 [256]
0	0x3e0317c2	0.12802032
1	0x3dae55e1	0.08512474
2	0xbe027724	-0.12740761
3	0xbda69e30	-0.081356406
4	0x3dbc05d5	0.091808
5	0x3d51bf33	0.051207732
6	0x3e358817	0.17727695
7	0x3d47d0d1	0.048783127
8	0x3e27d146	0.16388425
9	0x3cdf5815	0.02726368
10	0x3dc7dd93	0.09759059
11	0x3d24fd63	0.04028071
12	0x3baf1a2f	0.0053436975
13	0x3d321f46	0.043486856
14	0xbc2ffa33	-0.0107408045
15	0x3d8121ce	0.06305276
16	0x3d447332	0.04796142
17	0x3d47fbf4	0.048824266
18	0xbdcdaf16	-0.100431606
19	0xbc7d7225	-0.015469109
20	0xbdb56b7f	-0.08858394
21	0xbd8a7857	-0.06761234
22	0xbdf2a628	-0.11848098
23	0xbdaaf96c	-0.08348355
24	0xbc1f982d	-0.009740871
25	0x3db42450	0.087959886
26	0x3d096d76	0.033551656
27	0xbd45bb48	-0.04827431
28	0x3acad117	0.0015473691
29	0x3ced7329	0.028985577
30	0xbd77cc32	-0.06049747
31	0x3a0939cb	0.0005234747
32	0x3bc65c49	0.0060534817
33	0x3d1450bc	0.036209807
34	0x3d8bb102	0.06820871
35	0x3cdce0cc	0.02696266
36	0x3d84077f	0.06446742
37	0x3dadd8d9	0.08488626
38	0x3d238393	0.0399204
39	0x3dd347b2	0.10316409
40	0x3de69be0	0.112601995
41	0xbdae69f1	-0.085163005
42	0x3dbfa1dc	0.09357044
43	0x3d52afa8	0.05143705
44	0xbda43ad5	-0.08019034
45	0xbdb15097	-0.086579494
46	0xbcb0ecd6	-0.021597307
47	0xbc688dfd	-0.014194009
48	0x3ddb9baa	0.1072305
49	0xbdcb9d98	-0.09942168
50	0x3cbf18b7	0.023327215
51	0x3d9b2524	0.075754434
52	0x3da2285e	0.07917856
53	0xbd00b8bf	-0.031426188
54	0xbcf77241	-0.030205848
55	0x3d416717	0.047217455
56	0xbdb21bca	-0.086967066
57	0xbcc685e7	-0.024233771
58	0x3df0eda0	0.11764073
59	0xbc5c469d	-0.01344457
60	0xbd91433f	-0.07092904
61	0x3db3bd82	0.0877638
62	0xbde0daa9	-0.10979206
63	0x3e22a527	0.15883313
64	0x3da15ed9	0.07879419
65	0x3c61bc66	0.013777828
66	0x3dcf60c7	0.10125881
67	0xbdbd9933	-0.09257736
68	0x3cd31235	0.025765518
69	0x3dd723f2	0.10504903
70	0xbdbe3a4e	-0.092884645
71	0x3d82ea72	0.06392373
72	0xbbffd157	-0.0078069377
73	0x3caeef53	0.021354353
74	0xbdbe34b5	-0.09287397
75	0x3da42586	0.080149695
76	0x3dce640a	0.10077675
77	0xbda635ea	-0.08115752
78	0x3d3f97c8	0.04677561
79	0xbd0139ce	-0.031549267
80	0xbc566f44	-0.013088051
81	0xbdf59567	-0.11991387
82	0x3c8fbf1a	0.017547179
83	0xbc649bc4	-0.013953153
84	0xbde71d34	-0.11284867
85	0xbb16202e	-0.0022907364
86	0xbda8180d	-0.08207712
87	0xbdb7f23c	-0.089817494
88	0xbda1bd73	-0.07897463
89	0xbd70ba0c	-0.058771178
90	0xbd3164c2	-0.04330898
91	0xbc6f3939	-0.014601045
92	0x3c3a677b	0.011377211
93	0xbda39f7e	-0.07989405
94	0x3bb3c62b	0.00548627
95	0x3db9ebe4	0.09078196
96	0x3c4f8e06	0.012668138
97	0xbbb570ef	-0.0055371444
98	0x3cef0269	0.029175954
99	0x3d4ddb13	0.050257754
100	0x3d3ed49a	0.04658947
101	0x3e0993d6	0.13435301
102	0xbace197a	-0.0015724145
103	0x3cf5a124	0.029984064
104	0x3de303d7	0.11084717
105	0x3dbd25f6	0.09235756
106	0x3c515963	0.012777659
107	0xbda43df4	-0.08019629
108	0x3dbd0f56	0.09231441
109	0x3d55327c	0.0520501
110	0xbe07baac	-0.13254803
111	0x3db6d43c	0.08927199
112	0x3d498dee	0.04920762
113	0xbdcb667c	-0.09931657
114	0x3d899ea1	0.06719709
115	0xbd15d23c	-0.03657745
116	0x3cc5eb04	0.024159916
117	0xbd6ab2af	-0.057299312
118	0xbdac5cf2	-0.084161654
119	0xbd1664bf	-0.036717173
120	0x3cee9268	0.029122546
121	0xbd4b20be	-0.049591772
122	0xbd943b5a	-0.07237883
123	0x3d8917ed	0.066940166
124	0xbda81bf0	-0.08208454
125	0x3e0a52a9	0.13508095
126	0xbdc76eaf	-0.09737908
127	0x3d966799	0.073439784
128	0x3c8d950b	0.017282983
129	0x3c91dd95	0.017805854
130	0xbdf0079d	-0.11720202
131	0x3dd5761c	0.10422918
132	0x3b76686d	0.0037598864
133	0xbd8f8bb6	-0.070090696
134	0xbcfa6379	-0.03056501
135	0x3dcaf24b	0.09909495
136	0xbd685d74	-0.05672975
137	0x3d54cbd4	0.0519522
138	0xbdcd36b7	-0.10020202
139	0x3ce38fff	0.027778624
140	0x3c12e650	0.008966044
141	0xbd678239	-0.056520674
142	0x3ca1e4a0	0.019762337
143	0xbd350e8a	-0.04420332
144	0x3dbc30d6	0.09189002
145	0xbd77948a	-0.060444392
146	0xbda8e500	-0.08246803
147	0xbdc93bd1	-0.09825862
148	0xbd8a2e9f	-0.067471735
149	0x3de710d1	0.11282504
150	0x3d370421	0.044681672
151	0xbc38e907	-0.011286027
152	0x3db55d6b	0.08855709
153	0xbcc94285	-0.024567852
154	0x3c395851	0.01131256
155	0xbd9b2c9e	-0.075768694
156	0x3ce7cf99	0.028297232
157	0x3dbb4bb6	0.091453
158	0xbdea70e0	-0.114473104
159	0x3dcfe8ad	0.10151801
160	0xbc0f55ca	-0.008748481
161	0x3dde6bc5	0.10860399
162	0xbde7548b	-0.11295422
163	0xbcff832f	-0.031190483
164	0x3d8ec0cd	0.069703676
165	0xbdd9e682	-0.10639669
166	0x3c393370	0.011303768
167	0xbd8603fc	-0.06543729
168	0x3cb1d863	0.021709627
169	0x3cda9298	0.02668123
170	0xbd334319	-0.04376516
171	0x3dc2911e	0.09500335
172	0xbcaa0413	-0.020753896
173	0xbdbf37a4	-0.093367845
174	0x3d89a55a	0.067209914
175	0x3d12384b	0.035698216
176	0xbcf6ce6e	-0.03012773
177	0xbd349b5c	-0.044093475
178	0x3da3566a	0.079754665
179	0xbd9c1a66	-0.076222226
180	0x3df63d29	0.12023384
181	0xbdc9dd34	-0.09856644
182	0xbd6258fe	-0.05526065
183	0xbdf9ac5f	-0.1219108
184	0xbd6d02a4	-0.057863846
185	0xbc17c29b	-0.009262706
186	0xbb5f508a	-0.0034075105
187	0x3ccb9add	0.024854118
188	0x3d9fa925	0.07795934
189	0xbbceffbd	-0.0063171075
190	0xbd43831a	-0.04773245
191	0x3c9d3a80	0.019192934
192	0xbafa44ca	-0.0019093987
193	0x3ded5891	0.11589158
194	0x3d58bb64	0.052913085
195	0x3d658bce	0.05604153
196	0x3dd34db6	0.103175566
197	0xbd632d33	-0.055463027
198	0x3e05d9e2	0.13071397
199	0x3d821745	0.063520946
200	0x3de7c3cb	0.113166414
201	0x3c82fddf	0.015990196
202	0x3dcd50ac	0.100251526
203	0xbcfccb5c	-0.030858688
204	0xbb80fb4f	-0.0039362083
205	0x3de1d9a8	0.11027843
206	0x3c5d3735	0.013501932
207	0xbaa5f317	-0.0012660947
208	0xbd8f32be	-0.069921
209	0x3db4a910	0.088213086
210	0xbe05128d	-0.12995358
211	0x3bc966e9	0.006146301
212	0x3d710164	0.058839217
213	0xbdcf48dd	-0.101213194
214	0xbadbae6c	-0.0016760356
215	0xbd0603a4	-0.032718316
216	0xbd67f81b	-0.056633096
217	0x3dd67d72	0.104731455
218	0xbd715a0d	-0.05892377
219	0x3d81bde1	0.06335045
220	0xbd6f9b5e	-0.05849778
221	0x3dea3466	0.114357755
222	0x3dd63294	0.10458866
223	0xbd57de72	-0.052702375
224	0xbd1ecffb	-0.038772564
225	0x3d9cdbf2	0.07659139
226	0xbda80a04	-0.08205035
227	0x3d052afc	0.032511696
228	0x3d80a1a3	0.0628083
229	0x3d9c3082	0.0762644
230	0xbd4cf3d0	-0.050037205
231	0xbe090a3f	-0.13382815
232	0xbc967db9	-0.018370496
233	0x3dfffefd	0.12499807
234	0xbd965cb3	-0.073419
235	0x3db66e0f	0.08907711
236	0x3ca1e558	0.01976268
237	0x3d010cac	0.031506225
238	0xbc2964fb	-0.010339017
239	0xbda545c9	-0.08069951
240	0x3e506050	0.2034924
241	0xbc7569a5	-0.014978801
242	0xbde9befe	-0.11413382
243	0xbdfaee19	-0.12252445
244	0x3dcf5479	0.10123534
245	0xbdca3847	-0.09874015
246	0xbd05689a	-0.03257046
247	0xbd3b7b78	-0.045772046
248	0xbcfb7258	-0.030694172
249	0x3dedaf63	0.11605718
250	0xbde09ba0	-0.10967183
251	0x3d0d5448	0.034504205
252	0xbd135715	-0.03597172
253	0x3e086802	0.13320926
254	0xbd082aec	-0.03324406
255	0xbcdfbc32	-0.027311418

lstm.weight_ih_l0_reverse f4 [256, 3]
0	0x3c19aef1	0.009380088
1	0xbde1317f	-0.10995769
2	0x3d20086f	0.039070543
3	0xbb137d0e	-0.0022504958
4	0xbcc1bc48	-0.02364935
5	0x3da29e01	0.07940293
6	0xbd47bd82	-0.048764713
7	0x3d02f234	0.031969264
8	0x3d2be51a	0.041966535
9	0x3c6a54a8	0.01430241
10	0xbd1f5203	-0.03889657
11	0x3e0f8fa6	0.14019641
12	0x3bcc4dc9	0.0062348587
13	0xbd86f3d1	-0.06589473
14	0x3d8fba53	0.070179604
15	0x3e06d818	0.1316837
16	0x3d9423b2	0.07233371
17	0x3dd5afe9	0.10433943
18	0x3e079987	0.1324216
19	0x3db5330f	0.08847629
20	0x3d9e45f6	0.07728188
21	0xbd6ca35d	-0.057772983
22	0xbe0cb31b	-0.13740198
23	0x3dd8649f	0.10566067
24	0x3c1d1095	0.009586473
25	0xbd771f6d	-0.060332704
26	0x3e12c82e	0.14334175
27	0x3bb38364	0.0054783095
28	0x3dd0f606	0.10203175
29	0xbd5db384	-0.054126278
30	0x3e2e7149	0.17035402
31	0x3da591b6	0.08084433
32	0x3e3558fa	0.17709723
33	0xbd69aa07	-0.057046916
34	0x3e148701	0.14504625
35	0xbc8198c0	-0.015819907
36	0x3e0350d0	0.12823796
37	0xbb5a0724	-0.0033268416
38	0x3db419c1	0.08793975
39	0x3dbb0cba	0.09133287
40	0x3c76e0a6	0.015068209
41	0x3d739dd3	0.059476685
42	0xbccaf8e8	-0.02477689
43	0x3d65e28f	0.056124266
44	0x3b800d98	0.0039078705
45	0x3e7fc39b	0.24976961
46	0x3cb8654c	0.02250924
47	0x3e7c1b23	0.24619727
48	0x3dc7f96f	0.097643726
49	0x3de48e91	0.11160005
50	0x3d8eb465	0.06968001
51	0xbd30b564	-0.043141738
52	0xbdc1fbb9	-0.094718404
53	0x3d50a2a4	0.050936356
54	0xbdf63065	-0.12020949
55	0x3c96030f	0.018312005
56	0xbde1a23d	-0.110172726
57	0x3b90ccab	0.0044189296
58	0x3e1dbd48	0.15404236
59	0x3d18f2dc	0.037340984
60	0x3d469f5e	0.04849183
61	0xbd6b635e	-0.05746781
62	0x3dbd72bf	0.09250402
63	0x3c835597	0.016032023
64	0xbd294950	-0.041329682
65	0xbdb1de97	-0.08685034
66	0xbdd68389	-0.10474307
67	0xbc20d2b5	-0.0098158615
68	0xbdb9aed2	-0.090665475
69	0x3df56acd	0.11983261
70	0xbb9d3292	-0.004797288
71	0x3b504316	0.0031778268
72	0x3cc5bf52	0.02413908
73	0xbd3a5869	-0.04549447
74	0xbdece2b4	-0.11566678
75	0xbdc66faa	-0.09689267
76	0x3db01d10	0.08599293
77	0x3df13c56	0.11779086
78	0xbe3e2bc7	-0.18571387
79	0x3e324a88	0.17411244
80	0x3e201f6a	0.15636984
81	0xbd40dbde	-0.04708468
82	0x3d79a525	0.06094851
83	0x3d3b3835	0.0457079
84	0x3e831d88	0.25608468
85	0x3e10c1a3	0.14136367
86	0x3dc4b7ef	0.09605395
87	0x3ce5b894	0.028042115
88	0x3ded21a2	0.115786806
89	0xbafc0f43	-0.0019230623
90	0xbe2ef403	-0.1708527
91	0xbe2ec868	-0.17068636
92	0x3dab00ca	0.0834976
93	0x3cf6a9bc	0.030110233
94	0x3d904ee3	0.070462964
95	0x3e20a89e	0.15689322
96	0xbdc7d133	-0.097566985
97	0xbdcfa42f	-0.101387374
98	0x3d2e1681	0.04250193
99	0x3ddf46aa	0.1090215
100	0xbd38ac2e	-0.04508608
101	0x3e5e8a14	0.2173236
102	0x3da5e3b6	0.08100073
103	0x3e1933df	0.14961194
104	0x3e4f3847	0.20236312
105	0x3e14c27a	0.14527312
106	0x3defad04	0.11702922
107	0x3e21ec5b	0.15812819
108	0x3d57b726	0.0526649
109	0xbd133def	-0.035947736
110	0xbd94831b	-0.07251569
111	0xbd04ee4f	-0.03245383
112	0x3db05ce0	0.086114645
113	0x3de4e490	0.11176407
114	0x3e77d37e	0.24201772
115	0x3e4c0098	0.19922101
116	0x3dd39fd1	0.10333217
117	0x3c81d74e	0.015849736
118	0x3de5f430	0.11228216
119	0x3d83afd7	0.06430023
120	0xbe1564b2	-0.14589193
121	0x3d501653	0.05080254
122	0x3dd035f5	0.101665415
123	0xbc79dead	-0.015250844
124	0xbda6b48b	-0.081399046
125	0x3bbcfd17	0.0057674753
126	0x3e6f1070	0.23346114
127	0x3e284aa6	0.16434726
128	0x3db5d718	0.088789165
129	0x3d9133a3	0.07089927
130	0x3cadebb8	0.021230564
131	0xbdd3b540	-0.10337305
132	0xbe43bfa5	-0.19116075
133	0xbcee974d	-0.02912488
134	0x3ca702ae	0.02038702
135	0x3e1ac0e6	0.15112647
136	0xbd9214c1	-0.07132865
137	0x3d0fd5d9	0.03511605
138	0x3db25638	0.08707851
139	0xbdd2e09c	-0.10296747
140	0x3ca775c4	0.020441897
141	0xbd932995	-0.071856655
142	0xbda0ccb4	-0.07851544
143	0xbe023861	-0.1271682
144	0x3ce3df39	0.027816402
145	0x3bf45b73	0.0074571907
146	0xbcba88ba	-0.022770274
147	0xbd93b5bf	-0.072124
148	0xbd14d3d2	-0.03633482
149	0xbbd30f20	-0.006441012
150	0x3e496f80	0.1967144
151	0x3d895309	0.06705291
152	0x3b494521	0.003071137
153	0xbe58996e	-0.21152279
154	0xbd35eda7	-0.044416096
155	0x3dc63f9e	0.09680103
156	0xbca1e6d3	-0.019763386
157	0xbd1188d5	-0.035530884
158	0x3e26362a	0.162316
159	0x3da11a79	0.078663774
160	0x3de576b8	0.112042844
161	0x3aeee637	0.0018226568
162	0xbcce8b79	-0.02521299
163	0x3d851b1a	0.0649931
164	0x3dd7c212	0.10535063
165	0x3d59c527	0.053166535
166	0x3d64443f	0.055729147
167	0x3abead9d	0.001454759
168	0xba6a801f	-0.0008945483
169	0xbd4ba44e	-0.04971724
170	0x3d22b79d	0.03972589
171	0x3e152937	0.14566503
172	0x3bb714eb	0.0055872104
173	0xbdcb34f7	-0.099222116
174	0x3e2fd84d	0.17172356
175	0x3dee23f7	0.116279535
176	0x3dd3280b	0.10310372
177	0xbe18dfb2	-0.14929083
178	0x3e4c975b	0.19979613
179	0x3de9d6c8	0.114179194
180	0x3de27765	0.11057929
181	0x3e0dca71	0.13846757
182	0xbdb7eddb	-0.08980914
183	0xbe05bfd2	-0.13061455
184	0x3dba901c	0.09109518
185	0xbdd41b8c	-0.10356817
186	0xbd200d78	-0.039075345
187	0x3dba183a	0.09086652
188	0x3e182f00	0.14861679
189	0xbd107c6d	-0.03527491
190	0x3d589f98	0.052886575
191	0x3d5d6efa	0.054060914
192	0x3dc8e2d3	0.09808888
193	0xbd37029d	-0.044680227
194	0xbc8bf82b	-0.01708611
195	0xbc4aad52	-0.012370424
196	0x3da6fcf0	0.08153713
197	0x3d0a5347	0.033770826
198	0xbd77f077	-0.06053206
199	0xbdb05360	-0.086096525
200	0x3d6d5860	0.05794561
201	0xbd8abbb0	-0.0677408
202	0xbd59f6c7	-0.05321386
203	0xbd444910	-0.04792124
204	0xbdc136eb	-0.09434303
205	0x3bbeed44	0.005826624
206	0x3d8c2594	0.06843105
207	0x3dc5bff5	0.096557535
208	0x3ca26ce5	0.019827316
209	0xbdc3c641	-0.09559298
210	0x3d169728	0.036765248
211	0x3e04f7f2	0.12985209
212	0x3da8f809	0.08250434
213	0xbe0d3ded	-0.13793154
214	0xbd54e128	-0.05197254
215	0x3e36e90b	0.17862336
216	0x3dd0dfe2	0.10198952
217	0xbddb156d	-0.10697446
218	0x3d193682	0.0374055
219	0x3ded5d98	0.11590117
220	0x3c823747	0.015895499
221	0xbd8a010e	-0.067384824
222	0x3c9b88c5	0.018986115
223	0x3e109efb	0.14123146
224	0x3de10966	0.10988121
225	0x3d57bf7f	0.05267286
226	0x3ced8f21	0.028998913
227	0xbd2f3203	-0.042772304
228	0x3da55372	0.080725566
229	0x3d7c64a5	0.06161942
230	0x3b346d26	0.0027530878
231	0x3dd66de0	0.10470176
232	0xbc986889	-0.018604534
233	0x3ccf3e13	0.025298154
234	0xbd39f27f	-0.045397278
235	0x3d2c2c8b	0.042034667
236	0x3de84319	0.11340923
237	0x3cb1d48a	0.021707792
238	0x3e0be30e	0.13660833
239	0x3e547ee1	0.20751525
240	0x3d82a9e0	0.06380057
241	0xbcb13eba	-0.021636356
242	0x3dd8d079	0.10586638
243	0x3c85dc97	0.016340537
244	0x39fc9d07	0.0004818218
245	0xba635337	-0.0008671763
246	0x3d425fe8	0.047454745
247	0x3c40e009	0.011772164
248	0x3cc1c2f5	0.023652533
249	0x3dc862dc	0.09784481
250	0x3dcd96af	0.10038506
251	0xbd4d03d9	-0.050052498
252	0xbcf60793	-0.030032909
253	0x3d95a663	0.073071264
254	0xbd9ba667	-0.07600098
255	0xbd91e6b1	-0.07124079

lstm.weight_hh_l0_reverse f4 [256, 64]
0	0xbdbf3875	-0.0933694
1	0x3d50a404	0.050937667
2	0xbddb698a	-0.10713489
3	0xbdaa4ecb	-0.0831581
4	0xbd92cf4d	-0.07168446
5	0xbdaf6a20	-0.085651636
6	0x3dbd3d36	0.09240191
7	0x3c59fed0	0.013305381
8	0xbd39cb33	-0.0453598
9	0xbcb1aad8	-0.02168791
10	0xbd4fc307	-0.050723102
11	0xbdbdad50	-0.09261572
12	0x3d9a9267	0.07547455
13	0xbd1e51bc	-0.038652167
14	0x3dcabf9c	0.09899828
15	0x3dc10afe	0.09425925
16	0x3d5d7e1c	0.054075345
17	0x3d2355a7	0.039876606
18	0xbdbe92a7	-0.093053155
19	0xbd9653ca	-0.073402
20	0xbdf6cc7c	-0.12050721
21	0x3bfa360a	0.0076358365
22	0x3dd227e6	0.10261516
23	0xbd1d55ae	-0.03841179
24	0x3c3e3629	0.0116095925
25	0x3cb3ea2a	0.021962244
26	0x3c8f79ec	0.017514192
27	0x3da1a210	0.07892239
28	0x3dcf1d90	0.101130605
29	0x3de32033	0.11090126
30	0xbacbd32f	-0.0015550609
31	0x3db8d79e	0.09025501
32	0x3deb96a8	0.11503345
33	0xbc08f41c	-0.008358981
34	0xbd3af421	-0.045642976
35	0xbd7234c9	-0.05913237
36	0x3dc177f0	0.094467044
37	0xbd1b4b5e	-0.037913673
38	0x3db64ae4	0.08901003
39	0x3d24e5da	0.040258266
40	0x3dba11e6	0.09085445
41	0x381c8eca	3.732628e-05
42	0x3e551c8e	0.20811674
43	0x3df6aaa7	0.12044268
44	0x3d8b12a8	0.06790668
45	0x3d7dee29	0.061994705
46	0xbbaaf18e	-0.005216784
47	0xbd9df2c5	-0.0771232
48	0x3dd26279	0.102726884
49	0x3d82a3b3	0.063788794
50	0x3c338806	0.0109577235
51	0x3d8cbb53	0.06871667
52	0x3d801e9e	0.0625584
53	0xbcd85388	-0.026407018
54	0x3bd59cc9	0.0065189344
55	0x3dbb6710	0.09150517
56	0xbd4f1dd4	-0.050565556
57	0xbcdfa1a1	-0.02729875
58	0x3da2e61f	0.07954048
59	0xbd9f12b6	-0.07767241
60	0x3d9b1612	0.07572569
61	0x3d4660c3	0.048432123
62	0xbdf03973	-0.117297076
63	0xbdf0936a	-0.11746867
64	0x3c150f70	0.009097919
65	0x3c2902b3	0.010315585
66	0x3b3ca3b8	0.0028784107
67	0xbbac6d37	-0.005262043
68	0xbc930e3e	-0.017951127
69	0xbd87c63e	-0.066296086
70	0xbca71670	-0.020396441
71	0xbe20c470	-0.15699935
72	0xbdc635f0	-0.096782565
73	0xbd887f92	-0.06664957
74	0x3d6f6372	0.058444448
75	0xbd9d9c4c	-0.07695827
76	0xbb581986	-0.0032974198
77	0xbc57a35e	-0.013161508
78	0xbdccca4e	-0.09999524
79	0x3be1ff56	0.0068968935
80	0xbd39d030	-0.04536456
81	0x3dec81d4	0.115482
82	0x3dd2a1e3	0.10284784
83	0x3dcac0cb	0.099000536
84	0xbd355cb7	-0.044277873
85	0xbadf9124	-0.0017056805
86	0xbd54610c	-0.051850364
87	0xbdc73673	-0.09727182
88	0x3d11ccd4	0.03559573
89	0x3dacfb76	0.084464
90	0x3bba9b9f	0.005694821
91	0xbbd1f052	-0.0064068222
92	0xbd51490c	-0.051095054
93	0xbc1bd458	-0.009511076
94	0xbb7e233f	-0.0038778333
95	0xbb8751a8	-0.004129607
96	0x3adfdde5	0.001707968
97	0x3cc1efe3	0.023673957
98	0x3d10380b	0.035209697
99	0x3e3e5af4	0.18589383
100	0x3b0f0bdb	0.0021827135
101	0xbb827606	-0.0039813546
102	0x3ddd97f0	0.108199954
103	0xbc506a79	-0.012720698
104	0xbb6e0e8e	-0.0036324593
105	0x3ddcb9f6	0.10777657
106	0xbe3005fb	-0.17189781
107	0xbc284c06	-0.010272032
108	0xbdd3cb08	-0.103414595
109	0xbcc645cd	-0.024203205
110	0x3d7bdd08	0.06149009
111	0xbcacf492	-0.021112714
112	0xbde3baaa	-0.11119588
113	0x3dbd2c3e	0.09236954
114	0x3d4e7d0e	0.05041223
115	0x3d1d4ee7	0.038405325
116	0xbd47cecf	-0.048781212
117	0xbd3fae9e	-0.046797387
118	0xbd150b51	-0.036387745
119	0xbc3854d8	-0.011250697
120	0xbdc7ea8e	-0.09761535
121	0x3ce61701	0.028087141
122	0xbd2ea054	-0.04263337
123	0xbdcd6293	-0.10028567
124	0xbd46b209	-0.04850963
125	0x3dc65782	0.096846595
126	0x3df0af16	0.11752145
127	0xbd14f93b	-0.036370497
128	0x3d6daf85	0.058028717
129	0x3da14b92	0.07875742
130	0x3d26cd10	0.040722907
131	0xbd1dbd0b	-0.038510364
132	0xbbaed2b5	-0.005335177
133	0x3dcbf421	0.09958673
134	0xbda53252	-0.080662385
135	0x3e0f881d	0.14016767
136	0xbd4e88ce	-0.050423436
137	0xbc7463f0	-0.014916405
138	0xbe320b8a	-0.17387214
139	0xbdcd7c79	-0.10033507
140	0x3dc9cdff	0.09853744
141	0xbd3292a6	-0.043596886
142	0xbcd01aa0	-0.02540332
143	0x3d2d27d0	0.042274296
144	0x3e0fe676	0.14052758
145	0xbdd9f624	-0.10642651
146	0xbc5e433f	-0.013565837
147	0x3d91c9a1	0.07118536
148	0xbc95c0de	-0.018280443
149	0xbe067ea0	-0.13134241
150	0x3dabd6fd	0.08390615
151	0x3dcaa3c7	0.09894519
152	0xbdbf0821	-0.09327722
153	0x3d287411	0.041126315
154	0x3e0e3f67	0.13891374
155	0xbc94b909	-0.018154638
156	0x3cbb8af1	0.0228934
157	0xbd868da5	-0.06569985
158	0xbd59c30e	-0.053164534
159	0x3cf550a8	0.029945686
160	0x3dfbf5bc	0.123027295
161	0xbe11f364	-0.14253002
162	0xbe19c87e	-0.15017888
163	0xbdd65445	-0.10465292
164	0x3d5b1db4	0.053495124
165	0xbdca7d84	-0.098872215
166	0xbd88a154	-0.06671396
167	0x3c9144d7	0.01773302
168	0x3d293f00	0.041319847
169	0x3d3bce11	0.045850817
170	0x3e00fb0b	0.12595765
171	0xbce4d421	-0.027933182
172	0xbc572efc	-0.013133761
173	0x3d8c6906	0.06855969
174	0x3d882f90	0.06649697
175	0x3cd6ec7c	0.026235811
176	0x3d68c46a	0.05682794
177	0x3c9c6682	0.019091848
178	0x3cd46bb1	0.025930258
179	0xbd81bfb7	-0.06335395
180	0xbda45dcc	-0.08025703
181	0xbe1448be	-0.14480874
182	0x3d180677	0.03711554
183	0xbd8b87f1	-0.06813038
184	0xbbf9067a	-0.007599649
185	0x3da4cc25	0.0804675
186	0x3da0950e	0.0784093
187	0xbc8f8bdf	-0.01752275
188	0xbdfab26d	-0.12241063
189	0xbc4df781	-0.012571217
190	0x3bd0becd	0.0063704015
191	0xbc1249b0	-0.008928701
192	0xbd9ed905	-0.07756237
193	0xbe34ca41	-0.17655279
194	0x3d7c836f	0.061648782
195	0xbe0055d1	-0.12532736
196	0xbd7f8b61	-0.06238878
197	0x3c8b3644	0.01699365
198	0xbd7a0b52	-0.061045952
199	0xbd31f99b	-0.043450933
200	0x3c3df10d	0.0115931155
201	0xbddecf55	-0.10879389
202	0xbc2550bd	-0.01009005
203	0x3d8bfe54	0.068356186
204	0x3d39c76e	0.045356207
205	0xbe024bbe	-0.12724206
206	0xbdf6a6fa	-0.12043567
207	0x3da753be	0.081702694
208	0x3df33f6c	0.11877331
209	0x3d502bbe	0.050822966
210	0xbdafae3c	-0.085781544
211	0xbde28174	-0.110598475
212	0x3d4889c1	0.048959497
213	0x3c0f159a	0.008733178
214	0x3daa7bf8	0.083244264
215	0xbd37c106	-0.044861816
216	0xbb8ffec3	-0.0043943836
217	0xbdba8fbd	-0.09109447
218	0x3df13e39	0.11779446
219	0x3cb9b4c8	0.022669211
220	0xbd8c7832	-0.06858863
221	0xbdedf369	-0.116186924
222	0xbca18c3b	-0.019720187
223	0x3d7ae373	0.06125207
224	0xbdf94d34	-0.121729285
225	0x3dc12fb3	0.09432926
226	0x3c32a0e2	0.010902615
227	0x3da323cf	0.07965814
228	0x3d1f7a6b	0.038935106
229	0x3dc3df10	0.0956403
230	0xbcc83b5f	-0.024442373
231	0xbd330d65	-0.043713946
232	0xbc617780	-0.013761401
233	0xbdbebcdc	-0.09313366
234	0x3d9e47e5	0.077285565
235	0x3d19af75	0.037520844
236	0xbcc51022	-0.024055544
237	0xbd86d2dd	-0.06583188
238	0x3cdff632	0.027339075
239	0x3d20f2ca	0.03929404
240	0xbdc5484e	-0.09632932
241	0x3d9bb0a7	0.07602053
242	0x3da0a23a	0.07843442
243	0x3d249d39	0.040189
244	0xbd704134	-0.058655933
245	0xbcb3aad5	-0.021932045
246	0x3d9439a0	0.072375536
247	0x3dc8bfa4	0.098021775
248	0x3da9f5f6	0.082988665
249	0x3d0ff691	0.035147253
250	0xbd889edd	-0.06670926
251	0xbdddb195	-0.10824887
252	0xbd50e73c	-0.051001772
253	0xbc694c19	-0.0142393345
254	0x3dd62c6c	0.104576916
255	0xbd849ed1	-0.06475604

lstm.bias_ih_l0_reverse f4 [256]
0	0x3c5ce80d	0.01348306
1	0xbb8c7fc0	-0.00428769
2	0x3d1db133	0.03849907
3	0x3d99aae4	0.07503298
4	0x3d332707	0.04373839
5	0x3d2de68d	0.0424562
6	0x3d5b0186	0.05346825
7	0x3d9afd46	0.07567839
8	0x3db1feee	0.08691202
9	0x3d6ae428	0.057346493
10	0x3e04bc73	0.12962513
11	0x3db62342	0.08893444
12	0x3d36ab26	0.044596814
13	0x3dfa0a45	0.1220899
14	0x3b738854	0.0037160115
15	0x3de47154	0.11154428
16	0x3d7c18ba	0.06154702
17	0x3db258fa	0.08708377
18	0xbd1538cc	-0.03643112
19	0x3e06614b	0.13123052
20	0xbd81ac8a	-0.06331737
21	0xbdb5397a	-0.088488534
22	0x3d8751de	0.06607412
23	0xbb7d97f4	-0.0038695307
24	0x3c553515	0.013013144
25	0x3db94a49	0.09047372
26	0x3e168b95	0.14701684
27	0xbcd63d55	-0.026152292
28	0xbdacf3df	-0.08444952
29	0xbdfa7f7b	-0.12231346
30	0x3e54a219	0.2076496
31	0x3c913dc9	0.017729657
32	0xbd345ec4	-0.044035688
33	0x3d164c81	0.036694054
34	0x3da8e68c	0.08247098
35	0x3da64dd4	0.08120313
36	0x3c4e9602	0.012609007
37	0x3df55e24	0.119808465
38	0x3e445299	0.19172134
39	0x3d73b450	0.05949813
40	0x3ad18ea8	0.001598795
41	0xbe05bc5a	-0.13060132
42	0x3cdc47a5	0.026889632
43	0xbdf76ae2	-0.12080933
44	0xbdfa2350	-0.122137666
45	0x3c7ddad1	0.015494064
46	0xbdd2dd95	-0.1029617
47	0xbdc033b3	-0.09384861
48	0x3dd10594	0.10206142
49	0x3c0173b1	0.007901118
50	0xbdafac9f	-0.08577847
51	0xbdc0909b	-0.09402581
52	0x3dc36c8d	0.09542189
53	0xbc2a481f	-0.010393172
54	0xbdbf3d97	-0.09337919
55	0x3bef4e48	0.007303033
56	0xbd88cdab	-0.06679853
57	0xbd8a60df	-0.06756758
58	0x3e085226	0.13312587
59	0x3e01c948	0.12674439
60	0xbc8646a9	-0.016391115
61	0x3d82f46b	0.06394275
62	0x3dd2993e	0.10283135
63	0x3ce62424	0.028093405
64	0x3bbd5e48	0.0057790615
65	0xbc351275	-0.011051764
66	0x3a6c0c94	0.000900456
67	0x3d71b217	0.05900773
68	0xbddda110	-0.10821736
69	0xbd4c7faf	-0.049926456
70	0xbd9768b0	-0.073930144
71	0xbdae0317	-0.08496683
72	0xbbd06376	-0.006359513
73	0x3d4f623d	0.050630797
74	0xbd3a970a	-0.0455542
75	0x3dcb7e1d	0.099361636
76	0xbdcf9fda	-0.10137911
77	0x3d91de22	0.071224466
78	0xbc037d37	-0.008025459
79	0x3c576f42	0.0131490845
80	0xbd2075e8	-0.039174944
81	0xbd2157d5	-0.039390404
82	0xbcc3016c	-0.023804389
83	0x3df8174b	0.12113818
84	0xbd726210	-0.05917555
85	0xbdb42247	-0.087956004
86	0x3d4cd0a5	0.050003666
87	0x3d993e37	0.0748257
88	0x3c0ff8e6	0.008787369
89	0x3d0b5d72	0.034024663
90	0xbba3a7c7	-0.004994366
91	0xbdf17bdc	-0.117912024
92	0x3dc9203e	0.09820603
93	0x3b93c018	0.0045089833
94	0xbc6bba59	-0.01438769
95	0x3dcd85da	0.10035296
96	0xbd54bb66	-0.05193653
97	0x3de6a20e	0.11261378
98	0xbd8e758a	-0.069560125
99	0x3c8069f6	0.015675526
100	0xbc561684	-0.013066892
101	0xbc269d23	-0.0101693
102	0x3e0f52fd	0.13996501
103	0xbd95ebbd	-0.07320354
104	0xbcd2aebe	-0.02571809
105	0x3dad4c32	0.08461799
106	0x3da713a2	0.081580415
107	0x3d7e75c7	0.06212404
108	0x3bc9d09e	0.0061589023
109	0x3d671a7f	0.056421753
110	0x3d7646f2	0.060126252
111	0xbd4af9d2	-0.049554653
112	0x3d6e7364	0.058215514
113	0xbdfe30b3	-0.124116324
114	0x3d8d87f7	0.06910699
115	0x3d88dd45	0.06682829
116	0xbce3b28b	-0.027795097
117	0x3d2ae34f	0.041720685
118	0xbd37bf5b	-0.044860225
119	0xbd15e47f	-0.036594864
120	0x3d18ab89	0.037272964
121	0x3dcb2f91	0.09921182
122	0x3db81795	0.08988873
123	0x3c03e2aa	0.008049646
124	0xbb5f8ee4	-0.003411227
125	0x3d8f7f52	0.07006706
126	0x3da7833e	0.08179329
127	0x3ddd5513	0.10807242
128	0x3cb5a587	0.022173656
129	0xbd6c3210	-0.05766493
130	0xbd1b9dac	-0.037992164
131	0xbd9ac6e2	-0.07557465
132	0xbd4fe813	-0.050758433
133	0x3d9b6b1a	0.075887874
134	0xbc22842e	-0.009919209
135	0x3c5dc2aa	0.013535181
136	0xbdf93c26	-0.121696755
137	0x3de26b82	0.11055662
138	0xbc811fce	-0.015762236
139	0x3d9f24e3	0.077707075
140	0x39b65f08	0.0003478455
141	0x3ddc8949	0.107683726
142	0xbd86b968	-0.06578332
143	0x3d4d6042	0.050140627
144	0xbd606a71	-0.05478901
145	0xb934107d	-0.0001717228
146	0xbdca49b1	-0.09877337
147	0xbdbf2bd3	-0.09334531
148	0xbdbe654b	-0.09296664
149	0x3d98c942	0.07460262
150	0x3c3ca73c	0.011514481
151	0xbda309ef	-0.07960879
152	0xbe088d39	-0.13335122
153	0x3d758cd2	0.05994875
154	0xbd89a631	-0.067211516
155	0xbd46944e	-0.048481278
156	0x3db1375a	0.086531356
157	0x3ce45324	0.027871676
158	0x3c6fca02	0.014635565
159	0x3c8077ea	0.01568218
160	0xbdd08d71	-0.10183228
161	0xbbbbe620	-0.00573422
162	0xbc88cf8e	-0.016700532
163	0xbd6055ca	-0.054769315
164	0xbd907c52	-0.07054962
165	0xbcb5a1ea	-0.022171933
166	0x3da41b3d	0.08013008
167	0x3db72c78	0.089440286
168	0x3db94b5b	0.09047576
169	0x3dde90f2	0.1086749
170	0xbcbe1303	-0.023202425
171	0xbd9a18c2	-0.075242534
172	0xbd954c09	-0.07289893
173	0xbaa4ed8e	-0.0012583004
174	0x3d658530	0.05603522
175	0x3d835397	0.06412428
176	0xbc542eff	-0.012950658
177	0xbd9b1e3f	-0.07574128
178	0x3d806425	0.06269101
179	0x3d9c445d	0.07630227
180	0xbd5c8c16	-0.053844534
181	0xbb3ac67f	-0.002849966
182	0x3d902903	0.07039072
183	0x3dcf5fc5	0.101256885
184	0x3d4ef214	0.050523832
185	0x3c65c609	0.014024266
186	0x3d2a300c	0.041549727
187	0xbdc51d52	-0.09624733
188	0x3ddc58bb	0.107591115
189	0xbbc8d7c2	-0.006129236
190	0x3dc02efa	0.0938396
191	0xbde4fecb	-0.111814104
192	0xbd5b85ea	-0.053594507
193	0xbdaa9728	-0.08329612
194	0xbd12c588	-0.03583291
195	0xbdfc21dd	-0.123111464
196	0x3ba7b97a	0.005118546
197	0x3db6e368	0.08930093
198	0xbd97fe15	-0.07421509
199	0x3d91e6cf	0.07124101
200	0xbddbf6d5	-0.10740439
201	0xbd8e8098	-0.06958121
202	0x3e16d3ba	0.14729205
203	0x3d0b7955	0.034051258
204	0xbcbb3b0f	-0.02285531
205	0x3c72fbd3	0.014830547
206	0xbc8b7b26	-0.017026495
207	0x3dbc11df	0.09183096
208	0x3d5476cd	0.05187111
209	0x3d860064	0.06543043
210	0x3db64e56	0.0890166
211	0xbda9a6c4	-0.08283761
212	0xbd2d72e4	-0.042345896
213	0x3d32aab5	0.04361983
214	0x3cf8ac17	0.030355496
215	0x3dee252e	0.11628185
216	0xbd20f888	-0.039299518
217	0x3dde7e58	0.10863942
218	0x3d003864	0.03130378
219	0xbddba993	-0.10725703
220	0x3d3390b1	0.04383916
221	0xbdee562f	-0.11637532
222	0x3e3a5c72	0.18199328
223	0xbcea4706	-0.02859832
224	0xbd051109	-0.03248695
225	0x3c7dbf62	0.015487524
226	0xbc3ff985	-0.011717205
227	0x3d596317	0.053073015
228	0xbd8cbfe2	-0.06872536
229	0x3d514382	0.05108977
230	0x3d6e23b2	0.05813951
231	0x3c695aeb	0.014242868
232	0x3c89f3c0	0.016839862
233	0xbd864600	-0.0655632
234	0x3e3ff6ff	0.18746565
235	0x3dd83b6b	0.10558208
236	0xbdd1bd7d	-0.1024122
237	0x3e128f60	0.14312506
238	0xbce1f080	-0.0275805
239	0x3dc086bb	0.09400698
240	0xbce4961a	-0.027903605
241	0xbdb001ae	-0.085940704
242	0x3d3e960e	0.046529822
243	0xbd0c9b06	-0.03432753
244	0xbdd4474b	-0.103651606
245	0xbd93770d	-0.072004415
246	0x3dab7cad	0.083733894
247	0xbb90bb93	-0.004416892
248	0x3c8ec884	0.017429598
249	0x3de47726	0.11155538
250	0x3e0b2e4b	0.13591878
251	0x3e21002b	0.1572272
252	0xbc70a327	-0.014687336
253	0xbc24bac7	-0.010054297
254	0x3d177224	0.036974087
255	0xbd83b149	-0.06430299
