environmental_predictor/models/lstm_Kyiv_no2.pth (torch, 631854 bytes, 27 tensors)

lstm.weight_ih_l0 f4 [256, 3]
000000 b2 7f 1f bd b3 fb 60 3d c3 9c be 3d 6c 3f b3 3d
       -0.03894014 0.05492754 0.09307244 0.08752331
000010 33 4d 9c bd 52 66 1e 3d 88 0d 01 3e d1 b6 d1 3d
       -0.07631912 0.0386718 0.12602818 0.102399476
000020 7a f2 32 bd 07 af ad bd 26 b1 f2 3d aa a1 15 3e
       -0.043688275 -0.084806494 0.11850195 0.14612451
000030 a2 22 97 bd 39 9b 5a 3d 41 f9 ee 3d f4 4e d9 3d
       -0.073796526 0.053370688 0.11668635 0.10610762
000040 35 c6 01 be 1a 39 c9 3d 2b f9 84 3d 20 c2 d2 3d
       -0.12673266 0.098253444 0.064928375 0.10290933
000050 75 b7 4f bd e7 25 aa bd e0 54 63 bd 51 7c 93 bc
       -0.050712068 -0.083080105 -0.055500865 -0.018003615
000060 62 51 3e 3d da 13 a7 3d 5b b7 90 3d 3e 11 a2 bd
       0.04646433 0.08158083 0.07066222 -0.07913445
000070 45 6b 10 bc ca 0c 15 bd ef 04 f6 bd 19 98 74 bd
       -0.008814638 -0.03638915 -0.1201266 -0.059715364
000080 f9 e6 7b 3d f5 b8 60 bd 3e 40 b6 bd db 9c 0c 3d
       0.06149957 -0.05486389 -0.08898972 0.034329277
000090 98 01 3b 3d 94 56 29 3d 3d 9e f3 3d e6 60 a7 3c
       0.045655817 0.041342333 0.11895416 0.020431947
0000a0 59 16 9e bd ea 27 a1 bc e8 b4 c5 bd 09 87 60 bd
       -0.07719106 -0.019672353 -0.09653646 -0.05481628
0000b0 85 f4 bb 3c 87 80 1d bd 3a 01 b0 bd 6d 18 5c 3d
       0.022943744 -0.03845265 -0.08593984 0.05373423
0000c0 54 fb 52 3d 8f fc a3 bc 13 46 92 3c b1 64 8b 3d
       0.051509216 -0.02001789 0.01785568 0.06806315
0000d0 4c e3 31 bd 17 91 93 3d 5e 07 1c bd 93 fa 8b 3d
       -0.043429658 0.07205408 -0.038092963 0.068349026
0000e0 d1 85 8c 3d 0b 99 b5 bb 72 7c a3 bc 92 6e 9c 3b
       0.06861461 -0.005541926 -0.019956801 0.004773923
0000f0 15 8d c4 bd b1 e6 da 3d 89 72 fd 3d 6c fe cd 3d
       -0.09597222 0.10688532 0.123753615 0.10058293
000100 13 b5 ec 3d 6b 5b 06 3e 2e 88 4d 3b 58 cb cc 3c
       0.11557975 0.1312081 0.0031361687 0.024999306
000110 6f fd 17 bd 30 d6 e7 3d 7b 34 a8 3d 77 a0 1a be
       -0.037106927 0.1132015 0.08213135 -0.15100275
000120 fe 64 a0 3c 77 ac 01 3d b7 94 ce 3c 63 21 8b 3d
       0.019579407 0.031658616 0.025217397 0.067934774
000130 c2 e6 80 3a ae 88 bf bc 2a f1 e4 bc 61 ff dd bd
       0.0009834396 -0.023380604 -0.027947027 -0.10839725
000140 35 93 12 3d 16 b4 76 bd 5b e9 ae bc 82 63 1c 3e
       0.03578492 -0.060230337 -0.021351507 0.15272334
000150 cc ce 1f bc 91 03 b4 3c 63 aa 79 bd cd d7 92 3d
       -0.009753894 0.021974357 -0.06095351 0.07170067
000160 4e 94 b6 bc 7d 9f 0f 3d e8 a2 f9 bc 41 cf 3b bd
       -0.022287514 0.03506421 -0.030473188 -0.04585195
000170 f8 7d b1 3d 28 3a e1 bd df 34 1f 3c ea 5e 0d bc
       0.08666605 -0.109974205 0.009717195 -0.008628586
000180 95 3c 2a 3d 6d 0d 87 3d 6d b8 c6 3c e5 9d be bc
       0.04156168 0.06594358 0.024257863 -0.02326865
000190 6e fc a2 3d 83 c6 5d bd fd 98 ed bc 60 1f 74 bd
       0.079583034 -0.054144394 -0.029003615 -0.059600234
0001a0 92 0b e3 3b 2b b4 9b bd 34 b8 17 3d 70 02 a9 bc
       0.0069288695 -0.07602724 0.037040904 -0.020631045
0001b0 04 7d 04 be 1b b9 1b 3d 94 d3 84 3d af 2b 16 bd
       -0.12938315 0.038018327 0.06485668 -0.036662754
0001c0 88 4d c6 3b 58 54 9c bc 02 b1 49 bd cd ee 99 bd
       0.006051723 -0.019083187 -0.049241073 -0.07516251
0001d0 c4 be a0 bd 7b 3b 6c bd 70 c6 15 bd 7d 1f 1b 3d
       -0.07848886 -0.057673912 -0.036566198 0.037871826
0001e0 20 55 8d bd 3f f7 b2 bd e9 e8 e4 3d b9 d9 01 be
       -0.06901002 -0.08738565 0.111772366 -0.12680711
0001f0 a6 c5 c6 bd 3e 2f c1 3d 99 6e 8a 3d e9 0c a8 bd
       -0.09705667 0.09432839 0.06759376 -0.082055874
000200 81 56 0c 3e 1d 22 96 3b 19 7a bc bd 52 e4 97 bd
       0.13704874 0.0045817033 -0.09202976 -0.074165955
000210 7c bd c6 bc 37 3a a7 bd f2 23 8c 3d f9 51 33 3c
       -0.024260275 -0.081654005 0.068427935 0.010944837
000220 08 31 97 bc e0 9c 64 bb 9a a7 cb bc aa 7d 23 bd
       -0.018455997 -0.0034883544 -0.024860192 -0.039914764
000230 3d 89 60 3c 65 2c f0 3d 86 16 a1 3d 2c 1f 33 3d
       0.013704595 0.117272176 0.07865624 0.0437309
000240 01 b2 a9 bb 6e a7 48 3d e5 26 57 3b b9 f3 ea 3d
       -0.0051786904 0.0489878 0.003282958 0.11472268
000250 6d 54 c6 3d 14 7b 33 bc ad 74 6b bd eb 6c b6 3d
       0.09684072 -0.010954637 -0.057484318 0.08907493
000260 4e b7 8b 3d 40 b6 c8 3d f6 0f 1b 3d 94 3d 7a 3d
       0.06822072 0.098003864 0.03785702 0.06109388
000270 61 b7 cd 3d 35 65 c7 bd 56 ae 8e bc 03 ea ac bd
       0.100447424 -0.097361006 -0.017417114 -0.08443072
000280 fd 3c 98 bd 7c b3 f7 3d 60 16 ba bc 7e 15 12 3d
       -0.074335076 0.12094781 -0.022715747 0.035665028
000290 79 cf 4a 3d 79 59 8d 3d 7a f0 45 bc ae 7f f9 bc
       0.049514268 0.06901831 -0.01208126 -0.03045639
0002a0 70 d6 1e 3c b2 cb 9d 3d f3 df ea bd 7e c6 76 3d
       0.009694681 0.077048674 -0.11468496 0.06024789
0002b0 8f 79 9c 3d ef 3d 88 bd 6b 8d b8 bd 98 d7 c1 bd
       0.07640373 -0.06652438 -0.09011348 -0.09464949
0002c0 62 33 c1 3d 56 61 a4 3d e6 4c db b8 1d 56 9e bd
       0.094336286 0.08026378 -0.00010457057 -0.077312686
0002d0 24 59 1b bd 26 9d 48 bd 86 b9 bb bc be 33 9d 3d
       -0.037926808 -0.048977993 -0.022915613 0.07675885
0002e0 c0 b4 ef bd 92 37 06 3d 06 91 ed 3d 3b 12 46 3d
       -0.11704397 0.03276784 0.11599927 0.04835723
0002f0 44 ac 36 3c c0 cf 21 3c 63 9b 01 be ec b8 d2 bc
       0.01114947 0.009876192 -0.12656932 -0.025722943
000300 4b ce 10 bd c5 66 bf 3d ab c4 27 3d 53 f0 90 bd
       -0.035352986 0.093457736 0.04095904 -0.07077088
000310 f4 14 de bd 85 fa 8f bd 29 cd 27 3d 4a ab bd bd
       -0.1084384 -0.07030205 0.04096714 -0.092611864
000320 de 46 e6 3d 14 04 a6 3d ac 5e e4 3c c8 65 cb 3c
       0.112439856 0.081062466 0.027877174 0.024828807
000330 11 52 da 3d b7 a7 b1 3d 9a 87 6e bd f2 db 86 3b
       0.10660184 0.08674567 -0.05823479 0.004115575
000340 b8 4a 9e bd 43 89 ae 3d 6c 41 cf 3d 70 b8 f3 3d
       -0.07729095 0.08522274 0.101199 0.11900413
000350 21 7d a3 bc 16 cb e0 bd ed 7c 1a 3d 4f 65 91 bd
       -0.019957127 -0.109762356 0.037716795 -0.07099401
000360 2b 17 b9 bd 12 13 e7 bd a2 8d 55 3d ca f7 e0 bd
       -0.09037622 -0.11282934 0.052137025 -0.10984762
000370 35 15 f7 3c 53 ca 9f bc 94 3f aa 3d 68 4d 8c 3d
       0.03016148 -0.019505655 0.08312908 0.068507016
000380 c2 9e 07 be 4c d1 b4 3d 83 1d e6 3c 5b 00 a1 3d
       -0.13244155 0.08828983 0.028090244 0.07861396
000390 7a f6 8d 3d 7e ac 10 bd a3 48 a9 bd 03 97 3c bd
       0.06931777 -0.03532075 -0.082658075 -0.046042453
0003a0 aa 63 c2 bd 35 04 74 3d 3d 1d f1 bc ab 4a 64 bb
       -0.09491666 0.059574325 -0.029432887 -0.0034834545
0003b0 5e 99 dc 3a cc a9 d8 3d 92 86 a7 bd 90 7f 8f bd
       0.0016830375 0.10579261 -0.08179964 -0.070067525
0003c0 77 41 b6 3d ce 25 a5 bd c6 97 82 bc 50 51 8c 3d
       0.08899205 -0.08063851 -0.015941512 0.06851447
0003d0 7d 55 e7 bd 76 57 cd bd 16 a9 f7 3d 41 02 cb bb
       -0.112956025 -0.100264475 0.120927975 -0.006195337
0003e0 8c 4e b7 bc 66 33 2f 3d 9c 2d bf bd 74 30 94 bc
       -0.022376321 0.042773627 -0.09334871 -0.01808951
0003f0 64 83 dc 3d 88 81 1f bd 2c fd 1a bd b3 06 50 3d
       0.10767248 -0.03894189 -0.0378391 0.05078764

lstm.weight_hh_l0 f4 [256, 64]
000000 cf 84 e4 bd ce 0b 7e bd 96 0b 50 3d 94 b0 59 bd
       -0.11158144 -0.062022977 0.0507923 -0.053146914
000010 bf e4 c9 bd 7f b5 2e 3d 52 b2 cc bd 8f ca aa 3d
       -0.09858083 0.042653557 -0.099949494 0.08339416
000020 d3 89 5b bd ed 2c 78 ba 66 7d be 3d a3 b2 f2 bd
       -0.053598236 -0.00094671437 0.093012616 -0.118504785
000030 4c b5 1b 3b 39 dc 57 bd b8 f9 ad bc 79 61 e3 bd
       0.0023759184 -0.052700255 -0.02123724 -0.11102576
000040 c8 73 ce 3d f9 44 e4 3d ef d7 8b bb 8e af 7d 3d
       0.10080677 0.11145968 -0.0042676846 0.061935
000050 6e 07 0d 3b 29 27 df bc c4 95 ff bb 94 3d 82 bc
       0.002151932 -0.027240353 -0.007799836 -0.015898503
000060 7d 77 c9 bc 38 4b 3a bc 5e da fc 3c f3 5a a2 bd
       -0.02459311 -0.011370473 0.030865844 -0.079275034
000070 5a a0 fc bd aa f3 a2 bd b1 60 e1 3d 69 55 12 bb
       -0.12335272 -0.079566315 0.110047705 -0.002232874
000080 e9 30 f2 bd 8a 4c d4 bd db bf 4c 3d 97 d6 4f 3c
       -0.11825735 -0.10366161 0.049987655 0.01268544
000090 ab 57 ca bd ee 5e 88 bd 56 04 cb 3d f9 e4 49 3d
       -0.098800026 -0.066587314 0.099129364 0.04929063
0000a0 99 8c 95 3c e8 88 08 3c e9 c9 d8 bd c9 da ca bc
       0.018255519 0.008333422 -0.10585386 -0.024762528
0000b0 75 d8 fc 3d fb 28 8e bd a0 f0 23 3d 9c d7 8b 3c
       0.123459734 -0.0694141 0.0400244 0.017070584
0000c0 63 3f e9 bb f9 a4 a9 bd af 35 9c bc 04 82 5f 3d
       -0.007118152 -0.08283419 -0.019068567 0.054567352
0000d0 55 64 de ba 2d ae b9 bd 79 2d 9e bd 1e 27 53 3d
       -0.0016967157 -0.090664245 -0.07723517 0.051550977
0000e0 d0 86 b3 3c 36 54 3a 3d d0 a1 97 3d 54 48 34 3d
       0.02191487 0.045490466 0.0740391 0.04401429
0000f0 8f 94 82 3d 26 28 55 bd 6f 39 6d 3c 2c b4 f1 3d
       0.063759916 -0.05204024 0.014479025 0.11801943
000100 92 5a 62 bc 8b 1a 91 bd 65 08 e8 3d 0d 80 17 3d
       -0.013815539 -0.07085141 0.11329726 0.036987353
000110 81 67 a6 bc 60 6e da bc f6 55 e5 3d 6b 3f 93 3c
       -0.020313026 -0.026663959 0.111980364 0.017974576
000120 6a 8f cb 3d c5 3d 00 be 51 c8 9a 3d 6b 54 cb bd
       0.099394634 -0.12523563 0.075577386 -0.09928211
000130 dd c1 85 3b 23 2e 70 bc 23 a8 8e bd 49 c8 af 3d
       0.004081948 -0.014659437 -0.06965663 0.08583123
000140 5d f5 91 bd b7 e0 cb bc 8b ca 00 be 8a 6e 6d 3d
       -0.071268775 -0.024887426 -0.12577264 0.057966746
000150 cb 7a d2 bc 1a e6 b0 3d 96 cd 4b bd b8 da c6 bb
       -0.025693318 0.086376384 -0.04975661 -0.006068554
000160 4e d9 f9 bd 82 c2 f1 3c be 94 a9 3d c6 73 35 3d
       -0.12199651 0.029511694 0.082803234 0.044299863
000170 31 63 c9 bd 26 49 81 bd 58 87 ac 3d 50 eb 56 bd
       -0.098333724 -0.0631278 0.08424252 -0.052470505
000180 9f 4c df 3c 48 2b 7c bc 23 f6 1b 3c 51 c4 ca bd
       0.027258215 -0.015391178 0.009519133 -0.09900726
000190 fe f8 1a 3d 1b d9 96 bd 41 c8 dc 3d de f2 5b bd
       0.037835114 -0.07365628 0.10780383 -0.053698413
0001a0 47 17 8d bb 3e 91 c7 3d fc bd c0 3d 27 c7 68 bd
       -0.0043057534 0.097444996 0.09411237 -0.05683055
0001b0 a9 4c 29 bd df c3 83 bd eb fe 99 3d 76 b4 bd bd
       -0.041332874 -0.06433844 0.07519325 -0.09262936
0001c0 e3 c2 5e bd 9d c8 85 bd b4 e3 4a bd 07 62 9b bc
       -0.054385077 -0.065324046 -0.04953356 -0.018967642
0001d0 00 3f e9 3c b4 0a b7 bd 49 e0 d9 3d 84 6c e4 3b
       0.028472424 -0.08937588 0.10638482 0.006970944
0001e0 d4 db eb 3d eb c2 32 bd b4 f5 a8 bd 2b 77 1a 3d
       0.11516538 -0.04364292 -0.08249989 0.037711304
0001f0 0e 9d ea 3c 72 c3 9a bd f0 4c ce 3d b8 5f bd 3d
       0.028639343 -0.075568095 0.100732684 0.092467725
000200 5e d3 0a 3d bc fc 2d 3d bc e1 fb bd 2d 08 3c bc
       0.03389298 0.042477354 -0.12298915 -0.011476559
000210 f3 bf 6f 3c 7a 1c 96 bd ee 77 8e 3d dd 57 a6 3d
       0.014633167 -0.0732965 0.069564685 0.08122227
000220 5e c4 04 bc 08 67 26 3d 99 e7 d6 3d 31 33 16 bd
       -0.008103458 0.040625602 0.104933925 -0.036669914
000230 92 7c 9c 3d c3 0f ee 3d 62 62 f8 bc a7 f4 ce bd
       0.076409474 0.116241 -0.03032035 -0.101052575
000240 80 c9 ac 3c 45 4c b7 3d 6b 53 7f bd d8 36 d1 bd
       0.021092176 0.08950094 -0.062335413 -0.10215539
000250 3c 48 9d 3d e4 ac 1c bd 04 e0 06 3e f7 a5 25 bb
       0.07679793 -0.03825082 0.13171393 -0.0025275925
000260 8a 21 8b bd d3 e2 cb bd 5c c2 c5 bd 44 03 48 bc
       -0.067935064 -0.09955373 -0.09656212 -0.01220781
000270 e3 4a ae 3d 00 98 e7 3b cc f3 72 ba df 1d 18 bc
       0.08510377 0.0070676804 -0.0009267896 -0.009284466
000280 d1 8d a4 bc 95 e9 49 39 d1 f1 f6 3d e5 59 ae 3d
       -0.020087155 0.0001925587 0.120578416 0.0851324
000290 27 fa e7 3d 78 fd ff bd 1e fe 30 bd dd 20 63 3d
       0.1132701 -0.12499517 -0.043211095 0.055451263
0002a0 a5 e9 09 3b 69 f3 48 bc 68 98 70 bd 4a cd 36 3d
       0.0021043804 -0.012265065 -0.058739096 0.044629373
0002b0 70 c8 a3 3d ac f9 94 3c 89 03 95 bd 23 8d 61 3c
       0.07997215 0.01818546 -0.07276065 0.01376656
0002c0 fd 8f e7 3d 72 37 18 bd 4d 8c 74 bc 76 7a d3 bd
       0.113067605 -0.03716225 -0.014926028 -0.10326092
0002d0 36 49 83 bd 05 08 88 bd 7a 17 52 3d b2 38 de bd
       -0.06410448 -0.066421546 0.05129192 -0.108506575
0002e0 f7 7c 5e bd 05 9e c3 3d d1 d2 65 bd be 6b 9c bd
       -0.054318395 0.09551624 -0.056109253 -0.07637738
0002f0 c4 17 d9 bd 30 f4 65 bd 23 70 bf 3d 37 d9 8a 3d
       -0.10600236 -0.05614108 0.0934756 0.06779712
000300 06 d7 b9 bd 5e 5f f3 bd 61 df c6 3d cc a5 b0 3c
       -0.090742156 -0.11883424 0.09710575 0.021563433
000310 93 63 99 bc c6 87 fb 3c eb 47 4d 3d f6 c8 8c bd
       -0.018724238 0.03070439 0.050117414 -0.06874268
000320 c4 72 cb 3c 3c fb a8 bd 37 dd 95 3d 4d 57 05 3d
       0.024834998 -0.08251044 0.07317584 0.03255396
000330 7a 24 06 be 70 f3 e1 3d 85 e9 b1 bd 9a b7 1f bd
       -0.13099852 0.1103276 -0.086871184 -0.038993455
000340 17 2b eb 3c 5f a4 a8 3c 5d 2d a3 3d 3c fd a6 3d
       0.02870707 0.02058619 0.07967637 0.081537694
000350 b9 0c 93 bd 9d 71 8c bd 78 c7 d7 3d a5 79 37 3d
       -0.07180161 -0.068576075 0.105360925 0.044793744
000360 ed 1e eb bc 9a 3d 95 bd 47 0e d7 3d f1 57 a9 bd
       -0.02870127 -0.0728714 0.1050077 -0.082687266
000370 6a 77 b1 bd 8f ea 6d 3d ca 1f 4a 3c 31 8b a0 bd
       -0.086653545 0.05808502 0.012336681 -0.07839049
000380 e2 bf 8b bd 9a d6 d2 bd df 8d 77 bc 14 aa 78 3d
       -0.06823708 -0.10294838 -0.015109508 0.060709074
000390 c2 71 5f 3d 4d a9 f6 3c 29 44 9e bd 5f 64 19 bd
       0.054551847 0.030110026 -0.07727844 -0.037449237
0003a0 05 e9 5b bd eb c8 d5 3d 5a 60 2c 3c 42 cf 69 bd
       -0.05368902 0.10438713 0.010521019 -0.057082422
0003b0 c8 f3 4d bd 34 db 73 bd 67 23 94 3d 3a 7a 1b bd
       -0.050281316 -0.05953522 0.07233315 -0.03795836
0003c0 8f 23 4f bd e2 6d ed 3d 6b 1d 0f 3a ca 54 c1 bd
       -0.05057102 0.11593224 0.00054594007 -0.0944
0003d0 d5 2c 00 be d2 db ce 3d e6 98 26 3d a0 83 cb bd
       -0.12517102 0.10100521 0.04067316 -0.09937215
0003e0 7f b5 0a bd 49 e0 7b 3d 25 67 90 3d ca 6e 6f 3c
       -0.033864494 0.061493192 0.07050923 0.0146138165
0003f0 11 1c cf bd be d1 97 3d 2d 2c 02 bd 28 41 c7 3d
       -0.10112775 0.07413052 -0.03178041 0.097292244

lstm.bias_ih_l0 f4 [256]
000000 33 ea c2 bd 80 fb 42 bd 9c 43 6c bd e8 38 cb bd
       -0.09517326 -0.04760313 -0.057681665 -0.099229634
000010 9a 07 5d 3c 85 ad 37 bd 0a 74 c6 bc 1a 1e f2 3d
       0.013490582 -0.044843215 -0.024225254 0.11822148
000020 9b e6 27 bd 67 ee 43 bc a8 66 72 3d a8 9a 05 3d
       -0.040991407 -0.011958695 0.059179932 0.032618195
000030 88 d2 81 bd b0 9c 89 bd 39 0a b0 bd 93 89 ee 3c
       -0.06338984 -0.06719339 -0.085957 0.029118335
000040 4a 68 33 bd 98 42 cb bc 5c 7f f1 3d 56 88 df 3c
       -0.04380063 -0.024812028 0.1179187 0.02728669
000050 1c 45 ce bd b9 89 b1 3d 93 6e 59 bd 6f 03 93 bd
       -0.10071775 0.08668847 -0.053083967 -0.07178389
000060 19 2d 37 bd fe 47 0c bd a0 bd 85 3c a1 19 cd 3d
       -0.044720743 -0.034248345 0.016325772 0.10014654
000070 e3 4c 91 bd ce 27 a5 bc a1 c4 d3 bd 17 ed 15 bd
       -0.07094743 -0.020160582 -0.10340238 -0.03660306
000080 66 26 d2 bd 02 82 c2 bd 7a f7 b6 bc 50 ed d5 bd
       -0.1026123 -0.09497453 -0.022334803 -0.104456544
000090 ac 50 dd bb 16 2d b2 3c 40 17 b3 bd 4d 08 0f 3c
       -0.0067540016 0.021750014 -0.08744669 0.008730006
0000a0 64 3c f6 bd b7 f7 07 be d5 01 be 3d 6f f1 1d 3c
       -0.12023237 -0.1327809 0.09277693 0.009640082
0000b0 8d 0c a3 3d 7f 8f 7a 3d e1 54 7e bd 91 37 03 3e
       0.07961378 0.061172005 -0.062092666 0.12814166
0000c0 ac ae fc 3c 7f d6 ce 3d 04 9f a3 3d 09 c3 b6 bd
       0.030845009 0.10099506 0.07989314 -0.08923919
0000d0 0c 63 b6 bd 74 18 00 3e 7f 46 43 3c 71 51 8c 3d
       -0.089056104 0.12509328 0.011918663 0.06851471
0000e0 8b 28 e1 bd 8c 46 71 bd 2f 48 f2 bd 2a 3f 5b bd
       -0.10994061 -0.05890517 -0.11830174 -0.053527035
0000f0 d0 55 e0 bc 1b 35 f3 bd 5a 6d 89 3c d5 64 a5 3d
       -0.027384669 -0.118753634 0.016775776 0.08075873
000100 40 5a a3 3d 49 f1 bd bd 50 05 89 3d 9b fd a7 bc
       0.07976198 -0.09274537 0.066904664 -0.02050667
000110 16 48 ab bd 38 fb 74 bc 12 ee cb 3d 4b d7 aa 3d
       -0.08363359 -0.014952473 0.09957518 0.08341845
000120 6a d1 3b 3d 45 c3 d0 3d 14 01 8b 3d 79 b2 e0 3d
       0.04585401 0.10193495 0.06787315 0.10971541
000130 d5 2a 84 bd ee 67 64 bd f9 7d dc 3d 8f f4 f6 3c
       -0.06453482 -0.055763178 0.10766215 0.030145911
000140 17 16 b7 3d 7c d8 b1 3d 3a bf c4 bd 1f 3b de bd
       0.0893976 0.08683869 -0.09606786 -0.1085112
000150 e1 7e 4d bd d0 6e bc bd e2 62 a3 bd 00 e1 b5 3d
       -0.05016983 -0.09200823 -0.07977845 0.08880806
000160 dd 4f 98 3d 7d 53 fd 3d 70 2b d3 3d 93 a3 7c 3d
       0.07437108 0.1236944 0.103110194 0.061679434
000170 ca 98 00 3d cd 4d b4 bd ea 66 7c bd 9e b8 f4 3d
       0.03139571 -0.08803902 -0.061621584 0.119492754
000180 96 4a ef 3d 7c b2 9c 3d 1a 55 da bd 71 e5 a2 bd
       0.11684148 0.07651231 -0.10660763 -0.07953919
000190 f9 27 e7 bc 30 7e 49 bd 14 63 68 bd 0f fe e0 bd
       -0.028217303 -0.049192607 -0.056735113 -0.10985958
0001a0 7f f6 99 3d 3b b1 95 3d e8 d0 40 bd 7d 3a b6 bd
       0.075177185 0.07309195 -0.04707423 -0.088978745
0001b0 5e 46 1f bd a7 a7 5c bd 88 08 16 bd aa 7c 23 3d
       -0.038885467 -0.053870823 -0.03662923 0.03991381
0001c0 99 c4 04 be 20 e8 a4 3c a1 59 b4 3d c5 9d c9 3d
       -0.12965621 0.020130217 0.08806158 0.09844545
0001d0 b9 38 a8 3d 3b 7c b8 bd 05 54 d0 bc 28 8f 52 3d
       0.08213944 -0.0900807 -0.025430689 0.051406056
0001e0 f1 90 a6 3d 59 7f 9a 3d 2d 8d eb bc 29 a7 98 bd
       0.08133114 0.07543821 -0.028753841 -0.07453758
0001f0 6e d9 c0 3d 59 2a 03 be 2b 45 b2 bd 74 1f 22 bd
       0.094164714 -0.12809123 -0.08704599 -0.039580777
000200 45 19 c6 3d f2 77 75 bd ba 3e c2 3d 2d 48 f0 3d
       0.096727885 -0.059928842 0.094846204 0.117325164
000210 f7 8f a2 bc f6 26 0c 3e 2b ea c3 3d d8 74 52 bd
       -0.019844038 0.13686737 0.09566148 -0.051380962
000220 64 03 1e 3d d1 9e b9 bc 86 3b b5 bd e4 7b fe bd
       0.038577452 -0.022658737 -0.08849244 -0.12425974
000230 2f 62 a5 bd 75 ca 1c bd 04 2f 7a bd 3a 30 9a 3d
       -0.08075368 -0.038279016 -0.061079994 0.0752873
000240 2d 39 3c 3d 79 6c 15 3d 90 06 e5 3c 5e 9b bf bc
       0.045952965 0.0364804 0.02795723 -0.023389515
000250 27 ba 6c 3d 6a 3b c1 3d 74 a4 1f bb de 30 89 3d
       0.057794716 0.094351605 -0.0024359496 0.06698774
000260 4e ee 9a 3c ca 84 ce 3d 60 f1 84 bd f9 5b bb 3d
       0.01891246 0.10083921 -0.06491351 0.09148402
000270 8e 98 ab bd 44 ff 8e bb 1e a3 a3 bc 90 ff 04 3b
       -0.08378707 -0.004363926 -0.019975241 0.0020293929
000280 5e f5 9c 3d 22 2d e2 bd 5d b4 5a 3d d7 b8 75 bb
       0.076639876 -0.11043765 0.053394664 -0.0037494206
000290 84 70 08 bd fb 5b 9b bd 7b 14 e9 3d 8c d6 17 bd
       -0.03331043 -0.07585903 0.113808595 -0.037069842
0002a0 fc ac 17 bd f5 0c 0c bd 1a 5b 6b bd 05 60 f0 bc
       -0.037030205 -0.034192044 -0.057459928 -0.02934266
0002b0 ee 3b a1 3d 7e 3c 52 bb 83 b5 91 bd fe 6e bc bd
       0.07872759 -0.0032079513 -0.07114699 -0.092008576
0002c0 bd f9 2a 3d 0a cf aa 3d e1 75 45 3d fe fb 56 bd
       0.041742075 0.08340271 0.04820812 -0.052486412
0002d0 7e de 93 bd 63 a4 7f 3d 06 38 f2 bd 58 6c 52 bd
       -0.072201714 0.06241263 -0.11827092 -0.051372856
0002e0 df 4f f7 3c ba 64 2a bc f0 f5 77 3d e8 36 1a 3d
       0.030189453 -0.010399992 0.06053728 0.03765002
0002f0 a2 d2 39 bd 59 93 b7 3b 82 e3 95 bd e1 8d 6d bd
       -0.04536689 0.005602282 -0.07318784 -0.057996634
000300 27 8d 20 bd 48 b5 d3 bd 93 0e d7 bd 3b 1b c3 bd
       -0.039197113 -0.10337311 -0.10500827 -0.09526678
000310 3b 86 04 be 51 4f e0 3c 55 98 03 bd 09 89 24 bd
       -0.1294183 0.027381571 -0.032127697 -0.04016975
000320 02 d2 83 bd 38 2e 83 bd cd db e0 bc 69 db 56 3d
       -0.0643654 -0.064053 -0.02744856 0.05245534
000330 b3 24 a3 3b 62 6c fa bc bb fa d8 3d a7 18 88 3d
       0.00497874 -0.03056926 0.10594698 0.06645327
000340 70 2f 5b bd b2 76 75 bd 6f 0a c1 bd c8 46 07 3d
       -0.053512037 -0.05992765 -0.09425818 0.033026487
000350 66 07 4a bd db 06 ac 3d ae 0e 22 bd cb c7 5b bd
       -0.049323462 0.08399745 -0.03956478 -0.053657334
000360 ef fa ed 3d 07 d5 da 3d 43 24 48 3d 00 d4 7f bd
       0.116201274 0.10685163 0.048862707 -0.06245804
000370 75 cc 8f 3d 7e e7 91 3d a2 77 ed 3d a2 77 7d bd
       0.07021419 0.07124232 0.11595084 -0.06188167
000380 f9 5d 98 bd 64 52 dc 3d 18 ef cb 3d e4 3d ec 3c
       -0.07439799 0.10757902 0.09957713 0.028838105
000390 ec c1 cb bd 65 ed d3 3d 22 e4 a2 ba e7 2c f2 bd
       -0.09949097 0.10348014 -0.0012427608 -0.11824971
0003a0 a7 f8 07 bd 3b 95 b1 bd 81 ba 31 bd 69 cd f5 3d
       -0.033196118 -0.086710416 -0.043390755 0.120020695
0003b0 d8 62 07 be 35 6a ad 3c 1c 0a a3 3d 06 98 3e 3d
       -0.132213 0.021168808 0.079609126 0.0465317
0003c0 ea ce 18 bc f8 d2 be 3d fb f2 5d 3d 49 6e eb bd
       -0.009326676 0.09317583 0.054186802 -0.114956446
0003d0 3f c3 bc 3d 4a b6 04 bc 7d 23 b4 3d 36 f0 1f 3d
       0.09216928 -0.008100102 0.08795831 0.039047442
0003e0 cc 7a 9f 3d 85 59 83 3d 5e ec 26 3c 87 93 93 bd
       0.077870935 0.06413559 0.01018819 -0.07205873
0003f0 bf 55 c7 3d 64 c1 9a b8 43 d8 77 bd 1c d9 dd 3d
       0.09733152 -7.379314e-05 -0.060508978 0.10832426

lstm.bias_hh_l0 f4 [256]
000000 11 1d ab bd 36 1c 49 3d f4 5b 98 3d ac 1c b2 3d
       -0.08355153 0.04909917 0.07439414 0.08696875
000010 0a d8 dc 3c 47 d2 04 ba 56 cc 92 bd 11 5f 94 bd
       0.026958484 -0.0005066734 -0.0716788 -0.07244695
000020 ad 6c 7d bd 3f ac b1 bd 90 d7 8d 3d 8d cd 19 bc
       -0.06187122 -0.086754315 0.06925881 -0.009387386
000030 f7 72 c6 bb 27 4e 7c 3b 6a 6b 6a bd 55 65 b3 3d
       -0.0060561853 0.003849873 -0.057231344 0.08759562
000040 41 83 8c 3d 5a ad eb bc 25 55 a2 3d da 5a 11 3d
       0.06860972 -0.028769184 0.07926396 0.035487033
000050 a7 78 8c bc 29 f6 94 bc 0b 77 b3 bd ec 47 a7 bd
       -0.017147375 -0.018183785 -0.0876294 -0.08168015
000060 50 41 c2 3d 58 b3 e2 bd d7 48 f7 3d e8 f2 4b bc
       0.094851136 -0.11069363 0.1207444 -0.01244805
000070 d9 e2 6f 3d a6 d4 0e bd b0 2e c9 3d 27 98 47 bd
       0.05856595 -0.034870766 0.09823358 -0.04872909
000080 a0 b6 43 3d ad 62 63 bd fd ca 1f 3d 69 34 d0 3d
       0.047781587 -0.055514026 0.039011944 0.101662464
000090 cd 5d 27 bd 8d 34 52 3d a8 8c 9c bc 0f e9 76 3d
       -0.04086094 0.051319648 -0.019110039 0.060280856
0000a0 85 2c 8e b9 6d b7 db 3d ad bd af 3d 8f 1d f7 3d
       -0.0002711752 0.10728345 0.085811 0.12066185
0000b0 23 23 ed bd c8 67 09 3e 88 8b 31 bc 8f fa 9e 3d
       -0.115789674 0.13418496 -0.0108364895 0.07762634
0000c0 a7 60 9c ba d6 1e 4b 3d cd 99 5d 3d 41 79 1b 3d
       -0.001193066 0.049589954 0.054101754 0.037957434
0000d0 5f 26 ef 3d 6d d4 8e 3d ef 95 ec bd d6 1b 61 bc
       0.116772406 0.06974111 -0.11552035 -0.013739547
0000e0 c1 a6 5f 3d 7a 1d 93 3d 6b 68 c5 3c df 64 56 bc
       0.05460239 0.071833566 0.024097642 -0.013085573
0000f0 67 0e 47 3d c2 81 fc 3c 4f 74 e7 bd ee 58 91 bc
       0.04859772 0.030823592 -0.11301481 -0.0177426
000100 5e 14 99 3d 1f bd b6 bc e9 ba 86 bd 0f 22 1a bc
       0.07474588 -0.022306977 -0.06578619 -0.009407534
000110 3f e6 26 3d 87 ee 9c bd 26 1d b2 3d bf 3f f1 3d
       0.040746924 -0.07662683 0.08696966 0.11779737
000120 2b d2 5e 3d 48 fa 88 3d e0 c8 69 3d b4 55 94 3c
       0.05439965 0.06688362 0.057076335 0.018107273
000130 ca 7a ae bb f5 e4 69 3d 2e a8 f5 bd 84 9b 9e 3d
       -0.005324696 0.057103116 -0.11994968 0.07744506
000140 5c 6a 8b bb 13 f4 09 3d 58 fa 95 bc da 85 07 3d
       -0.0042546224 0.033680033 -0.01830785 0.033086635
000150 6e 54 d4 bb 0a 0c 05 3e e9 33 48 bd e4 27 01 be
       -0.0064797914 0.12992874 -0.04887763 -0.12612873
000160 43 b9 e9 bd 57 8a b7 3d 00 8d c5 3d 02 4b 59 bd
       -0.11412289 0.08961933 0.09646034 -0.05305005
000170 05 b9 94 3d df 5d 8e bd ac ba 6b bd c2 f0 ad 3d
       0.07261852 -0.06951498 -0.05755107 0.084931865
000180 f6 6b c9 3d 47 9b 17 3d 44 a9 e5 3d d6 d8 14 3d
       0.09835045 0.03701332 0.112139255 0.036339603
000190 68 24 b0 3d 30 69 bc 3c 85 70 55 bd 8d 82 6b 3c
       0.08600694 0.022999376 -0.05210926 0.014374387
0001a0 c1 61 81 3d 34 34 5a ba ef 84 e7 3d 78 ed 4f bd
       0.06317473 -0.0008323819 0.11304652 -0.050763577
0001b0 6a df 3e 3d f8 65 82 3d bb 35 b9 bb e8 28 6d bb
       0.046599783 0.06367105 -0.005652157 -0.0036187712
0001c0 96 53 9e bd 8c 2e 3a 3d 2e d2 f6 bc a2 2d a0 bc
       -0.077307865 0.045454547 -0.030129518 -0.01955301
0001d0 e3 65 df 3d 44 50 c5 3d 87 65 75 3d 0c 6c fa 3d
       0.10908105 0.0963445 0.059911277 0.122276396
0001e0 45 66 92 3d 7b 82 42 bc ce 11 f9 bd d1 65 84 3d
       0.071484126 -0.011871929 -0.12161599 0.064647324
0001f0 58 22 ae 3d 92 26 d3 3d a3 24 bd bd 1e ac 00 3d
       0.08502644 0.10310091 -0.092355035 0.031414144
000200 78 fd 04 3d 25 be ab bd fa 93 f2 bd 60 00 b3 bd
       0.03246829 -0.083858766 -0.118446305 -0.08740306
000210 2f c2 5f bc 75 26 36 3c 93 c9 78 3d 58 ee 6f 3d
       -0.013657137 0.011117567 0.06073911 0.05857691
000220 14 8c 6e bc 5e c8 17 bd 10 5e 0b bc 4c d8 d3 bd
       -0.014559764 -0.03705632 -0.008506313 -0.1034399
000230 2a d5 fc bc 54 b3 e1 3d 9f b3 ce bd db 94 82 3d
       -0.030863363 0.11020532 -0.10092854 0.06376048
000240 13 14 ca 3d 4c 0d e7 3c f2 0a 59 3d 52 b5 10 bd
       0.0986711 0.028204583 0.052988954 -0.03532917
000250 fb 56 cd 3d e9 ee 5b 3d 92 57 0d bd 59 ef 23 3d
       0.10026356 0.05369464 -0.03450734 0.04002318
000260 8e 4a cd 3d ee 60 bd bc 31 3b ad 3d 5c fe 5f bd
       0.10023986 -0.023117509 0.084585555 -0.054685935
000270 23 69 d6 bd 5b 99 4f 3c c3 37 bd bc e2 a5 bf bd
       -0.10469272 0.01267084 -0.023097878 -0.093578115
000280 45 4a a7 bc 65 67 95 3d 6e 59 e7 bd 37 e5 c5 bd
       -0.020421157 0.072951116 -0.11296354 -0.0966286
000290 ac 66 6a 3b 7d d4 ed 3d c9 4d ac 3d ab e6 86 bd
       0.0035766764 0.116127945 0.08413274 -0.06586965
0002a0 24 05 8e 3d 36 b6 a3 3d 79 9b 63 3a d0 3d 9d 3d
       0.06934574 0.07993738 0.000868253 0.076778054
0002b0 88 ee bd bd 27 1f cc 3d 19 4f e8 bc 86 81 4d 3b
       -0.09274012 0.09966879 -0.02835803 0.003135772
0002c0 cb 6a 6e bc d7 7c 30 bc d8 c2 d0 3c b3 5e aa 3c
       -0.014551829 -0.010771952 0.025483534 0.02079711
0002d0 4c 91 d9 bd 9b aa f0 bc 25 11 1c 3d 26 78 27 bc
       -0.10623416 -0.029378226 0.038102288 -0.010221517
0002e0 8e 4f 57 3c b3 0a d1 bd 1b 6c a0 3d 9d 36 0d 3d
       0.013141526 -0.10207119 0.078331195 0.03447591
0002f0 4e 7c 25 bd 35 24 a8 bc 28 dd 82 3d 7c ee c4 bc
       -0.04040175 -0.020525077 0.063898385 -0.0240395
000300 6e 6d d8 3d d4 86 c4 3d dc 2f 86 3d 29 51 2b bd
       0.10567747 0.09596029 0.06552097 -0.041825447
000310 88 6a 1e 3d 55 bc ba bd b1 2c da 3d b6 0e 6a bd
       0.038675815 -0.09117953 0.106530555 -0.057142936
000320 69 ca e9 bd 9e 28 00 3e 32 2a c2 3d 87 9f c2 bd
       -0.1141556 0.12515494 0.09480704 -0.09503084
000330 72 aa e4 bd 5a 26 88 bc f3 a5 c1 bd 9d b1 49 bd
       -0.11165322 -0.01661985 -0.094554804 -0.04924165
000340 4b 5f da bc 6d 5b cc bc d5 bd 58 bd 07 57 b3 3d
       -0.026656767 -0.024945939 -0.052915413 0.087568335
000350 de 34 be 3d 5d e6 87 3d a2 1e a6 3c 71 a5 c3 bd
       0.09287427 0.06635735 0.020278279 -0.0955304
000360 de 9c dd 3d dd 30 87 3d fa c3 f2 3d ae 0a c2 3d
       0.10820936 0.06601117 0.11853786 0.09474693
000370 50 c7 21 3d cd 70 a5 3c 04 6b 0b bb 06 c2 13 3d
       0.03949672 0.02019539 -0.0021273503 0.036073707
000380 2f 66 36 3d e0 69 86 bd d0 e1 88 3c ac 3f 38 bd
       0.044531044 -0.06563163 0.016709238 -0.044982597
000390 24 97 6b bc b4 5c 02 be fe 3b 7b 3d 31 b7 cb 3c
       -0.014379296 -0.12730676 0.06133651 0.024867626
0003a0 0b c4 81 bd 67 b5 d5 3d aa 3c be 3d 65 21 82 bd
       -0.0633622 0.104349904 0.092889145 -0.06354026
0003b0 05 9e ca 3d bc 9f 3a 3d 80 88 4c 3d 3f e4 95 3d
       0.09893421 0.04556249 0.049934864 0.07318925
0003c0 96 20 0b bc c5 e8 bc 3c e4 28 bd bd d6 fe 06 3d
       -0.008491656 0.023060212 -0.09236315 0.032957874
0003d0 bd f1 ce bb 0d cd 4a 3b 38 a9 8c 3d 79 a1 e6 3d
       -0.0063154385 0.0030944974 0.068682134 0.11261267
0003e0 de 85 87 bd da 99 ce bc c9 d2 96 3d 14 eb 81 3d
       -0.0661733 -0.025219847 0.07364423 0.06343666
0003f0 12 30 ac 3d 71 26 d3 bd da 8d 5a 3d 78 72 08 bd
       0.08407606 -0.103100665 0.053357936 -0.03331229

lstm.weight_ih_l0_reverse f4 [256, 3]
000000 a1 0e 88 3d b9 48 c0 bc 7b fd 19 bc 06 3a 8c bd
       0.06643415 -0.023472177 -0.009398813 -0.068470046
000010 b1 4b 02 3e d0 50 8b bd f9 23 1e bd 52 d5 8a bd
       0.12724186 -0.06802523 -0.038608525 -0.06778969
000020 a4 a0 4f 3d 0a 25 7e bd 54 77 2f bd 9b 69 a1 3d
       0.05069031 -0.062047042 -0.04283841 0.07881471
000030 1c c9 cc 3d 8c 45 43 bd 85 5c 86 bd 14 45 e4 3c
       0.09999296 -0.047673747 -0.065606155 0.02786497
000040 5f 17 d9 3d 19 b0 b6 3d 6b 2a 1a 3d bd f0 75 bd
       0.10600161 0.08920307 0.03763811 -0.06004404
000050 29 91 a7 bc a6 6b 1d 3d 49 dd 62 bd c4 c1 51 bc
       -0.02045496 0.03843274 -0.055386815 -0.012802545
000060 e5 36 3e bd 25 e2 d5 3d a0 19 f2 3d 41 93 e4 bd
       -0.04643907 0.10443524 0.11821294 -0.11160899
000070 00 5b 8d bd 74 a0 81 3d 6e b0 89 bc 37 e5 5a 3d
       -0.069021225 0.06329432 -0.016807761 0.053441253
000080 a9 56 fd 3d ec 85 32 bd db d6 04 3c 9c dc 1d 3e
       0.12370045 -0.04358475 0.008107866 0.15416187
000090 23 21 a4 3c d1 af 7f bd f8 2f ea 3c 96 ba c4 bc
       0.020035332 -0.06242353 0.028587326 -0.024014752
0000a0 32 09 e3 bd 6c a8 f0 bd f2 66 9a 3c 93 f7 fe bc
       -0.11085738 -0.11750874 0.018847916 -0.031123912
0000b0 4d 2d 25 bd 3b 0a 8d 3d cd 5e d2 3d e1 88 d9 3d
       -0.040326405 0.06886717 0.10271988 0.10621811
0000c0 7a 65 89 3a ca 2d ad bd 9d 82 30 bd 58 d3 15 bd
       0.0010482513 -0.08455999 -0.043093313 -0.036578506
0000d0 25 18 4a 3d 1c 97 f3 bc f0 5a 15 bb 22 7f 48 3d
       0.049339432 -0.02973514 -0.0022789799 0.04894937
0000e0 0c b6 1b bd f7 c6 c4 bd df ef e0 3d 58 98 c0 3c
       -0.03801541 -0.09608262 0.10983252 0.023510143
0000f0 38 71 77 3d f6 39 96 3c d8 14 09 3c f7 24 c6 3d
       0.06041071 0.018338185 0.008366786 0.09675019
000100 c1 68 09 bc 5d c0 11 be 19 fa f6 3c 07 a0 e1 3d
       -0.008386792 -0.14233537 0.030148553 0.11016851
000110 e3 77 9f 3d c6 79 e5 bd 42 ed e5 3d f5 40 dd 3d
       0.077865385 -0.11204867 0.11226894 0.10803405
000120 fa 88 cb bd f5 91 92 bd 49 22 3d bd 49 e8 29 3d
       -0.099382356 -0.07156745 -0.046175275 0.04148129
000130 6d 08 f6 bd c0 ca ff bd 0c 46 d6 3d 8d ec dc 3a
       -0.12013326 -0.12489843 0.10462579 0.0016855166
000140 1e 06 6a 3d 88 e3 ca bd 90 16 00 3d d6 87 10 3e
       0.05713474 -0.099066794 0.031271517 0.14114317
000150 db 56 8c bd 79 42 73 bd 12 4c 98 bd ae 18 66 bd
       -0.06852504 -0.059389565 -0.07436384 -0.05617588
000160 eb 02 21 bc 85 76 fa 3c 64 7e 52 3d 32 7d d3 bc
       -0.009827356 0.030574093 0.051390067 -0.025816534
000170 90 8e fc 3c df 77 84 3d cd d9 19 bc 03 2e 27 bd
       0.030829698 0.06468176 -0.009390307 -0.040815365
000180 7a bc dc 3d 48 3f 3f bd f2 d4 84 3d e5 64 2c bd
       0.107781366 -0.04669121 0.064859286 -0.042088408
000190 d1 e0 9a bd 4c 33 2a bd 7b 60 74 ba 0a c5 89 bd
       -0.075624116 -0.041552827 -0.0009322238 -0.06727035
0001a0 fb 03 b5 bd f2 ed e5 bc 4b 80 52 3d 4f 44 d3 bd
       -0.0883865 -0.028067563 0.05139188 -0.10315763
0001b0 76 68 96 3d b3 35 c8 3d fb b8 b7 3d cd d0 96 bd
       0.07344143 0.09775867 0.08970829 -0.07364044
0001c0 b0 ca 0f 3c 43 ab 3c 3d ae 35 12 bd 36 3b cc bd
       0.008776352 0.046061765 -0.035695724 -0.09972231
0001d0 1a 89 34 bd 72 36 a8 3d 74 02 e4 3c 34 06 ba bc
       -0.044076063 0.082135096 0.027833201 -0.022708036
0001e0 de 99 8d 3d 49 55 a8 bd 81 b9 cc 3c cb 5b 52 bd
       0.069141135 -0.08219392 0.024990799 -0.05135707
0001f0 cc b1 01 3d b3 7f c3 bd 11 ae a5 bd 80 af 95 bd
       0.0316637 -0.09545841 -0.08089841 -0.073088646
000200 b1 bb 2c bd 8c 30 9e 3d 86 c2 3e 3d e2 8d f6 3d
       -0.042171184 0.07724103 0.04657223 0.12038781
000210 3d 37 d5 3d 85 40 d8 3d 70 a0 ec bd e2 5d be bd
       0.104109265 0.10559181 -0.115540385 -0.092952505
000220 42 aa e6 3a 95 97 9b bd 7d 10 ff bd 8d d0 18 3d
       0.0017598348 -0.07597271 -0.12454317 0.037308265
000230 6a c5 61 3d d9 42 3b bd cb 00 ae 3d bf e2 7e bd
       0.05511991 -0.045718048 0.08496245 -0.06222796
000240 b8 df 73 bd 2c 57 33 bd 9c ba 5a 3d 77 f1 e5 bc
       -0.059539527 -0.043784305 0.05340062 -0.028069241
000250 29 62 f0 bd 84 4a 03 bd fd 21 14 bd 98 b4 17 3c
       -0.117374726 -0.032053486 -0.036165226 0.0092593655
000260 43 98 4f bd 74 b9 2b bd 19 bb 19 bd 2d 19 a6 3d
       -0.050682317 -0.04192491 -0.037531946 0.08110271
000270 36 e1 23 bd 0d 4a 23 bd 36 7f 08 3d 80 8c c1 3c
       -0.0400097 -0.039865542 0.033324443 0.023626566
000280 d6 06 a6 3d 0a cd 47 3d da fc ad 3d 1c e0 b8 bd
       0.081067726 0.048779525 0.08495493 -0.090271205
000290 3d a2 ed bd 51 04 c0 3d 8e 6e f4 3c 99 0c 65 3d
       -0.1160321 0.09375823 0.029837873 0.055920217
0002a0 e8 52 3f 3d 26 c6 01 3d 28 d2 76 bd c5 a5 49 bd
       0.046709925 0.03168311 -0.060259014 -0.049230356
0002b0 ab 93 e6 bd 4f 6b 0f 3d 9f 79 be 3c 21 1d 9b bc
       -0.11258634 0.035014447 0.023251353 -0.018934788
0002c0 47 4f d1 3c ad fc 82 3b c8 b8 7b 3c 9d 55 a9 3c
       0.025550498 0.0039974065 0.0153638795 0.020670706
0002d0 20 ab 08 3e e7 cd ce bc ee 1e 92 3d 51 2e c1 3d
       0.13346529 -0.025244666 0.071348056 0.09432662
0002e0 81 57 83 3d 22 f5 2d bd e1 34 8d 3d ac ef e5 bc
       0.064131744 -0.042470105 0.068948515 -0.028068386
0002f0 6a de 03 3d 70 8a a4 bd 60 e0 92 bd 3f e1 04 bd
       0.032194532 -0.08034217 -0.071717024 -0.032441374
000300 57 0a ef 3d a7 13 75 bc 28 3c ff 3c 0f 20 33 3d
       0.11671894 -0.014958299 0.031156614 0.043731745
000310 40 aa a4 bd 12 2e 87 bc 18 35 78 bd aa f0 22 bc
       -0.08040285 -0.01650146 -0.06059751 -0.009945074
000320 db 87 3b 3d 6e 8a ff bc 9d 3c a7 bd bc cb 21 3d
       0.04578386 -0.031193938 -0.08165858 0.039500937
000330 4c d8 46 bd 5e 03 ae 3c b9 3f b4 3d c2 ce b5 3d
       -0.04854612 0.02124184 0.08801217 0.088773265
000340 7f e2 cd 3d b7 9a 38 bd 92 5c af 3d be 9c 30 bc
       0.10052966 -0.045069423 0.08562578 -0.010779558
000350 36 2b c3 bd 5b d5 1e 3d 72 b7 d1 bd 34 cb b1 bd
       -0.09529726 0.03877769 -0.102400675 -0.08681336
000360 01 c9 a9 3b f1 cd f9 3d 31 4f 07 3d 8e 68 a0 bd
       0.0051814322 0.12197483 0.033034507 -0.07832442
000370 da 62 f7 3c e5 67 a8 bd dd 3c 55 bd e3 99 a0 bb
       0.030198503 -0.08222941 -0.052059997 -0.004901157
000380 3a 60 8f 3d d7 fa 88 3c 34 cc ee 3d 04 c0 8b 3d
       0.07000776 0.016721172 0.116600424 0.068237334
000390 a0 27 e6 3d ca 28 41 3d 55 d8 be 3c 62 ac 0b 3d
       0.112380266 0.04715804 0.023296515 0.034099944
0003a0 e2 19 da 3d 9e 32 c7 3d e1 ef e2 ba 31 e3 8d bd
       0.10649468 0.09726451 -0.0017313921 -0.06928099
0003b0 c2 2e 16 bc 70 06 fe 3b 46 e3 b0 3d 3c 41 b7 bc
       -0.009166421 0.0077522323 0.08637099 -0.022369973
0003c0 4d ad 27 3d e6 17 90 3d 98 84 42 3d a3 6d b5 3d
       0.040936757 0.07035808 0.047489733 0.08858802
0003d0 7f a7 8e bd 63 4f 1c 3d 9a a0 ee 3d e5 75 a8 bd
       -0.06965541 0.038161647 0.11651726 -0.082256116
0003e0 1e 15 f7 3a 46 1f b1 3d 60 e6 de 3d a8 db 0f be
       0.0018850898 0.08648543 0.10883784 -0.14048636
0003f0 b0 2a c9 bd 67 7d bb 3d f6 b3 3b bc db a2 21 3d
       -0.09822595 0.09154778 -0.01145648 0.03946195

lstm.weight_hh_l0_reverse f4 [256, 64]
000000 35 06 8b 3d 72 3d ae 3d 82 ee 85 3d b4 41 3e bd
       0.06788293 0.085078135 0.065396324 -0.046449378
000010 bd 96 cc 3d dc d9 9c bd 37 46 e4 3d 97 6d a8 bc
       0.099896885 -0.07658741 0.11146205 -0.020560069
000020 6b e0 9d 3d cf b7 f7 bd 10 04 38 bd a1 ce e9 3d
       0.0770882 -0.120956056 -0.04492575 0.114163645
000030 97 f4 bf 3d a2 25 12 bc 94 ed 9d 3c 8c bb 74 bd
       0.09372824 -0.008920105 0.019278325 -0.05974917
000040 25 a7 c7 bd 63 eb 64 bd 7b 17 0d 3d 9b 76 84 bd
       -0.09748677 -0.055888545 0.03444622 -0.06467935
000050 04 0c 22 ba 5c 30 da 3d 65 93 e1 3c a6 41 cc bc
       -0.00061816 0.10653755 0.027536104 -0.024933647
000060 03 82 c0 3c 36 6a 8b 3d 7a b6 8c bd be 0d 17 bd
       0.023499494 0.068073675 -0.06870742 -0.03687834
000070 12 57 c7 bd 18 a7 30 bc 0c 9e c6 3d 25 7a ad 3d
       -0.09733404 -0.010782026 0.09698114 0.08470563
000080 15 8a ae 3d 66 e0 04 3e ae 8d 8e 3d 94 39 d6 3c
       0.08522431 0.12976226 0.06960617 0.026150502
000090 1c 28 df bd ad 61 dc bd 7f 92 9b bc 21 95 f9 bd
       -0.10896322 -0.10760818 -0.018990753 -0.12186647
0000a0 36 08 47 bc 76 8b a4 bd cc a8 f9 bd 8b db 9a bc
       -0.012147954 -0.080344126 -0.121903986 -0.018903514
0000b0 2b dd 7a bc 2e f2 e4 bd ae 5b 07 3c 10 b9 4f bd
       -0.01531152 -0.111790046 0.008261604 -0.0507136
0000c0 96 c0 d2 3d da 83 71 bc 53 fd 1d 3d d2 a3 b0 bd
       0.10290639 -0.0147409085 0.038571667 -0.08624996
0000d0 80 d9 29 bd 92 47 ae 3d 9d 8f af bd bc ec df 3d
       -0.04146719 0.08509745 -0.08572314 0.109338254
0000e0 5d 2c 73 3d ca 8c ea bd 5d d3 f0 bc 5c 09 b7 bd
       0.05936848 -0.11452635 -0.02939766 -0.08937332
0000f0 c4 e2 00 bd 32 01 06 3d a9 c6 90 bd 5c 8e 67 3d
       -0.03146626 0.032715984 -0.070691414 0.05653225
000100 6e e5 1b 3c e3 b7 aa bd 2d 7b 17 bd 30 d4 0b be
       0.0095151495 -0.08335855 -0.036982704 -0.13655162
000110 92 7d be bd 50 c3 10 bd af 0f b8 3d 47 cf f6 bd
       -0.093012944 -0.035342515 0.089873664 -0.12051254
000120 b7 68 33 bd cb b0 ab 3d 30 6a ee bd 1b 7f 8b bd
       -0.043801036 0.0838333 -0.116413474 -0.06811353
000130 06 0a c6 3d 28 7a bb bd e4 69 28 3d 27 d2 0e be
       0.096698806 -0.09154159 0.04111661 -0.13947354
000140 bd 15 95 3c f0 17 45 3d d1 de 58 3d 04 c1 79 3c
       0.018198842 0.04811853 0.05294687 0.015243772
000150 93 ee 39 bd 24 53 14 3d 33 f4 d4 bb d2 88 b1 bd
       -0.045393538 0.0362121 -0.0064988374 -0.086686745
000160 4b 33 13 be 9b b1 b5 3d 0d 7b 08 be 55 77 95 bb
       -0.14375035 0.08871766 -0.1332819 -0.0045613446
000170 a2 45 9c 3c 5a 95 fc bd b5 4e 2c 3c 52 cc c8 3d
       0.019076172 -0.12333174 0.010516812 0.09804596
000180 4d c3 d4 bd 33 42 16 bc 49 e2 8b bd eb b9 ad bd
       -0.10388813 -0.009171057 -0.0683027 -0.08482727
000190 3e 3c b2 bc 18 84 aa bc 33 da 0d 3e b4 b2 af bd
       -0.021757241 -0.02081494 0.13852768 -0.08579007
0001a0 25 99 d4 3d 0d d1 5e 3d 2f 41 d0 bd ad db 66 bd
       0.103807725 0.054398585 -0.10168683 -0.056361843
0001b0 7d 2b 59 bd 2e 43 12 3e 7e d6 9b 3c 80 4f 49 3b
       -0.05301999 0.1428344 0.019023176 0.0030717552
0001c0 90 19 f9 3d 64 61 20 bd 35 48 3a ba 99 4f 40 3d
       0.12163079 -0.03915538 -0.00071060966 0.04695091
0001d0 65 b4 ca 3d ed 5b 2d bd 85 2e e6 bd d3 11 e2 bc
       0.09897689 -0.042323995 -0.11239342 -0.02759639
0001e0 90 dc 86 bd 34 73 0c be ca 1f b8 3d 8a 16 56 bd
       -0.06585038 -0.13715822 0.08990438 -0.05226759
0001f0 f3 f5 2e bd 49 b1 a9 3d 16 8a 10 3e f7 a3 bc 3c
       -0.042715024 0.082857676 0.14115176 0.023027403
000200 0a 99 e4 3d 31 13 e4 bd cd e2 10 bc 89 1f 84 3d
       0.111620024 -0.11136473 -0.008843136 0.06451327
000210 6d a8 71 bc c4 7f cb 3d 39 d3 c6 3d 9e 4d 7b 3d
       -0.0147496285 0.09936479 0.09708256 0.06135332
000220 e6 25 f8 bb f3 7a f5 bd 79 6d 05 3e 64 5f d0 bd
       -0.007572877 -0.11986341 0.13030042 -0.10174444
000230 69 8a 47 bd 7e 72 89 3c 1b ae d1 bc 95 a8 0b 3d
       -0.048715983 0.016778227 -0.025595715 0.03409632
000240 54 bc 05 bd bf 45 8b bb 00 ef 99 3b 84 16 eb bd
       -0.032650307 -0.0042502577 0.0046976805 -0.11478904
000250 40 13 ca bc 0f 15 0a 3d 25 dc 7d 3d f7 54 9a bd
       -0.024667382 0.03371149 0.061977524 -0.07535737
000260 09 68 f4 3d 69 f9 b7 bd 86 f5 0b 3e 7c c0 4a bc
       0.11933906 -0.08983118 0.13667879 -0.012374993
000270 71 1a 2c bd e3 78 8c 3c 9f ca 9e 3d 78 0e c7 bd
       -0.042017404 0.017147487 0.07753491 -0.097195566
000280 2c 6c c0 bd 9e d6 02 3e d1 67 86 bd d5 9f ea bc
       -0.09395632 0.12777182 -0.0656277 -0.028640667
000290 dc 4c d4 bd eb 93 02 be 9e db 86 3d fd 69 07 3d
       -0.10366222 -0.12751739 0.065848574 0.033060063
0002a0 ad b1 cd 3d 4e 72 61 3b bc fe 5b 3b 82 5f 7e bb
       0.100436546 0.0034400406 0.0033568582 -0.0038814251
0002b0 bb de d6 bc 33 44 be bd 53 11 45 bd 2b b8 ac bd
       -0.026229253 -0.09290352 -0.048112225 -0.08433565
0002c0 96 5d 20 3d 23 0e df 3d fd 68 02 bd 25 89 f5 3c
       0.03915175 0.10891368 -0.031838406 0.029972622
0002d0 0c f9 00 3d f0 86 8e bd 2d 67 85 bd d1 96 20 bd
       0.03148751 -0.06959331 -0.0651382 -0.03920633
0002e0 54 7d f9 3d f6 ac da 3c b4 c8 a7 3d e3 05 ba bc
       0.121821076 0.026693802 0.08192578 -0.022707885
0002f0 61 7b a3 bd 74 0b e2 3d 5c 3a 4c bc d7 d8 d1 3d
       -0.07982517 0.11037341 -0.012465086 0.10246437
000300 6a 6e 37 3c 43 46 fd 3d 69 24 ca 3c dc 50 cf 3c
       0.011195758 0.12366917 0.024675565 0.025307111
000310 1a e4 49 3d 53 4f cf bd 8e da 26 3d da 4a c0 3c
       0.0492898 -0.10122552 0.040735774 0.023473192
000320 c5 40 34 3d ba 39 a6 3b b9 24 4a bd fe 9b 1f 3d
       0.04400708 0.0050727995 -0.049351428 0.038967125
000330 4a ec 58 3d a5 56 9a bd 4a be 8a 3d 97 7f 02 bd
       0.052959718 -0.075360574 0.06774576 -0.03185996
000340 99 c1 9c 3d 9b ba c9 bd 81 5e 16 3d de 81 a6 bd
       0.07654113 -0.09850045 0.03671122 -0.08130239
000350 b2 02 d9 3c 8a 52 a6 3d fd 74 f0 3d 5f 3c 1d bc
       0.026490543 0.08121212 0.11741064 -0.009596913
000360 2d e7 10 bc 29 f2 c8 3d ad 6f dd 3d 7d 46 06 ba
       -0.008844179 0.098118134 0.10812316 -0.0005122198
000370 cc 6f e7 ba 89 22 bc bc 73 fd d6 bd 68 0a d2 3c
       -0.001765722 -0.022965686 -0.1049756 0.025639728
000380 c5 23 bc bd b1 55 84 3d 25 3d ea bd 6e a7 a6 bc
       -0.0918651 0.06461657 -0.11437444 -0.020343509
000390 04 6c 34 3b 98 18 d4 3d 8b 66 d2 bd 54 9b a1 3d
       0.0027530203 0.103562534 -0.10273465 0.078909546
0003a0 d8 ae b5 3d d2 24 8b bd e9 39 ab bd a5 6b c5 3d
       0.088712394 -0.06794132 -0.08360655 0.09639672
0003b0 36 21 80 3d dc c3 ad 3c c0 35 01 3e 32 9a b7 3d
       0.062563345 0.021211557 0.1261816 0.08964957
0003c0 d3 63 68 bd 55 d4 93 3b 64 fd b0 3d 99 5d 15 3c
       -0.056735825 0.004511396 0.086420804 0.009116554
0003d0 b9 64 ef bd 37 ce f2 bd 60 7f 47 bd f7 1a e3 bd
       -0.11689133 -0.118557386 -0.04870546 -0.110891275
0003e0 70 51 f8 bd 4b fa dc 3d 94 79 10 3d 13 d5 cb bd
       -0.12124908 0.10789927 0.035272196 -0.0995275
0003f0 ee a9 bb 3d a2 14 24 3d e9 08 b3 bc b7 75 c9 bd
       0.09163271 0.04005874 -0.021854835 -0.098369054

lstm.bias_ih_l0_reverse f4 [256]
000000 61 3d a3 bd 2e 1c 9a bd e6 b4 b9 3c fc 9a b7 bd
       -0.079706915 -0.07524906 0.022669267 -0.08965108
000010 25 29 04 be 61 f2 ab 3c 21 ab 78 bc 98 05 cb bd
       -0.1290632 0.020989599 -0.015177519 -0.09913176
000020 4e 30 bc 3d 5f 79 e2 3c 4f c6 48 3c 35 c1 fb 3d
       0.09188901 0.027645765 0.012254312 0.12292711
000030 8d 38 8a bd 1a 7f 01 be 8c 1d 14 bd c6 6a 15 3d
       -0.067490675 -0.12646142 -0.03616099 0.03647878
000040 5d 4e ad bd 17 d2 3e bd 0d 90 8b bc 8d 1b ca bd
       -0.08462212 -0.046587076 -0.017036462 -0.09868536
000050 3f d7 93 3d 66 37 95 bd 47 de e5 bd db 9a b9 bc
       0.07218789 -0.07285957 -0.11224037 -0.022656849
000060 86 83 cd 3d cd 72 fe 3c ab d8 0c 3e 43 9b 6b bd
       0.10034852 0.0310606 0.13754527 -0.057521116
000070 61 b4 ca bc 7a c8 74 3d 34 de 97 3d d3 1b 3b 3d
       -0.024744214 0.0597615 0.07415429 0.045680832
000080 e8 af e6 3d ba 54 fe bd b3 84 a5 bd 95 e2 88 bd
       0.1126402 -0.12418504 -0.08081951 -0.06683842
000090 df e3 c2 3c e0 cc 98 3d 2f 29 8d 3d b7 ae 8d 3c
       0.023790298 0.07460952 0.06892621 0.017295225
0000a0 fc 52 a8 bd f3 fa b1 3c 19 28 c7 3d 44 be e4 3d
       -0.08218953 0.021726107 0.09724445 0.11169103
0000b0 dd 44 80 3d 69 ea 0b bb 86 84 d6 3d c1 95 34 bc
       0.06263135 -0.0021349436 0.104744956 -0.011022032
0000c0 61 c5 91 3d 3e 28 c8 bd 0b 07 9b 3c dc 50 f1 bd
       0.07117725 -0.097733006 0.018924257 -0.11783001
0000d0 b6 1d 09 bd e0 f1 a9 3d d5 48 09 bd e8 1e 68 bc
       -0.0334756 0.08298087 -0.033516724 -0.014167525
0000e0 97 26 30 3c cf 74 56 3d a0 ee 17 bd 86 ed 5a 3d
       0.010751388 0.05235749 -0.037092805 0.053449176
0000f0 6a 53 c4 bc c8 89 dc 3d 71 40 ff 3c 59 7e 2d 3d
       -0.023965556 0.10768467 0.031158658 0.042356823
000100 c1 66 9f bd de c4 07 3e 3f 96 07 be 03 18 81 bb
       -0.077832706 0.13258693 -0.13240908 -0.00393963
000110 70 cd 45 bd db 5f a0 3d ef 59 80 bd 41 74 35 bc
       -0.048291624 0.07830783 -0.062671535 -0.01107508
000120 84 33 b0 3d 43 a0 8f 3d 9e a3 e1 3d 7b ef 91 3c
       0.08603576 0.07012989 0.110175356 0.017814388
000130 03 96 ba 3d 7b 37 d3 3a f1 6e b6 3d 32 9d b6 3a
       0.09110644 0.0016114557 0.08907879 0.0013932346
000140 ce b5 9e 3d 94 f5 95 3c 4f 8e 6c bd ed 0e a5 bd
       0.0774952 0.018305577 -0.057752904 -0.080594875
000150 08 11 2a 3d da 78 a7 bd a1 56 67 3d 68 ca 36 bd
       0.04152015 -0.081773475 0.0564791 -0.044626623
000160 36 db ea 3c bd 12 c3 3a c5 20 9a 3d 02 b3 9f 3d
       0.028668981 0.0014882904 0.075257815 0.07797815
000170 f9 32 1f bd 6d fb 95 bd 25 6b d0 bd 74 25 c5 3c
       -0.03886697 -0.07323346 -0.10176686 0.02406571
000180 b7 3a d5 bc fb 01 b5 bd d1 70 a4 bd f4 63 f1 bd
       -0.026028974 -0.08838268 -0.080293305 -0.11786643
000190 ac bf d5 bd 17 15 fe bd c5 cb 95 3d 39 61 b3 3c
       -0.10436949 -0.12406366 0.073142566 0.021896945
0001a0 ca f6 2d bd a9 9a 0f bd d3 55 24 3d 53 94 d1 bc
       -0.042471685 -0.035059605 0.04012091 -0.025583422
0001b0 66 a5 01 be 28 94 21 3d 95 13 d9 bd 9d 87 58 3d
       -0.12660751 0.039447933 -0.10599438 0.052863706
0001c0 f1 db 1a bc 8c b4 b2 bd 30 d4 82 3d 3d a9 e6 bd
       -0.009451852 -0.08725843 0.06388128 -0.112627484
0001d0 ec 0e b2 bd cf c3 af 3d 99 ac ce 3d 28 e7 d6 bd
       -0.08694252 0.085822694 0.10091514 -0.10493308
0001e0 bf 42 ab bd 79 d5 f1 bd 20 02 2b bd ac 46 55 bc
       -0.0836234 -0.11808295 -0.041750073 -0.013017338
0001f0 b7 9e 96 3d 01 ac e2 3d 4e da 6c 3d 80 e2 71 bd
       0.07354491 0.110679634 0.05782538 -0.059053898
000200 cd 69 d6 bd 9f bf 10 3e 7a 44 0b 3d 54 26 b5 3d
       -0.10469399 0.14135598 0.03400085 0.08845201
000210 ec 84 04 3d 50 85 71 bd 82 91 de bd 2b 94 92 bd
       0.032353327 -0.058965027 -0.10867597 -0.07157167
000220 e0 e2 2b bc 99 e1 e4 bd 0b 32 f4 bd 1a 89 85 bc
       -0.010491103 -0.11175842 -0.119236074 -0.016300727
000230 db e9 ba 3d 96 15 bf bd 75 d8 7d bd 57 e8 d2 bd
       0.09126636 -0.09330289 -0.061974008 -0.102982216
000240 60 84 0f bc 7c 53 f5 3c 45 1a d0 bc ad 95 c8 3d
       -0.008759588 0.029947035 -0.025403151 0.097941734
000250 c0 70 cb bd b2 6e 54 bd 1b dd de bd 6e 2d 89 bd
       -0.09933615 -0.05186338 -0.10882016 -0.06698118
000260 34 b0 bc bd a0 ba 68 3d e1 4f 52 3c 26 e8 2d 3d
       -0.092132956 0.056818604 0.012836427 0.042457722
000270 24 31 68 bd a5 5f c5 bd 95 db 12 3d 10 4d dc bd
       -0.05668749 -0.09637383 0.03585394 -0.10756886
000280 c8 26 80 bd d6 3f 81 bd 15 2d b0 3d 4a 67 6b bc
       -0.06257397 -0.06311004 0.08602349 -0.014367888
000290 85 8d 60 3d 78 f1 a2 3c e8 2e 01 3e 38 a1 9f bd
       0.054822464 0.019890532 0.1261555 -0.07794422
0002a0 87 c3 bd 3d 2e 7b d2 bd fe 48 9f bd 23 16 a9 3d
       0.092658095 -0.10277401 -0.07777594 0.08256175
0002b0 a2 9e 67 bd 23 98 6b 3d 0e 15 86 3d b5 79 ae bd
       -0.05654777 0.057518136 0.065469846 -0.085193075
0002c0 9a fc e5 3d 6a 4f cf bd 6b 4e 90 3d fe 1d 72 3d
       0.112298205 -0.10122569 0.07046207 0.059110634
0002d0 a2 64 ef 3c 95 ea c4 bd 68 c5 cc bd 06 df 37 3d
       0.02922279 -0.096150555 -0.0999859 0.044890426
0002e0 66 62 b9 bc 6f 10 8c bd 63 73 5e 3d d6 f5 ec 3d
       -0.022629928 -0.06839072 0.05430926 0.11570327
0002f0 59 69 67 bd c7 0a fd 3b bc ca e6 3c 06 4a 74 bd
       -0.05649695 0.007722232 0.028172843 -0.059640907
000300 7f 0d 85 3d 71 96 75 bd 62 dc 99 3d 4d dc 96 3d
       0.06496715 -0.059957925 0.07512738 0.07366238
000310 27 4b 16 3d d3 99 59 bc 0b 11 41 3b cd 37 d1 bd
       0.036692765 -0.013281303 0.0029459621 -0.10215721
000320 be 74 2f bd 78 67 d1 3d ba 1c fd 3d 40 db 82 3b
       -0.042835943 0.10224813 0.12358995 0.003993422
000330 de f0 62 bd cd f1 28 3d e2 73 83 3d 2c a8 74 bc
       -0.05540549 0.041246224 0.06418587 -0.014932673
000340 02 5e db 3d ec c7 f6 bc b5 4b ba 3d f6 94 f0 3d
       0.1071129 -0.030124627 0.09096471 0.11747162
000350 4e 4a cb 3d 0d 47 08 3b e3 8e ce 3d 14 fd c8 3c
       0.09926282 0.0020794303 0.10085847 0.02453474
000360 68 ca 17 3d 86 ce 13 3d 6e 27 86 bd a5 f0 cb 3d
       0.037058264 0.036085628 -0.06550489 0.09958009
000370 4b 6e ef bc c3 f7 01 be 66 59 14 bd 05 22 df 3d
       -0.029227396 -0.1269217 -0.03621807 0.108951606
000380 03 5e 9b 3d 9b 21 5c bd 5d 32 df bd 45 d0 c8 bd
       0.07586291 -0.053742986 -0.10898278 -0.09805349
000390 3a 72 0e 3c 72 91 3e 3d 1e b9 83 bd 17 d4 e5 3c
       0.008694226 0.046525426 -0.06431793 0.028055234
0003a0 d1 a9 88 bd be 14 04 bd 10 ec 68 bd 76 80 f4 ba
       -0.06673015 -0.032246344 -0.05686575 -0.0018654007
0003b0 93 87 b9 3d 4f 0e 26 3d df 52 ac 3d b6 10 8d 3d
       0.09059062 0.04054099 0.08414244 0.06887953
0003c0 30 e0 94 bd 92 17 ff bd 36 56 17 3e 85 e5 2d 3d
       -0.07269323 -0.124556676 0.1477898 0.042455215
0003d0 db 6e d1 bc 36 b4 9f 3d 23 41 c6 bc 5e 7c 8e bd
       -0.025565555 0.077980444 -0.024200981 -0.06957315
0003e0 cb 74 d3 3d c3 31 b0 3d 92 41 00 3c 2c c3 8f bd
       0.10325011 0.08603241 0.007828133 -0.07019648
0003f0 ac af dc 3d 11 af 36 bd 9f 75 28 3d 87 a7 db bd
       0.10775694 -0.04460055 0.041127797 -0.10725313
