environmental_predictor/models/lstm_Kyiv_o3.pth (torch, 631835 bytes, 27 tensors)

lstm.weight_ih_l0 f4 [256, 3]
00000000: 17aa 6dbd c1b6 9a3c 5cc4 643c 6365 5e3e
00000010: f335 443e a3b9 053d 429f ddbc c279 8b3d
00000020: 6fd2 b6bd 516f d3bc 2723 cabd 23d4 a3bd
00000030: 5def f03d 8b37 393d 014d 453d 5083 10be
00000040: 804c b6bd fc37 85bd 7c79 24be ea5b 513d
00000050: 725e 7bbd 0566 ab3d 8cc4 e83c 9573 d83d
00000060: 17e6 0dbe 5553 eb3d 77fb 9d3d d3e8 093d
00000070: e834 563d ce5e 2cbb 2936 d0bb b741 793d
00000080: 4642 82bd 56d8 0ebd 393c 503d d8d5 14bd
00000090: ef10 c138 c06f 363e d3f7 953d 2aea adbc
000000a0: 1d57 873e 423a 0c3e 48a0 87bd f343 45bd
000000b0: 7738 143e 5b6f 3bbe 1f7b 033d d6c2 edbd
000000c0: eeee d73d 870d 20bd 1b01 043e 7e62 4c3e
000000d0: b481 91bd 8dd2 6a3d 9e56 2ebd 5a1a 20be
000000e0: ee2e a4bc 342a db3d fafc 5f3d 6776 f73d
000000f0: 1336 c6bd 8c42 e63c f078 43bd 5932 a63c
00000100: 0c15 1e3e 0b0a 08bd 75a4 583d 6d39 333e
00000110: f59c ba3d 8c33 20be 1b95 0cbe c35a cf3c
00000120: ce43 143e b1e9 343e 0288 da3d 6983 98bd
00000130: a10d 463d e530 e0bd 1ce9 2cbd 65f2 723d
00000140: ba21 54bc cef8 16be e5a3 883d c1c3 1dbd
00000150: 646c 00bd baba de3d 5beb 3d3d afb7 453d
00000160: 86cb e13d 2bda b4bd 6070 91bd 2a5a babd
00000170: 188e 07be 2f36 80bd 7119 de3d ad46 e13d
00000180: 015a e23d 1527 a3bb 7312 86bd 7cce fdbd
00000190: 220a e83d 74e6 f93d 5f6d a73b 42d5 71bd
000001a0: 2d5b 08be 226b 77bd 5c2c e0bd 7122 e63c
000001b0: 61aa 103d 4299 ee3d dceb 4b3d 4182 713d
000001c0: 9d6f bdbc 389d 1f3c 53b9 a03c 60c0 e53d
000001d0: 3feb 30bd 996b f13d 9d74 393d e3c0 7a3d
000001e0: 72cc 48be f325 b83c 171d 813d c0b3 953c
000001f0: 54b3 623d f859 d53c bdec 24bd 816d 273d
00000200: 5974 b1bd 7d00 853b 7b15 18be 7a65 c03c
00000210: 5752 80bc 9382 9dbd d611 debc 00b8 fabd
00000220: bba4 0c3d 8d81 83bd d0fc 7cbd 6e82 9dbd
00000230: b6e9 74bd e50f 0bbb f099 d03d 308f a5bd
00000240: 831d 0abd ed9a 0b3d 420e b7bd ce2c ae3b
00000250: 4a52 013e 1cbb 3dbc 051e c43d ea09 e23d
00000260: 0f71 ccbd c9ff 9e3d 1dfa 7ebd d52b 733c
00000270: 7df3 df3c f7c1 ef3d 80b6 c1bd aaed c23d
00000280: 948d f3bd f316 e7bd 6835 163d 85a3 0ebd
00000290: 7883 e23c 6615 293d 828b 923d 052d 223c
000002a0: cebe 3a3d 27a0 16bd ae72 d53d 7ecf 873e
000002b0: 33a0 8b3d 7015 e63d fda4 1e3e 55be 823e
000002c0: 0ebf 3b3e 006b 2fbe ef16 09bd 48dd 6fbd
000002d0: 19c2 09bc 647e 10bd f811 c43d ec8a 363d
000002e0: d388 9bbd d2a1 283d 0e2a 913e 3b61 383e
000002f0: a73a 3b3e 751b 31be 9316 3dbd 9585 b73c
00000300: eabd f6bd a2da 2b3e 36f8 1a3d 6331 39bd
00000310: 92a6 143e 9403 133c 841d 4f3d 897e b5bd
00000320: 01f1 c43c e26f 7c3d 90fe cfbb c312 10be
00000330: a543 82bd fa8d 63bc 3ec4 eb3d 2c0a 51be
00000340: 16f4 013e 0dd2 37bd caaf 1cbd 25cf e1bd
00000350: d2ac 80ba cd3f a3bd b6fb 01be 1b67 4f3d
00000360: d3f8 3bbe 091d 2b3d 7106 f13b d0ba 45bc
00000370: 298f 0e3d 1adc e2bd 7ede 203e c7a5 ee3d
00000380: 684d c53d c1a1 c0bc 10df 183d 4632 db3c
00000390: 32d5 f8bd 3457 2ebd b339 6dbd e499 01be
000003a0: 8328 e23d 75c7 e73d 7349 ea3c ba0e 893c
000003b0: c55a 493e 6803 06be ca93 6fbc 0a57 21bd
000003c0: 24ca ab3d 053e f5bd 01a4 6b3d f144 be3d
000003d0: af1a 313d 3037 49bd fea7 12be fe4f 04be
000003e0: 03d0 883d f03f 86bd e936 c53d a488 b5bb
000003f0: 54f6 c4bd 65af 7ebc 6ed3 863c 0788 ce3c
-0.05802354 0.018885972 0.013962831 0.21718363 0.19161205 0.03264774 -0.02705348 0.06810333
-0.08926856 -0.025809916 -0.09869986 -0.07999446 0.11764405 0.045218986 0.04816914 -0.14112592
-0.0890131 -0.06504819 -0.16061968 0.051113047 -0.061369367 0.08369068 0.028414033 0.105689205
-0.13857304 0.11490504 0.07713979 0.033669304 0.05229655 -0.0026301625 -0.0063541126 0.060853686
-0.06360297 -0.034874283 0.050838683 -0.03633675 9.206111e-05 0.17816067 0.07322659 -0.021229822
0.2643365 0.13694099 -0.06622368 -0.048160505 0.14474665 -0.18304197 0.03209984 -0.11609428
0.10543619 -0.0390754 0.12891047 0.19959447 -0.07104817 0.057329703 -0.042563073 -0.15635052
-0.02004191 0.10701409 0.054684617 0.1208313 -0.096782826 0.028107904 -0.047722757 0.02028768
0.15437716 -0.033212703 0.052891213 0.17502375 0.091119684 -0.15644664 -0.13728754 0.025311833
0.1447899 0.17667271 0.10670473 -0.074469395 0.04835284 -0.10946826 -0.042214498 0.059313197
-0.012947494 -0.14743349 0.066718854 -0.038516764 -0.03135337 0.10875459 0.04636703 0.048270877
0.11025147 -0.08830675 -0.07101512 -0.09099229 -0.13237798 -0.06260335 0.10844696 0.109998085
0.11052323 -0.004979024 -0.06546488 -0.123928994 0.11330058 0.122021586 0.0051094736 -0.05904127
-0.13316031 -0.060404904 -0.10945961 0.028092595 0.035318736 0.11650325 0.04978548 0.05896211
-0.02312451 0.009742074 0.01961962 0.11218333 -0.0431931 0.11788101 0.045277227 0.061219107
-0.1960924 0.022479033 0.063043766 0.018274188 0.055346802 0.026043877 -0.040264834 0.040875915
-0.0866477 0.004058896 -0.14851944 0.023485888 -0.015664263 -0.07690921 -0.027108114 -0.122421265
0.034336787 -0.06421194 -0.06176454 -0.07690893 -0.059793197 -0.002121919 0.10185611 -0.080839515
-0.03371955 0.034083296 -0.08938266 0.0053153997 0.12629047 -0.011580255 0.09576038 0.11037047
-0.09982502 0.07763631 -0.062250245 0.014841993 0.027337784 0.11706918 -0.09458637 0.09517987
-0.11892238 -0.11283674 0.036672026 -0.034823913 0.02765058 0.041280173 0.07155515 0.009898429
0.04559212 -0.036773827 0.10422264 0.2652549 0.06817665 0.11234558 0.15492626 0.25535837
0.183346 -0.17130661 -0.033469137 -0.05856064 -0.008408093 -0.035276785 0.0957374 0.04456608
-0.075944565 0.04116995 0.28352398 0.1800584 0.18284093 -0.1729563 -0.046164107 0.022402564
-0.12047942 0.1678262 0.03783437 -0.045213114 0.14516667 0.008973021 0.050565258 -0.08862025
0.0240407 0.061630137 -0.006347485 -0.14069657 -0.063605584 -0.01388883 0.115120396 -0.20414037
0.12690768 -0.044878054 -0.038253583 -0.11025838 -0.000981713 -0.079711534 -0.12693676 0.05063544
-0.18356638 0.041775737 0.007355504 -0.012068465 0.034804497 -0.11077137 0.15709874 0.11652713
0.09633905 -0.02351463 0.037322104 0.02675737 -0.12150039 -0.042563632 -0.057916354 -0.12656361
0.11042883 0.1131734 0.028599476 0.016730655 0.19663532 -0.13087237 -0.014622638 -0.039389648
0.08388165 -0.1197472 0.057529453 0.09290493 0.043238338 -0.049124897 -0.14321896 -0.1292114
0.066803 -0.06555164 0.09629614 -0.0055399705 -0.09617296 -0.015544747 0.01645824 0.025211347

lstm.weight_hh_l0 f4 [256, 64]
00000000: 11a3 163e 34a2 7bbc c143 4cbd 27c1 80be
00000010: a884 083e 7e45 eabc b372 8c3c e899 2d3e
00000020: 6477 30be 3480 8bbd 34c4 fb3d 7224 e3bd
00000030: e876 52be 7f3c 59be fa2a ea3d 585e b0bc
00000040: 2652 f3bd c395 b43d a200 323e 1258 0dbd
00000050: 0bf8 49bd 4dea f7bd 4ab4 1cbe 3fa9 0c3d
00000060: 61f3 503e 569b d53d 68b7 233e 7f70 c0bc
00000070: 5d8b 973d 680a 8b3d bff1 a83d 7edb b23d
00000080: 6ca6 9f3d a2c4 493d d010 c83c b734 a63d
00000090: 5824 aa3e 498e 343c 752b 0fbe 6151 ae3d
000000a0: a108 973e a936 f33d 75af 0a3d 4d80 f43c
000000b0: 8414 c2bd 2efe 1a3e 0041 aebd 6107 d93c
000000c0: 111e 74bd 1489 033e 7e61 aabc 186f cebd
000000d0: b9ee f13d 65fe 2d3e e98d 62be 1b3a cb3d
000000e0: f66f 293c 444c 873e c9a1 2abe 5841 f03d
000000f0: 4e63 e4bd 90d6 1abc cf02 4b3e e415 05bd
00000100: b3f5 63bc 1f31 50be 9a13 e9bd b911 f8bd
00000110: 1202 953e 1036 46bd 16a7 983d 6d4f 193e
00000120: 6889 ccbd 255a 16bd 361f 953e e7d0 dabd
00000130: adcc 9fbd b641 4cbe 32f5 bfbd bafd 7abc
00000140: 0473 14be 4f68 f73c 0c73 8c3c 565a 7bbd
00000150: 3537 22be 9b6a 08be 451b 8cbd f31c e1bc
00000160: 339e cd3d 02ac 793d ecf8 e13d 66e0 5bbd
00000170: 9008 17be 47c2 45bd 5fad 063e 80c9 ea3d
00000180: 06b2 7b3d 74be 5ebe 2d3b e43d 4247 a5bd
00000190: 7841 943e a8da 34be 0353 8ebc 127d 2a3e
000001a0: c2cf 473e 9c5f 91bd 1509 b9bc bd59 0e3d
000001b0: 7b4e 383d 392b be3d bcef 93bd 8672 b7bc
000001c0: 5610 41bd 5426 84bc 69a1 68be 0ba2 edbd
000001d0: 3d10 46bd bca6 d93c afe5 09be af56 3a3d
000001e0: 83ab 3f3e 9309 963e 22bb 94be eb7d 8a3c
000001f0: 0986 253d d81d 043e 7033 573e 48d2 a5bd
00000200: 91cd e1bd 60d6 563d 020e e63c 7301 20be
00000210: 47f8 303e bcb8 373d 84e5 a03d 902f 6cbd
00000220: 22fe 35bd 5c57 853d a1ec c03d 35ce aa3d
00000230: 8ae9 8bbd ec8b 233e db62 243c 645b ecbc
00000240: 27b1 573d b4a4 983d f1a2 1ebe fd30 fabd
00000250: f349 f9bc 6a29 7ebc 82b6 223e f96e 243c
00000260: 530f 02be 733c 273c 3b94 4fbd a5b9 ac3d
00000270: 6163 ccbc b335 7cbd aab8 f13d 1e0f 153b
00000280: f2e4 e33d 0c02 09be 1741 37bd 90f9 dfbd
00000290: 17e5 7c3d 654b 933d d7d8 2bbe 2601 973d
000002a0: ed02 ef3d 3269 f63b e481 bdbd 8877 09be
000002b0: 1e0b 63bd fce4 b8bd be16 343e 0a6a cabd
000002c0: 2732 0a3e 4d5b f9bc 4b9e 7bbd c905 acbd
000002d0: e5c3 22bb ed2f a73d 730f 79bd 13c5 563d
000002e0: 7d53 d93d 6845 b33d ba9d b1bd 979b 783d
000002f0: 97ea d23d 5f32 b9bd 13b4 a13c eac6 4d3c
00000300: 3f4c 93be 286a 913e d34a 573e 099f 5abd
00000310: be35 443e 50c3 d43c e922 333e e308 34bd
00000320: e0c9 7c3d 5d06 14be c401 f6bd 7690 8c3d
00000330: 5f00 883d 3fc1 823e 5cb0 aebd 3a85 5ebd
00000340: 7472 4cbc 703d 19be f575 eabd 00ca ad3a
00000350: e322 aebd d054 473e 75e0 403d 032a d5bd
00000360: 6071 743e 8815 a43b a309 1fbe ffb8 f3bd
00000370: a219 cfbd 0384 aabc 4221 053e fcdf 183d
00000380: 2e0b c63d a74d 1dbd 7ffa 573d 2ff8 8e3d
00000390: cb01 3f3c 6c49 273d bd5d 9cbc 1868 7e3c
000003a0: d1fd 373e 712a 3a3c 3eb4 003d 8018 0fbe
000003b0: b1a4 7fbd 4de2 54be b3f9 f03d 1a18 9b3d
000003c0: 9677 503d 2e79 bdbd 1059 783c 23a1 dfbd
000003d0: 8557 9f3d 9faf 153d 7488 903e f916 533c
000003e0: d9e8 9dbd 8416 c5bd 2e12 073e f437 b53c
000003f0: 81e6 c13c 4332 9abd 2b63 9e3c c21f eabd
0.14710642 -0.015358496 -0.049869303 -0.25147364 0.13331854 -0.02859759 0.017144537 0.16953242
-0.17233044 -0.06811562 0.12293282 -0.11090936 -0.20553172 -0.21214484 0.114339784 -0.021529362
-0.11880903 0.08817627 0.17383054 -0.03450782 -0.049308818 -0.12105236 -0.1530315 0.034341093
0.20405342 0.104300186 0.15987933 -0.023491142 0.07399628 0.06789094 0.082492344 0.08733271
0.07795414 0.04925979 0.02442208 0.08115523 0.33230853 0.011020252 -0.13981421 0.085116155
0.2949877 0.1187566 0.033858735 0.029846335 -0.09476569 0.15136024 -0.085084915 0.026492776
-0.059598986 0.1284526 -0.020798441 -0.10079783 0.11813111 0.16991575 -0.22124447 0.09923192
0.010341635 0.26425374 -0.16663279 0.11731213 -0.11151753 -0.00945057 0.1982529 -0.03249158
-0.01391356 -0.20331238 -0.11380692 -0.12112755 0.29103142 -0.0483914 0.07453744 0.14971705
-0.09987146 -0.036707062 0.29125375 -0.10684376 -0.07802711 -0.19946942 -0.09372939 -0.015319282
-0.14497 0.030201105 0.017144702 -0.061365448 -0.15841372 -0.13321917 -0.06841139 -0.027479624
0.1003994 0.060955055 0.11033806 -0.0536808 -0.1474936 -0.04828098 0.13152073 0.11464214
0.061449073 -0.2175234 0.111440994 -0.08070232 0.289562 -0.17661536 -0.017373567 0.16649273
0.19512847 -0.07098314 -0.022587338 0.03475355 0.04499672 0.09285588 -0.0722346 -0.022393476
-0.04713472 -0.016131558 -0.22717823 -0.11603173 -0.04835533 0.026568763 -0.13466524 0.045492824
0.1871777 0.2930418 -0.2904902 0.016905745 0.04041103 0.1290201 0.21015716 -0.080967486
-0.11025537 0.052450538 0.028082851 -0.15625553 0.1728221 0.04485391 0.07856277 -0.057662547
-0.044431813 0.06510803 0.094201334 0.08340112 -0.068316534 0.15971345 0.010033335 -0.028852172
0.05265918 0.0745329 -0.15491845 -0.12216375 -0.03043077 -0.015512804 0.15889934 0.010036224
-0.12701158 0.010207283 -0.050678473 0.084338464 -0.024949731 -0.06157465 0.118028 0.0022744606
0.11127652 -0.13379687 -0.04473981 -0.10936272 0.061741915 0.07192115 -0.16781937 0.07373266
0.1167048 0.0075198645 -0.0925329 -0.13424504 -0.055430524 -0.0902805 0.175868 -0.098835066
0.13495694 -0.030439043 -0.061430257 -0.08399541 -0.0024836 0.08163438 -0.06080575 0.05243404
0.10611627 0.087534726 -0.08672662 0.060695257 0.10298651 -0.09042811 0.019739186 0.012559632
-0.2876911 0.28401303 0.21024637 -0.053374324 0.19161126 0.025972039 0.17493786 -0.043953788
0.06171596 -0.14455552 -0.120120555 0.06863491 0.06640696 0.2553806 -0.08529732 -0.054326274
-0.01247846 -0.14964843 -0.1144828 0.0013259053 -0.08502748 0.19465947 0.04708906 -0.10408404
0.23871374 0.0050074495 -0.1553102 -0.119005196 -0.10112311 -0.020814901 0.13000968 0.037322983
0.09670101 -0.038404133 0.052729126 0.06980931 0.011658142 0.040841505 -0.019087667 0.015527748
0.17967917 0.011362658 0.031421892 -0.1397419 -0.06241292 -0.20789452 0.11766376 0.075729564
0.050895296 -0.09251629 0.015157953 -0.10919406 0.07780365 0.03654444 0.28229105 0.012883895
-0.07710428 -0.09623435 0.13190529 0.022121407 0.023669483 -0.07529118 0.019334396 -0.114318386

lstm.bias_ih_l0 f4 [256]
00000000: a86e 103e b892 153d cea8 82bd c296 0d3d
00000010: 6dc4 0e3e 5652 46bd dbc8 1a3d d0eb 463d
00000020: b672 403c d601 5fbd 7d5f 903c 4fe9 01be
00000030: 2d6f 3f3e 7454 b03d 7f44 bcbd 982e 973d
00000040: 400f 62bd 9913 8b3d e6aa b3bd e93a 973d
00000050: 006a 723d 3a65 973d 02fe 363e eb84 74bd
00000060: 424a 1e3d db1d e93c 34b7 c4bc f4cd a23d
00000070: 5352 a23d 8b05 b93d 0c51 b33d c450 3d3d
00000080: a5d0 f4bd 847b 88bd b0d4 8e3d 7ce1 0bbd
00000090: 6030 abbd ef78 9a3d b5e9 1dbd 174e 4dbd
000000a0: a5c0 5b3d 0e47 cf3d 04a6 83bc 319a 933d
000000b0: a121 bebd 20f8 df3d 6c1f 0b3d db47 143d
000000c0: bb0a c93d 946a 123c 486a b8bd 51ae f63d
000000d0: 9c6c 023b 9dcd f5bd 91f9 063e 5a07 b1bd
000000e0: 7f8b f5bd afd6 183e 6edc 253e febb ebbc
000000f0: 51b1 82ba 1dc7 a2bd 5287 663e 892d afbd
00000100: a0f6 323e 2e3f 1d3e f93e 803d f06b 263d
00000110: b4ad 7ebd 371e 393d 392a b5bc e4b8 84bd
00000120: e8ee ccbd 8dd5 8bbc 5330 3c3d 6d7c c63d
00000130: 1e62 393e d1f2 7d3e 3a9f c43d 5121 903c
00000140: 35a5 f0bc f007 e1bd 651f d93d 76e2 e1bd
00000150: a27f 34bc b9b5 f4b9 c3aa a03d 1a38 5a3d
00000160: cdcb 0e3e b69a 1b3e 6852 1d3d a1e1 27bd
00000170: 413a 893c 1bc1 813d 4fdb d63c 8f25 c03d
00000180: 8c8e 143c c6f9 99bd 9aad 953d 719d c5bc
00000190: 60eb 8abd 517f 89bd 93e6 123e 10cc 1fbd
000001a0: 4dc3 e53c c351 383c b2a6 1ebd c36b a8bd
000001b0: 2e69 9e3d c1a7 7dbd abb4 abbd 9de7 8d3d
000001c0: e831 6abd 92d4 863d f4b2 d2bd 0a44 57bc
000001d0: 1a9a b93d b2bc af3c 5912 5cbd ed29 a63d
000001e0: 891b 6bbd 2a7a 693d eae2 403e 0771 52bd
000001f0: 5370 213d 8ac2 9c3d 4899 853d 082a 293d
00000200: 46d5 dbbd d0ed 2f3c 4f74 d23c b9ae 7e3d
00000210: a147 f43c 8a8d 413d dada 683d daff 8bbd
00000220: 055b 91bd ca1f ce3a bc3f b6bd 9b81 94bd
00000230: 69c5 2d3b 7da9 8fbd 1cb6 413c 59a2 313b
00000240: f01b e93d f0e6 babd f344 533c 1267 17bc
00000250: 0219 bcbd 6dc6 bfbd f39a ac3d 4809 72bd
00000260: 8dc9 483d 4590 2fbc e3cb 59bd 2891 ef3c
00000270: 398d b3bd 2467 c73c a57c 5c3d cf7f a5bd
00000280: e6c7 9e3d 3461 4b3c 22b7 1c3b d8d5 253c
00000290: cf1b 1dbc cfbd 31bd 87fe 633d 06c5 e5bc
000002a0: 481b e6bc f7ac c1bd c6c5 3c3d 562a 03bd
000002b0: 96e9 44bd f07b e3bd cc59 1fbc 1d92 a63c
000002c0: d281 093c db0b 09bd b752 c0bd e6b0 99bd
000002d0: 83bb 253d f67f 843d 67b5 af3d df45 283c
000002e0: fde5 993d 2b20 6abd ada5 53bd be70 6a3d
000002f0: 4a20 a5bd 9036 db3d 3542 abbd 30e8 12bd
00000300: a3eb 3bbc 8226 a43c 1430 bc3d 4891 123c
00000310: a11a abbd d5c8 1fbd 489f 5abd 4c7a b6bc
00000320: 54f8 68bd 30be 4d3d 3288 313c c447 b23c
00000330: b796 063e 6efd 733e a714 3bbd 9210 aa3d
00000340: aca2 b83d 4ffb ca3d 406d c73d 1f9a 77bc
00000350: 5c2b 50bd fe30 3fbd 2883 b73d fbaf 46bc
00000360: fe43 213e b426 143d 0e65 9d3d 1b32 50bd
00000370: 8e5c 8cbd 722c 823d 5728 9f3d 2d2d b23d
00000380: e5ff eebc 807d 9b3c 374e 2a3d 6bf4 303d
00000390: 1846 83bd fa61 aa3d 5614 203e ab84 bdbd
000003a0: 1a96 043e bdd8 e9bb 841f 963c 2572 e2bd
000003b0: cbca 3c3d 2bab 55bc 551c 72bd df13 a1bb
000003c0: cb74 273e 9d09 c9bc c9a9 83bc 1f9a 95bd
000003d0: 0d34 f03d 77e8 dfbd 97cf a43d d12a b33d
000003e0: d687 d9bc efe7 43bc 559b 8b3d 26db 4bbb
000003f0: 1a74 cabb 3283 283d 14ee fe3d efdc 0f3d
0.14104712 0.036516875 -0.06379853 0.034567602 0.13942118 -0.048418365 0.037789207 0.048564732
0.011746099 -0.05444511 0.017623657 -0.12686656 0.18694754 0.08609858 -0.09192752 0.07381934
-0.055190325 0.06790847 -0.08772831 0.07384283 0.05918312 0.07392354 0.17870334 -0.059697073
0.038645037 0.028456619 -0.02401314 0.07949439 0.07925858 0.0903426 0.08755693 0.046219602
-0.11953858 -0.06664184 0.06974161 -0.034150586 -0.08358836 0.075425975 -0.03855296 -0.0501233
0.053650517 0.101209745 -0.016070373 0.07207144 -0.09283758 0.10935998 0.033965513 0.03620134
0.098165 0.008936543 -0.090046465 0.12044967 0.0019901162 -0.12002108 0.1318114 -0.0864398
-0.119894974 0.14925645 0.16197369 -0.028776165 -0.0009971057 -0.07948134 0.22512558 -0.08553607
0.17476892 0.15356132 0.06262011 0.04063028 -0.062177375 0.04519483 -0.02211486 -0.064805776
-0.10006505 -0.017069602 0.045944523 0.09691701 0.18103835 0.24799658 0.096006826 0.017594012
-0.029375652 -0.10987842 0.10601691 -0.11029522 -0.011016758 -0.000466747 0.0784507 0.05327616
0.13944931 0.15195736 0.038408667 -0.04098666 0.01675141 0.0633566 0.026227621 0.09382164
0.009067189 -0.075183436 0.073085025 -0.024122925 -0.067831755 -0.06713737 0.1434577 -0.03901297
0.028047228 0.011249962 -0.03873319 -0.08223679 0.07734905 -0.06192756 -0.08384069 0.06928942
-0.0571765 0.06583513 -0.10288039 -0.01313878 0.09062596 0.021452282 -0.053728435 0.081134655
-0.057399306 0.05700127 0.18836561 -0.051377323 0.03941376 0.07654293 0.06523377 0.04129985
-0.10734038 0.010737851 0.025690226 0.062178347 0.029819312 0.047254123 0.056849338 -0.06835909
-0.07097439 0.0015726027 -0.08898875 -0.07251283 0.002651537 -0.07014749 0.011823203 0.0027104823
0.11382282 -0.09126079 0.012894857 -0.0092408825 -0.09184457 -0.093640186 0.08427992 -0.059090883
0.04902034 -0.010715549 -0.053172957 0.02924402 -0.087671705 0.024341173 0.053829808 -0.08081018
0.07752971 0.012413312 0.0023912867 0.010121785 -0.00958915 -0.043393906 0.055662658 -0.02804805
-0.02808918 -0.094568186 0.04608705 -0.032022797 -0.048074327 -0.111076236 -0.009725999 0.020333344
0.008392768 -0.033458572 -0.093907766 -0.07504444 0.04046203 0.06469719 0.085795216 0.010270565
0.0751457 -0.057159584 -0.051671673 0.057236426 -0.08062799 0.10703766 -0.08362237 -0.035865963
-0.011469754 0.020037893 0.09188858 0.008945771 -0.083546884 -0.039009888 -0.05337456 -0.022275113
-0.05687745 0.050230205 0.010835694 0.021762736 0.1314343 0.23827145 -0.045673992 0.08303942
0.09015402 0.099112146 0.09737635 -0.015112429 -0.0508226 -0.046677582 0.08960563 -0.012126918
0.15748593 0.036169723 0.0768529 -0.050829034 -0.06853591 0.063561335 0.07771366 0.08700023
-0.029174754 0.018980742 0.041578498 0.043201845 -0.06409854 0.08319469 0.15632758 -0.0925382
0.12947884 -0.007136433 0.018325575 -0.110569276 0.046091836 -0.013041298 -0.05910905 -0.004915699
0.16353147 -0.024540717 -0.01607217 -0.07304787 0.11728678 -0.10933011 0.08047407 0.08748401
-0.02655403 -0.011957153 0.068167366 -0.0031105964 -0.006178391 0.041140743 0.124477535 0.035122808

lstm.bias_hh_l0 f4 [256]
00000000: 3b0c 4e3d 1b87 963b 33b0 8b3d 8de7 133e
00000010: c5f9 e8bc 979a ae3d b81d 09bd ecc3 293d
00000020: b807 0e3e 0c61 f53d d1e0 fc3d 5ca9 aebd
00000030: b1ed 523e 2499 7c3e 041e 913d d079 fdbd
00000040: 4fba 693d 4a36 e93d 4b92 48bd 8846 6cbd
00000050: b736 28bc 7075 b53d f2cf 4c3e 0d4a 19bd
00000060: 961f 0e3d 585a 38bc cf7c d73d 6d88 29bc
00000070: 65fd a7bd 0398 123e 3a80 9cba 6934 92bc
00000080: 7ccf db3d 5fd2 1ebc e779 b5bd 6b90 1a3d
00000090: dd2a 9dbd 9c09 aebd 6211 2e3e 2a8e 97bd
000000a0: 21ea 453c 6a64 813d 3003 84bd 23f0 c03c
000000b0: 104a ef3c 7eb3 063e 75f9 7fbd 1c37 f7bc
000000c0: b4f4 9b3d 728f 73bd 8d3c 443d 286f 99bc
000000d0: 560a 0a3e b4e5 363d 9971 42bc 7e08 2ebd
000000e0: e88a a03d fd00 f33d 15d7 95bb 5a92 a2bd
000000f0: b786 ae3d c291 443d 866e 753e 2b15 033e
00000100: f93f ce3d 653d cc3d a418 b7bc e7cc 1bbc
00000110: 2523 6e3d 9ecd c23c 8053 94bc 0a9d 86bd
00000120: bc61 bcbd 21d2 1fbd 37af ca3c d08f dcbc
00000130: 9acc 763d 36b6 8e3d 13d5 563d f9cb 28bc
00000140: 5e9e 8cbc 6ede 883d 0206 3abd 640b c43b
00000150: 243b 9f3d a96f 03be 0204 533e e502 e7bd
00000160: 97f5 533e dfd1 353d 18a6 15bd 775c 4cbd
00000170: 257e 093e fe6d d53d 92ac bf3d 5ddf fabb
00000180: 9b0a c3bd 59fb d73d 8e30 ad3a 00ed 7c3d
00000190: ae5d 253e f7c3 95bd 51e3 2e3e a6df 3d3d
000001a0: 1749 813c 1237 c6bd f0a7 ffbc b3b2 8bb8
000001b0: fb5d babd 5658 033e 5c6e c0bc 90ba 2d3d
000001c0: 2f02 dd3d cf2a 55bb ddfb a93c 6b28 f93b
000001d0: 6db4 31bd ac7a c5bd 9d09 a33d 0265 f3bc
000001e0: 2f94 17bd 6535 143e 28a6 35bc 3d3c a2bc
000001f0: 4962 e13d 9ea7 073d 8cec 2e3e 7ed8 0d3e
00000200: ba1d 4f3d 7902 55bc 4960 da3c b9f5 d93d
00000210: 280c 6a3c 24d2 13bc 69b4 80bd 1570 16bc
00000220: fe80 943d 5fee d5bd 0172 e63c 5a81 1b3d
00000230: ee83 a43c c8c6 bb3d 00fc 563d ed98 89bc
00000240: 2c11 8dbc 5843 a63d a9dd 57bc 30a6 4dbd
00000250: 554c a23c 24b5 d63d 8b29 0cbe 8657 85bb
00000260: ed5b 4cbb 5c78 dd3c bc82 4c3d 3b19 ad3d
00000270: ea3d d3bc b5fd 3bbd b611 8e3d d4ef 643d
00000280: 43d4 b43d a662 783d ee3f 883d 1dba a93d
00000290: c024 c5bc 7a8e 43bd 0ee5 c43a 50d9 c93d
000002a0: 45c0 a03d d114 c5bb bc37 a53c 0510 8bbd
000002b0: b694 19bd cdf7 a63d 38dc adbc b7e8 7f3d
000002c0: 2426 af3d ef47 903d 90f6 283c eadb 5abc
000002d0: 72d7 cc3d 0d6b 623d 3418 93bc 317b 9ebd
000002e0: 598a 15bd 73de b8bc 9a15 46b9 8cd5 883d
000002f0: ee72 d83d c76b c7bc 82c2 b83d c5a9 f03d
00000300: 5d5f 553d edb7 42bd 754a a73d 104b 923c
00000310: a49d 61bc 6dd8 22bd 8977 c6bd d447 f13c
00000320: 1dac c2bc 6d55 b7bd 2289 99bd 1dbf a1bd
00000330: c84c 023e 12b4 3b3d 10c5 abbd a2b7 cbbd
00000340: a393 84bd ac81 0bbd 35c3 223d 50a5 8c3d
00000350: 3579 01bc 7338 583b 732f 27bd 25ca 2c3d
00000360: f621 b93d faf1 073d 6354 dc3d f79e b23c
00000370: e050 e63d d5fd f13c d84a adbd 2275 cd3d
00000380: 22dc 3b3d 9554 2d3d 38bb b5bd a56c e4bc
00000390: 8746 83bb 724b e6bb 0001 213e ae55 113e
000003a0: 82f1 21bd 3562 99bd 6eb8 353d 672e 833d
000003b0: a79f 703d f90b 7e3c edcd eabc c743 cbbd
000003c0: 2f05 193e 350a 83bd e8d5 093c 50af ce3d
000003d0: f330 353d dd66 03be 5b59 d53c c870 493c
000003e0: fde8 8f3d 8d78 b63d 77e9 893d 6b36 3e3d
000003f0: 260f 173d 6e65 57bd 1aa9 0c3e 7401 0f3e
0.050304633 0.0045937425 0.06820717 0.14443798 -0.028439412 0.085255794 -0.033475608 0.04144661
0.13870132 0.11981401 0.12347568 -0.085283965 0.20598485 0.24667794 0.07085803 -0.123767495
0.057062443 0.11387308 -0.04896764 -0.05768445 -0.010266951 0.0886029 0.200012 -0.037424136
0.03469809 -0.011252008 0.10521852 -0.010347468 -0.08202628 0.143158 -0.001194007 -0.017847257
0.10732934 -0.009693711 -0.08861142 0.037735384 -0.07674191 -0.084979266 0.16998819 -0.074001625
0.012079746 0.063179806 -0.064459205 0.023552006 0.02921012 0.13154408 -0.06249376 -0.030177645
0.07615033 -0.059462972 0.04790931 -0.018729761 0.13480505 0.044652656 -0.011867904 -0.042488568
0.07838994 0.11865423 -0.004572759 -0.079380706 0.085217886 0.047990568 0.23967943 0.12801044
0.100707956 0.099726476 -0.022350617 -0.009509302 0.058138985 0.023779687 -0.018106222 -0.065729216
-0.09198329 -0.039018754 0.024741752 -0.026924044 0.060253717 0.06968348 0.052449297 -0.010302537
-0.01716536 0.0668305 -0.045415886 0.005982803 0.07774952 -0.12835564 0.20606998 -0.11279849
0.20699154 0.0443896 -0.036535352 -0.04989287 0.13427027 0.1042137 0.09359087 -0.0076560215
-0.09523507 0.10545988 0.0013213323 0.06174946 0.16149017 -0.07312768 0.17078902 0.046355866
0.015781922 -0.096784726 -0.031208009 -6.661322e-05 -0.090999566 0.12826666 -0.023490123 0.042414248
0.10791432 -0.0032526737 0.02074998 0.007603695 -0.043384958 -0.096425384 0.07960818 -0.02971125
-0.037006553 0.14473493 -0.011086978 -0.019804114 0.110050745 0.033118837 0.17082423 0.13852116
0.05056546 -0.013001078 0.02665724 0.10642571 0.014285125 -0.009022269 -0.062844105 -0.009181996
0.07251166 -0.10445856 0.028130533 0.037965156 0.02008244 0.09168774 0.05248642 -0.016796554
-0.017220102 0.081183136 -0.0131754065 -0.050207317 0.019811789 0.104837686 -0.13687722 -0.0040692715
-0.0031182722 0.02703493 0.049929366 0.08452078 -0.025786359 -0.04589625 0.06936972 0.05589278
0.08829548 0.060640953 0.066528186 0.082874514 -0.024065375 -0.047743298 0.0015021877 0.09855902
0.078491725 -0.0060144444 0.020168178 -0.06790165 -0.037495337 0.08152733 -0.021223173 0.062477794
0.085521966 0.0704497 0.010312691 -0.013358096 0.100020304 0.055277873 -0.017955877 -0.07738341
-0.03650889 -0.02256701 -0.00018890799 0.06681356 0.10568796 -0.024343384 0.090214744 0.11751131
0.0520929 -0.047538687 0.081684984 0.017858058 -0.013770495 -0.03975718 -0.09690768 0.029453196
-0.02376371 -0.089518405 -0.07496859 -0.0789778 0.12724602 0.045826025 -0.08387196 -0.099471346
-0.06473472 -0.03405921 0.039736945 0.06867468 -0.007902433 0.003299263 -0.040816735 0.042184968
0.09039681 0.03318975 0.10758283 0.021804316 0.112458944 0.029539982 -0.08461541 0.10032107
0.045864232 0.04231699 -0.088736 -0.027883837 -0.0040062102 -0.0070280368 0.15723038 0.1419284
-0.03953696 -0.07489435 0.04436534 0.06405335 0.058746006 0.015505784 -0.028662646 -0.09925037
0.14943384 -0.06398431 0.008412816 0.10092032 0.044236135 -0.12832208 0.026043585 0.012294956
0.07026861 0.08909712 0.06733983 0.046438616 0.03687968 -0.052586965 0.13736382 0.13965398

lstm.weight_ih_l0_reverse f4 [256, 3]
00000000: 89ad ecbd 5308 afbc 2c9c e2bd ca53 b23d
00000010: d7f2 b7bd 14c6 45bd 53a7 13bb df09 43bc
00000020: e4c4 5dbe 069e be3d 0e75 503b 6363 06be
00000030: c1cb d23b aea9 17be c7ab 29bd 35fa f73d
00000040: edbd ac3d 7cb5 553d 005f b2bd 5203 c93c
00000050: a79a 8dbd e3a1 023e 109d f33c 1a68 69bd
00000060: 2938 b93d 414c 743d 17ca f1bd ef22 4cbb
00000070: 02b6 573d 1f0b b1bd f4c8 03be 63a8 c73d
00000080: 08b0 e1bc adf7 cb3d 3207 5dbd f4fc d9bc
00000090: 6a73 a43d b703 b03c 6900 72bd e953 efbd
000000a0: 8985 663d 72d9 923d c26e dabd 9b9d 103c
000000b0: aa8b 813d 1d33 903d 4aac 2a3d 87ed 6dbd
000000c0: 345c ffbd 5ab7 e13d 60ca 2cbe b250 4cbe
000000d0: 2c8a 2f3c 919b ba3d 7f61 493e 6557 a43d
000000e0: 4557 52be e9ef a5bd d8e9 af3d 6779 d4bd
000000f0: 3324 cc3d d752 85bd 963a c8bd 87b6 773d
00000100: 0522 273d cdc6 ebbc 29dd 493d e8db ffb9
00000110: 4372 c6bc 9e0a 7cbc 8b7e c53d 86fd f03d
00000120: c392 debd 45fc 87bc 7a8c 683d 96b9 8c3d
00000130: 9f49 dcbd 4ce2 46bd 17e5 1c3d ecaa 553d
00000140: a5d6 4bbc 2da1 02bc 548c be3d 8652 d13d
00000150: 1b80 333c 1ea1 45bd 4d21 2cbe 909a 2bbd
00000160: 705f af3d 328c 2c3d 8256 e53d 924f 973d
00000170: d1b0 c53d bcd8 a2bd 0c98 c8bd 4d74 2bbe
00000180: 5884 8fbd b4d2 a73d bf59 d13d 317f 193d
00000190: 7b44 d93c be9d 89bd 0c1e 203e 2ea4 413e
000001a0: 0a80 f83d 6309 eabd 7fb5 1fbe aeed afbd
000001b0: 4148 b63c df7c 4b3c 5de5 3ebc 795b 93bb
000001c0: 227b 9b3a b0d6 80bc c5db 80bd cb74 0ebd
000001d0: aa1b 833d 9c71 0fbd c8b1 b4bc f73d 423d
000001e0: fd24 623d 5209 ad3d 66f5 823d 9b1b c8bd
000001f0: 2142 0ebe becc 9dbd b0d3 823d 8aea 9dbc
00000200: a211 833d cb1f d1bd 851d 98b9 aacb ed3c
00000210: 90d1 f13c 6759 acbd dea3 143d 6caa d03e
00000220: ed7f cd3e cdf3 353e b5a1 693d 506b 41bd
00000230: 9893 7abd 3387 60bd a25c 63bc 2692 a03d
00000240: d52d 07be 56f2 88bd 9b95 f8bd 133e e53c
00000250: 63c2 cfbc 6b0d c4bc 1b50 d4bd 20c5 c8bd
00000260: e3b1 9e3d c0f4 04be abca 313d 1547 1c3d
00000270: 8855 813c 7f42 9f3a 3ce7 81bd a49b 6c3d
00000280: dbe3 863d 7707 bf3d 256c bfbc 1cbe 0f3e
00000290: 7648 1a3d b401 033e 95f9 81bd a620 d0bc
000002a0: 4982 193d 53ed 083e 7315 223d 9fc7 e03c
000002b0: 64df b3bc d786 873c 418d 75bd b0d9 983d
000002c0: fb7e 5ebb 5415 ad3d 68d8 26bc 66bf 44bb
000002d0: 590b d8bd 17e1 b2bd 3454 883d e8e4 433d
000002e0: ec2e b93d 5626 a83b f1a5 67bc 077f 48bd
000002f0: 7467 0abe ecf4 c73c 8c28 323d 5d90 8a3b
00000300: 6e92 c93d 2790 9bbd 7a12 be3d 0c03 723d
00000310: aca8 763d 2b8c 2cbe 9ad1 d53c efe5 843c
00000320: 8a9b 92bb 9de5 c73d c76a 6bbd ceb1 803d
00000330: a780 d73d 86f2 abbc 30dd b1bd a708 fd3c
00000340: 73cf 923d bf6d 76bb d317 c9bd c46f 63bd
00000350: 8f5a c6bc 709a ad3d 8472 bebd 49ee 473d
00000360: f772 fb3d f249 7b3d a406 21be 38f2 adbd
00000370: 76b8 abbd c0b6 bcbd d448 19bd c0fe e4bd
00000380: 9cde 703c df93 1dbd d0d4 cfbb f10c dabd
00000390: 9760 893d 0a08 143d be8a c83c d1bd 08be
000003a0: a34a bcbd 376d 033e 6c49 8e3c de99 1a3d
000003b0: 3635 1ebe af2e 193e ab02 033e 170b 6fbe
000003c0: 790d ba3d d385 1bbd 8a01 6dbe 7d39 c5bd
000003d0: 2869 86bd 8316 f6bd 3390 ea3d 7458 4cbc
000003e0: 5daa 33be c2e9 07be 94ec 03bc aa47 92be
000003f0: 0ea7 70ba 34fb 27bc 5920 97bc fb70 cebd
-0.11556537 -0.021366274 -0.11064944 0.08707388 -0.08981865 -0.048284605 -0.0022530153 -0.011904209
-0.21657139 0.09307484 0.0031808051 -0.1312385 0.0064329808 -0.14810821 -0.041423585 0.1210827
0.08434663 0.05217503 -0.08709526 0.024537716 -0.06914263 0.12757067 0.02973798 -0.056984045
0.09043915 0.059643034 -0.11806124 -0.0031148752 0.05266381 -0.08644699 -0.12869626 0.09748914
-0.027549759 0.0995935 -0.05396194 -0.026609875 0.08029826 0.021486146 -0.059082422 -0.116859265
0.056279693 0.07170381 -0.106656566 0.008826639 0.06325467 0.07040999 0.041668214 -0.05808785
-0.12468758 0.110213 -0.16874075 -0.19952658 0.010714095 0.09111703 0.19666098 0.08024482
-0.20541103 -0.081024 0.08589524 -0.10374718 0.09967842 -0.06509941 -0.097767994 0.060476806
0.040803928 -0.028781319 0.04928318 -0.00048801233 -0.024224406 -0.015383391 0.09643277 0.11767106
-0.10867836 -0.016599784 0.056774594 0.06871335 -0.107562296 -0.048555657 0.038304415 0.052164957
-0.012441312 -0.007972998 0.09304109 0.10220818 0.010955836 -0.048249356 -0.16809578 -0.04189545
0.08563125 0.04212589 0.11198141 0.07388224 0.09652866 -0.07951495 -0.09794626 -0.16743584
-0.070076644 0.08194485 0.10222196 0.037474815 0.026521912 -0.0671954 0.15636462 0.18910286
0.121337965 -0.114275716 -0.15596579 -0.08590256 0.02225125 0.012419908 -0.011651364 -0.0044969884
0.0011862258 -0.015727371 -0.06291918 -0.03477935 0.06401761 -0.035020456 -0.022057429 0.047422376
0.055211056 0.08449043 0.06394462 -0.0977089 -0.13892414 -0.07705067 0.063880324 -0.019276876
0.063998476 -0.10211142 -0.00029013693 0.029027779 0.029518872 -0.0841549 0.03628909 0.40755022
0.40136662 0.17768784 0.05703898 -0.04722148 -0.061175913 -0.054816436 -0.013877066 0.078403756
-0.13201077 -0.06686847 -0.1213791 0.0279837 -0.025361245 -0.02393218 -0.103668414 -0.098032236
0.07748773 -0.1298399 0.04340617 0.038153727 0.015787855 0.0012150555 -0.063429326 0.057765618
0.06586429 0.09327596 -0.023366997 0.14037365 0.03766676 0.12793618 -0.06346432 -0.025406193
0.037477765 0.13371782 0.039571237 0.027438937 -0.021957107 0.016543789 -0.059949163 0.074633956
-0.0033950198 0.08451334 -0.010183431 -0.003002131 -0.105490394 -0.08734339 0.066566855 0.047825724
0.09042153 0.005131523 -0.014138685 -0.048949268 -0.13516027 0.02440878 0.0434957 0.004228635
0.09842382 -0.07595854 0.09280868 0.059084937 0.06021945 -0.16850345 0.026100922 0.016222922
-0.004474108 0.09760592 -0.057474878 0.062839136 0.10522585 -0.020989668 -0.08684766 0.030887915
0.07168474 -0.0037602035 -0.09818997 -0.05552651 -0.024213104 0.08476722 -0.09299186 0.04881123
0.12277787 0.061349817 -0.1572519 -0.08493465 -0.083847925 -0.09214544 -0.03742297 -0.11181402
0.014701512 -0.0384711 -0.006342508 -0.106469996 0.06707876 0.03614048 0.02448022 -0.13353659
-0.09193923 0.12834631 0.017368995 0.037744395 -0.15449986 0.14959215 0.12793986 -0.23344074
0.09084601 -0.03796942 -0.23145118 -0.09630106 -0.06563026 -0.120160125 0.11453285 -0.012472261
-0.17545457 -0.13272765 -0.00805201 -0.285703 -0.00091801665 -0.010252763 -0.018448042 -0.10080143

lstm.weight_hh_l0_reverse f4 [256, 64]
00000000: 9d8f 433c 9bf0 19be d354 c83d 6395 d4bd
00000010: 9816 f0bd 9ce1 a33c 92a3 8fbc fc68 d3bd
00000020: ce79 473d 6b20 bbbd a34a 6e3d f454 c7bd
00000030: 404f c8bc 004a 60bd 333a e6bd e48b 8bbc
00000040: e979 07bd a6fd 6dbd f822 253e 6ca3 e73d
00000050: 9430 063e 9b20 b13c bfc6 bcbd f4f9 f13c
00000060: 8615 7c3d 9671 e03a a6d1 59be 228a 9e3d
00000070: 5c70 1bbd 72b2 fcbc a101 fd3c 3265 eb3d
00000080: 7eb6 c3bd c8b5 cebc 2c32 b9bd 259a 523d
00000090: 0c72 013e 7d77 acbc 2dd8 b33c a342 fe3c
000000a0: b586 653d 1463 de3d ec0d 483c 661f a93d
000000b0: ab75 403d 1b0d 18bd a0f4 d43d c4ea d3bd
000000c0: 657d 12be 5180 bcbd 6b2a b0bc b90f ccbc
000000d0: dd6c b7bd 0517 15bd 1c57 9e3d e962 a53d
000000e0: 1151 123e 8253 753c 8935 8c3d 5f4f 0dbe
000000f0: e1b9 c9bd 10ea 06be c7e4 3abc 30ca ac3d
00000100: ecb4 66bd c7c5 0bbe 2e38 ad3d 4a4a 943b
00000110: acaa 033e b81f 1f3d 67df 8ebd 67d9 b83d
00000120: b2b1 f73d a84e c4bd 40bf c33d 02b5 8d3d
00000130: a42b e23c 9964 9abd dfaf b73d bd44 0cbe
00000140: 6519 b1ba 4278 93bc 9aff 323d dcc9 ab3c
00000150: 23e8 acbd c7e2 4cbd f65c f3bd d509 c43d
00000160: debc c1bd feca 1dbc 0dac 873d 48fb a0bb
00000170: 08f2 4ebd e44a 1dbb e838 e2bd 5d7c 31bd
00000180: 76b7 c4bd 9c93 733d 0a4e 15bd c8b7 66bd
00000190: 754a f43d 26d5 693d 6da2 a0bd 6f4b dfbd
000001a0: d0ca 4cbd 2048 a13d 18f9 96bd f8af d6bd
000001b0: 3489 4d3d ee9e 273e 25b6 5fbc 3efa ce3d
000001c0: 8b5d ffbd 95c1 d9bc ceb8 22bd 0bf1 a33d
000001d0: d65f dc3d f1ba d4bd 133e aabd a97b 04be
000001e0: baf4 05bd a9d7 333d d271 f73d 6755 d23d
000001f0: 813c 41bd 149b 303d 9266 fd3c a557 fabd
00000200: 5783 b73d 3fe1 cabc 2080 b2bd 755e c0bd
00000210: 1f52 0d3e 462c 583d 45ea b2bc da98 23bd
00000220: 42d4 733d 7179 27bb 647b 523d 3938 8c3a
00000230: ef3a 41bd 490c 0bbe f0ae 0fbe 06b8 06bd
00000240: 0ee4 ad3d 6208 35be a5c4 223e 014f 08bd
00000250: abd0 203d 6c79 5abd 2607 37bd c87c 063d
00000260: b624 8c3b 3986 483d 6825 893d 90e5 38bd
00000270: 314f 993d c026 94bd 4d53 273d e2a1 1e3e
00000280: 3840 d53c 7854 14be 550d e1bd 9fa6 4ebe
00000290: a911 323e f998 c5bd 730c e53d a860 01be
000002a0: 6619 ccbd c553 abbd 716d 593c 0069 4b3d
000002b0: 36f9 58bd 5dd0 5c3e 60cc 87bd 034f 7d3c
000002c0: d98a 91bd 9746 6e3d cb0c b0bd ed0e a8bd
000002d0: 1e98 d33a 69fd 573c 415d 1bbd 2093 693c
000002e0: 31ab fb3c f16b 82bd 0d19 c43d eb69 3a3d
000002f0: e342 863d b304 843c 2a37 dcbd 1fcf a6bd
00000300: 77dd c2bd 48ec 6abd fbf0 ad3d d7db 9bbd
00000310: e2fc 6dbd 2d91 ef3d 294e aabd d8f6 7b3d
00000320: 14e9 cbbd 0283 9c3d fa31 23bd 24a9 0d3e
00000330: 57b8 6d3c 9c29 70bd 77ca 023e 61db f03d
00000340: f46b 9d3c 286f 75bc 6ef8 75bb ec99 4cbc
00000350: 744d 88bd dd01 36bb 2e56 dc3d dc7d f5bc
00000360: 46b2 54bd ee42 ac3b df77 27bc 9ba4 d53d
00000370: 6cb1 5e3d 27b5 d03d 35c8 92bd 4c6e 1b3d
00000380: 27d0 69bc cd08 db3c 26a2 e83d 9217 77bd
00000390: 3d00 a03a c304 063d 6e7c 77bd 3019 b7bc
000003a0: a914 a83c 2bd9 c9bc 058c ea3d 6fcf 853d
000003b0: 9c15 d53d a4d3 283e 9b3e 55bd efe8 483d
000003c0: aae9 343d e9f3 a1bd 10e6 aabd f726 0abd
000003d0: 20a0 dbbc 6c3d dcbd da83 a5bd 9c42 b3bd
000003e0: 1005 e83c 5f17 a6bd 666c f6bd f83d 81bc
000003f0: 9725 b8bc aee9 c13d 7823 c7bd f29f ad3d
0.011936096 -0.1503319 0.09781804 -0.10380056 -0.117230594 0.02000504 -0.017534051 -0.103227586
0.048700146 -0.091370426 0.058176648 -0.097330004 -0.024451852 -0.054758072 -0.11241569 -0.017034478
-0.033075247 -0.058103226 0.16126621 0.11310467 0.13104469 0.021621993 -0.09217595 0.029538132
0.061543964 0.0017123695 -0.21271381 0.077411905 -0.03794895 -0.030846808 0.030884566 0.11493911
-0.09556292 -0.025233164 -0.09042773 0.051416535 0.12641162 -0.02105307 0.021953667 0.031037634
0.05603667 0.108587414 0.0122103505 0.08257942 0.046987217 -0.037121873 0.10398221 -0.10347512
-0.14305647 -0.09204162 -0.021504601 -0.02490984 -0.08956311 -0.036398906 0.077314585 0.08075506
0.14288737 0.014973523 0.068461485 -0.13799809 -0.09849907 -0.13175225 -0.011407084 0.08437002
-0.056324884 -0.13649665 0.08457981 0.0045254575 0.12858075 0.03884861 -0.06976204 0.09025841
0.120944396 -0.09585315 0.095579624 0.0691929 0.0276087 -0.07538719 0.089690916 -0.13698097
-0.0013511596 -0.01800168 0.043700792 0.020970277 -0.08442714 -0.05002096 -0.11882965 0.09572188
-0.09459852 -0.009630917 0.06624613 -0.0049127676 -0.050523788 -0.0024000937 -0.1104601 -0.043331493
-0.09605305 0.059466943 -0.036451377 -0.05632761 0.11928264 0.05708804 -0.0784348 -0.1090306
-0.049998105 0.07875085 -0.073717296 -0.10482782 0.050179675 0.1636922 -0.0136542665 0.10106324
-0.12469014 -0.026581565 -0.039727025 0.0800496 0.10760467 -0.10387219 -0.08312621 -0.12937798
-0.032704093 0.04390684 0.120822564 0.102701955 -0.04717684 0.043116644 0.030932698 -0.12223748
0.08960598 -0.024765609 -0.08715844 -0.09393016 0.13800858 0.052776597 -0.021840224 -0.039940692
0.059528597 -0.0025554562 0.051387206 0.0010697908 -0.047175344 -0.13578905 -0.14031577 -0.032890342
0.084907636 -0.17678979 0.15895326 -0.03327847 0.0392615 -0.053338453 -0.04468455 0.032833844
0.004276837 0.04895613 0.06696588 -0.045140803 0.07485808 -0.072339535 0.040850926 0.15491441
0.026031598 -0.14485347 -0.10988871 -0.20180748 0.1738955 -0.09648318 0.11184015 -0.12634528
-0.09965782 -0.08365587 0.013270722 0.049660683 -0.05297204 0.2156386 -0.06630778 0.015460732
-0.07106561 0.05817279 -0.0859619 -0.08205972 0.0016143357 0.013182976 -0.03793073 0.014256269
0.030721279 -0.063682444 0.095750906 0.045511167 0.065557264 0.016115522 -0.10752709 -0.08144974
-0.09514897 -0.05735424 0.08493229 -0.076102905 -0.058102496 0.11697612 -0.08315689 0.061514705
-0.099565655 0.07642175 -0.039842583 0.13834053 0.014509282 -0.05863343 0.12772547 0.11760593
0.019216515 -0.014980115 -0.003753211 -0.01248787 -0.06655398 -0.0027772107 0.10758625 -0.029967241
-0.051927827 0.005257002 -0.010221451 0.104317866 0.05436842 0.10190802 -0.07167093 0.037946984
-0.014270819 0.026737595 0.11359052 -0.060325213 0.0012207102 0.032719385 -0.0604214 -0.022350878
0.020517664 -0.024639687 0.11452488 0.065337054 0.10404512 0.16486984 -0.05206166 0.049050268
0.044168152 -0.0790785 -0.08344662 -0.033728566 -0.026809752 -0.10753903 -0.08081789 -0.08752939
0.028322726 -0.081099264 -0.12032394 -0.01577662 -0.022478862 0.09468399 -0.09723562 0.08477773

lstm.bias_ih_l0_reverse f4 [256]
00000000: 19f8 14bd 0723 813d c497 143e 8e7c 0f3d
00000010: da5b b2bd fd19 023e 9dc3 00be 1f8a e03c
00000020: d118 67bd 14cb 0dbe 26f4 af3b 2c87 a33d
00000030: dcac 40bd a37e 613d 5bcf 853b 735a 053d
00000040: 0ef5 053e 71bd 36bd 0f3d 693d 7ce8 9e3d
00000050: 80f4 903c 552e 033e 94b6 803d c260 b1bc
00000060: 2e9e fd3d 5de7 e83d 3546 af3d 5772 86bc
00000070: f9ca 1dbc d351 71bd 420b 053e cc08 7d3c
00000080: b3fc a1bb 1967 a63d 5c81 ba3d 76e1 e03a
00000090: 1bd0 ab3d 1d7d 65bd aaca ea3c 8530 8dbd
000000a0: fcdf 873d 2ca0 da3c ab03 b83c 9431 b0bc
000000b0: 39fe e33d ce1d a93e 4957 b73d 9050 a7bd
000000c0: 40b9 523d 88ed 64bd 08a8 213d d682 f9bd
000000d0: e15c 1ebd 3065 133d b06f c1bd d24b 613c
000000e0: eecb 7a3d 5ee0 923d 536c 873d f52a b83d
000000f0: 3dbe d5bd 1c07 a9bd 2590 b2bd cb0f 96bd
00000100: ea12 75bd 02ad 0dbc d818 d4bc ed4e dabd
00000110: f1d6 d9bd e2a0 383e e52e 72bc 8297 093c
00000120: f466 70bd b5d1 b3bd 7b2f 573d 460b de3d
00000130: a713 6fbd b071 70bd 8ec8 46ba 9c9f 98bc
00000140: 8e9e 18bd 524d ac3d 8f16 f13d 727f cb3d
00000150: 7c4e a73c ab13 4cbd fb20 653d fd0e 673d
00000160: 098a eebd 6bf1 de3c ff65 ef3d 3693 0e3e
00000170: 9a7e 563d 17f4 cb3d b585 9a3d e629 d43d
00000180: 9ce2 aebc 67fe 3abd bfa5 d13d dfd5 ee3c
00000190: 9092 a03d cded cfbc f041 afbd fec3 fdbd
000001a0: 0a38 ad3a 4a61 ec3d b1bd 833c 6f50 e93d
000001b0: d5f8 c3bd 11f2 cf3d 4662 82bd 26aa 5dbc
000001c0: c7be 8d3d ad07 d23d 8d3a 8cbd e896 09bd
000001d0: 2808 4fbd 5545 c7bc 9d2e f03d cd65 d9bd
000001e0: 9599 a1bc 0d04 11bd 37e6 3cbd 27e7 febc
000001f0: 7527 993d 6ea9 a93d fa08 0dbd 7c24 5cbc
00000200: f46f a3ba 3122 a1bd 3c5b 59bd 956d 25bd
00000210: 9c5d f23d e8ac ef3d a55c c5bd 838d e2bd
00000220: 204d 6dbc 6562 41bd 6699 a6bd f7a1 163d
00000230: 63eb aebd 7155 d23d 99aa 84bd e94e 39bd
00000240: b472 b1bc 02b8 b6bc 7ea4 3d3d f0f5 f13d
00000250: e1b6 d6bd 2ee7 9abd 9c44 85bd 8116 f8bb
00000260: 8116 803d 3b94 c7bd adc5 a43d 7d67 9fbd
00000270: 1fd8 abbd cc68 d1bd df50 163d 85f5 963d
00000280: 40d0 893c 2eb0 843d 252b 56bd 803f 44bd
00000290: e88f 95bb f7e1 e8bd ca84 713d 5f57 cebc
000002a0: d124 e6ba 5849 96bd 160a 92bd 5ca2 20bd
000002b0: 9535 6ebd 543e a4bc 0cf0 d13d 8607 8b3d
000002c0: a15b 61bd a83d 9f3d 95f7 9ebd 0c70 84bd
000002d0: 7be1 993d 2bf8 63bd c8f0 81bd ecf5 a0bd
000002e0: 8407 883d c77d bfbd 6309 b73d 1d63 40bd
000002f0: 6910 0b3d 9c8c 5c3d 0d98 45bd c9d4 5dbc
00000300: f370 babd 7550 903d 96f0 dc3d bdcd e2bd
00000310: dd63 0ebd e1be c7bb 8328 86bd 7141 8c3a
00000320: e402 8bbd b29c 76bd c5de 08be 02cf df3d
00000330: 9d83 a93d 710c 303d 52c8 133d f243 b03d
00000340: 969d f6bb 7e44 083e 3c42 0d3e 34e3 893d
00000350: da81 32bd 95b5 b43c dc54 9dbd 7692 f8bb
00000360: e756 c23d 531d 91bd a27c a93d 1b5c 9e3c
00000370: 8564 49bd b3f9 fa3d ecd1 133d a59f 3b3c
00000380: fcc0 d73d ede8 c9bd 68fc 413e ff2f a43c
00000390: d5af 303e 4d5b c8bd 30cc 103e dc08 92bd
000003a0: 1b2d 843d b42c c33d 5228 56bd bbdb 773d
000003b0: 57a9 aabd 9f40 ce3e 5ccd 0abd 540f cc3d
000003c0: 13d9 873d 3c16 023e 9d36 8d3c 0426 d53d
000003d0: 9944 133d 02c4 913c 10ad 333d 6245 9ebd
000003e0: 9b33 123e 0d88 02bc 2029 d9b9 db45 023d
000003f0: d810 8ebd a5ac ed3d d37d 74bd 756f d13d
-0.036369417 0.06305509 0.14511019 0.035030894 -0.087089255 0.12705226 -0.1257462 0.027409611
-0.05642015 -0.13847 0.005369681 0.07984766 -0.04703985 0.05505241 0.0040835566 0.032556962
0.13081762 -0.04461426 0.056942996 0.077591866 0.017694712 0.12810643 0.06284824 -0.021652583
0.12383686 0.11372254 0.08558313 -0.016411943 -0.009630912 -0.058915924 0.12992576 0.015443992
-0.004943454 0.08125133 0.091067046 0.0017157036 0.08389302 -0.05602752 0.02866109 -0.0689402
0.066345185 0.026687704 0.022462687 -0.021508016 0.111324735 0.33030552 0.08952195 -0.08169663
0.0514462 -0.05589059 0.039466888 -0.12183158 -0.038662795 0.03598517 -0.09445131 0.013750987
0.06122964 0.07171701 0.06612458 0.089925684 -0.10436676 -0.08253309 -0.087189 -0.07327231
-0.05983249 -0.008647205 -0.025890753 -0.10659585 -0.106367 0.18030122 -0.014781688 0.008397939
-0.058691934 -0.08780233 0.052535515 0.10841994 -0.05836835 -0.05870217 -0.00075829856 -0.018630795
-0.037260585 0.08413185 0.11771881 0.09936418 0.020423166 -0.049823444 0.055939656 0.05641078
-0.11647422 0.027214726 0.11689376 0.13923344 0.05236683 0.09958666 0.07545034 0.10359554
-0.02134829 -0.045652773 0.10236692 0.029154716 0.078404546 -0.025381947 -0.085574985 -0.12390898
0.0013215553 0.11541994 0.016081663 0.113922946 -0.09568945 0.101535924 -0.063664004 -0.013529336
0.069211535 0.1025537 -0.06847105 -0.03359118 -0.050544888 -0.024325052 0.11727641 -0.1061512
-0.019726554 -0.035404254 -0.046117987 -0.031116081 0.07478229 0.08284269 -0.03443239 -0.013436433
-0.0012469278 -0.078678496 -0.053065524 -0.04038771 0.11834261 0.11702901 -0.09636811 -0.110621475
-0.01448372 -0.047212977 -0.08134727 0.036775555 -0.0854099 0.10270203 -0.064778514 -0.04524127
-0.02166114 -0.022304539 0.04629945 0.11814487 -0.104841 -0.07563625 -0.06507227 -0.007571042
0.06254292 -0.097450696 0.08045516 -0.07783411 -0.08390831 -0.102250665 0.03669822 0.07371048
0.016822934 0.06478916 -0.05228724 -0.04791212 -0.004564274 -0.113712244 0.05896453 -0.025188146
-0.001755858 -0.07338208 -0.0713083 -0.039217338 -0.05815657 -0.020049252 0.102508634 0.06788544
-0.055019025 0.07775432 -0.07762066 -0.06466684 0.0751371 -0.055656593 -0.063447535 -0.07859406
0.066420585 -0.09350162 0.08937337 -0.04696952 0.033951197 0.053845033 -0.04824071 -0.0135395015
-0.091035746 0.07046596 0.107880756 -0.11074398 -0.034763206 -0.0060957526 -0.06550696 0.0010700655
-0.06787661 -0.06020803 -0.1336623 0.109281555 0.08277056 0.042980615 0.036079712 0.086067095
-0.00752611 0.13307378 0.13794798 0.06732789 -0.043580867 0.022059241 -0.07682201 -0.007585819
0.094892316 -0.07085671 0.08275725 0.019331029 -0.04916813 0.122546576 0.03608887 0.011451636
0.10534856 -0.0985888 0.18943942 0.020042418 0.17254575 -0.09783039 0.14140391 -0.07130596
0.06453916 0.09530011 -0.052284546 0.060512286 -0.0833308 0.40283677 -0.033887252 0.09963861
0.066332005 0.12703794 0.017237956 0.104076415 0.03595409 0.01779366 0.043866217 -0.077280775
0.14277498 -0.007967007 -0.00041420106 0.0318049 -0.069368064 0.11605195 -0.059690308 0.10226337

lstm.bias_hh_l0_reverse f4 [256]
00000000: 01ed c3bd a1cd fc3d b858 393a 8dc3 6fbd
00000010: c234 2e3d c7fe dc3d b6a8 07be 030e 50bc
00000020: acee b33c 81d6 61bc d6d9 a13b a0df a03b
00000030: 8956 3c3d 1e82 92bd e6e4 42bd fdc5 e93d
00000040: 94c4 123e a28b c43c 8b61 5c3e 430c d2bc
00000050: f100 4ebd 19c9 23bd a893 a83d 5962 663c
00000060: 3468 02bd dd53 4d3d 00a9 89bc abcd eb3d
00000070: 59a1 6c3d 86ac 93bd e130 c93d a41a a83d
00000080: 029a 123d f277 52bd 3574 1d3e b4ab ca3c
00000090: 0748 753c 62e3 7abc 8b98 09bc 97ac e2bd
000000a0: c03d c4bc 64b8 5ebd f314 cd3d 2298 2cbc
000000b0: 466e f8bb 3141 683e 35a5 e8bd e48e 683c
000000c0: 78da 2c3e 5ebf 3bbd 35a2 13bd 33dc 81bd
000000d0: f511 0bbd 9b78 6e3d 93d0 fcbc 7d82 e2bc
000000e0: 2b25 d43d 19aa af3d ceb0 a7bd 7f15 013d
000000f0: e8c2 5cbd 8e9e fabc f96f c5bd 5264 b9bd
00000100: 1301 d9bc 26f3 be3d 12ad 8abc fe6e 36bc
00000110: b1b9 8dbc 7814 c83d 613d 953d 7e47 683d
00000120: a0e7 dc3d 94ff 33bd 10df 663d 4495 c73d
00000130: 1561 8ebb 4f2a 0b3e 0de6 e3bd 992a 903c
00000140: a47b 163e 215e df3d 59ab e9bc b80f c2bb
00000150: 1cfe dc3c 4cac 213d 23ee c33d 9c49 043e
00000160: 93de a03d 40b4 c03b 2b0c a03d 1521 123e
00000170: 0ead 19bc c9df c03d eb57 b9bc 8ef7 773d
00000180: 810a e73c 5f4e 6dbd a713 103e a2ec 33bd
00000190: 9960 873d 9e6d 163d a533 483d 0a76 663d
000001a0: a662 cabd 70d2 f3bd d5c5 35bd bf47 f0bd
000001b0: 84af 1b3d 0f16 ea3d a387 3f3d 4f67 403c
000001c0: 5177 3e3e 5f31 073d aa23 ff3d dac1 843d
000001d0: f47f debd 8921 b73d c320 81bd c618 a3bd
000001e0: d912 9ebd f70a 39bd 553e 523d 22db 2a3c
000001f0: fbc2 07bd 2e67 983b d1e9 153c 8b1c d6bd
00000200: 9c97 963d 464b 0e3d 1c5a 893c c310 8c3d
00000210: a74e 8ebd 0a54 3fbd 68c1 93bd 754f c83d
00000220: f6d7 463d 7144 93bd 5e24 bcbd 0d6c 05be
00000230: fc27 a23d 7aac 91bd 0e46 e23c 2ea6 08bc
00000240: b8c8 c03d c6b9 acbb feb2 d83c d159 a6bd
00000250: 686e ef3d 748c f83c 7e12 b6bd 77a7 893d
00000260: 0d5f 833d 53c8 d83d 110c debd 3017 943d
00000270: 5ccf 93bd 7e15 063d 3feb a9bd a755 22bb
00000280: 4a06 f43c 9a0b 07bc 8eb9 a2bb ffee d9bc
00000290: 58d5 f63c 0d57 dbbc 269e eebd 081b 8fbd
000002a0: 2f4b bd3d 5124 4ebd 3945 5e3d 3e45 393d
000002b0: 8fe8 cf3d 3d65 ddbc 8bcd 2f3d ddd3 b23d
000002c0: a1b6 3bbd 8361 f8bc 2baa b43c 4970 84bd
000002d0: 4ba3 a43b 15c0 383d 27a0 27bc a7ff 853d
000002e0: 3541 8dbb 2f1b 99bc 68db 14bd 1965 123c
000002f0: 297b d3bc f60d c5bd cec4 4bbd e61d d33d
00000300: bf00 923d 0d12 6e3d 9a7e 623d 0bae 043d
00000310: 51c5 f2bd e365 653e 1d10 eebd f09d 1ebd
00000320: b53e 9e3c 2d5d 7ebd d6f1 473d 147e 94bb
00000330: 0105 963d f2bf fa3d 15ce aebb 0e1c fc3c
00000340: aac2 ce3c 9a6c 5abd 8f00 ad3b 5efb 7c3d
00000350: 9493 b53c 7f06 a23c 87f0 68bd 350f 5a3d
00000360: c031 b13d fad4 493c f4c1 f23d d9f0 24bc
00000370: cf6d d6bd 34e7 d03c c96a c73d 80e3 ea3d
00000380: 93ad c5bd 1f84 643d 9d80 453e 930d b5bd
00000390: f1d6 be3d dbf7 47b9 6a9f 9bbd 3053 66bd
000003a0: ff2f cf3d 1f9d 81bd ea4a 5f3d 55b8 8c3d
000003b0: a292 20bd 9fba 5c3e a8d4 063d 44c3 fcbd
000003c0: dc74 873b 89f4 00bd 8704 7b3d 9bb7 ddbd
000003d0: 0fc7 e33d 9c8f 7b3c 1d20 f83d dd9e 333b
000003e0: ba28 d63d 3fe8 9fbd 761a 45bd f5bf 36bd
000003f0: 6e7e 84bc da80 06bd c58c 64bd 7e55 abbd
-0.09566689 0.12343908 0.000707041 -0.0585361 0.042530783 0.107907824 -0.13247952 -0.012698653
0.021964394 -0.013784052 0.004939298 0.0049094707 0.045980964 -0.07153724 -0.047581576 0.114147164
0.14332801 0.023992363 0.21521585 -0.025640612 -0.050293867 -0.039986704 0.08231288 0.014061534
-0.031837657 0.050128806 -0.016804218 0.115138374 0.05777106 -0.072106406 0.09823776 0.08208206
0.035791405 -0.05138392 0.1537636 0.024740078 0.014970786 -0.015313001 -0.0083981855 -0.11068075
-0.023955226 -0.054375067 0.10013761 -0.010534318 -0.007581505 0.22681119 -0.11359636 0.014194224
0.16880214 -0.0458368 -0.036043365 -0.06340828 -0.033952672 0.058220487 -0.030861175 -0.027650112
0.10358652 0.085773654 -0.0818802 0.03151464 -0.053896815 -0.030593183 -0.09640498 -0.09052338
-0.02648977 0.09323721 -0.01692823 -0.011134861 -0.017300459 0.09769529 0.07287098 0.056708805
0.107863665 -0.04394491 0.056365073 0.09745267 -0.004345069 0.13590358 -0.11127863 0.017598437
0.14695603 0.109066255 -0.028524088 -0.005922284 0.026976638 0.039470956 0.09566905 0.12918705
0.07854953 0.0058808625 0.07814821 0.14270432 -0.009379638 0.09417684 -0.02262493 0.06053882
0.02820325 -0.05793607 0.14069997 -0.043926843 0.066102214 0.036725633 0.048877377 0.056264915
-0.09882097 -0.11905372 -0.04437812 -0.117324345 0.03800918 0.114299886 0.046760213 0.011743381
0.18600203 0.03300607 0.12457974 0.06482287 -0.10864249 0.08941943 -0.06305077 -0.079637095
-0.07718439 -0.045176473 0.051328976 0.010428222 -0.033144932 0.004650972 0.009149984 -0.10454663
0.07353136 0.034739755 0.0167666 0.068391345 -0.069485955 -0.046711005 -0.07214624 0.0978078
0.0485458 -0.071907885 -0.09186624 -0.130295 0.07917783 -0.071129754 0.027621295 -0.008340402
0.09413284 -0.0052711694 0.026452538 -0.081226 0.1169098 0.03034041 -0.08890246 0.067213945
0.06414614 0.10585084 -0.10842145 0.07230985 -0.07217285 0.03273534 -0.08296823 -0.002477029
0.029788155 -0.008242512 -0.0049659675 -0.02660322 0.030131027 -0.026774907 -0.11651258 -0.06987578
0.09242856 -0.050327603 0.054265235 0.04523205 0.10151779 -0.027025813 0.04292063 0.08731816
-0.045828465 -0.030319935 0.022053799 -0.06466729 0.005024349 0.04510506 -0.010231054 0.065429024
-0.004310752 -0.01868972 -0.036342055 0.008935236 -0.025815563 -0.096218035 -0.049748234 0.10308437
0.071290486 0.058122683 0.055296518 0.032392543 -0.11854041 0.22402148 -0.11624167 -0.03872484
0.01931701 -0.062100578 0.048814617 -0.0045316312 0.07325173 0.12243642 -0.0053346255 0.030775096
0.025239307 -0.053326227 0.0052796076 0.06176316 0.022165097 0.019778488 -0.05687001 0.05323716
0.08652067 0.012318844 0.118534 -0.010067188 -0.10470163 0.025500871 0.097371645 0.114691734
-0.09652247 0.055790063 0.19287343 -0.0884048 0.093183406 -0.00019070452 -0.07598765 -0.056231678
0.101165764 -0.063287966 0.054514803 0.06871096 -0.03920234 0.21555565 0.03291765 -0.123419315
0.004133804 -0.031483207 0.061283614 -0.108260356 0.11121952 0.015354063 0.121155 0.0027407922
0.10456987 -0.07807969 -0.04812094 -0.04461666 -0.016173568 -0.032837726 -0.05579831 -0.08365916
